data/weights/feature_mlp_4ch.pth (torch, 32035 bytes, 14 tensors)

net.0.weight f4 [64, 26]
0	0x3e0b1d20	0.13585329
1	0x3e22fd93	0.15917043
2	0xbd438311	-0.047732417
3	0x3e2b8795	0.16750939
4	0xbd7cbe09	-0.06170467
5	0x3d17f61c	0.037099943
6	0xbdc24c06	-0.094871566
7	0x3df1a1ad	0.11798415
8	0x3e383ee5	0.17992742
9	0xbe05dd41	-0.13072683
10	0x3e255833	0.16146927
11	0x3cb18220	0.021668494
12	0x3e0ea5a3	0.13930373
13	0x3caf7f96	0.021423142
14	0x3de77edd	0.11303494
15	0xbc17c919	-0.009264254
16	0x3e28529a	0.1643776
17	0x3d331aa9	0.043726597
18	0xbdcd7197	-0.10031431
19	0x3d22cd2c	0.03974645
20	0xbdc8f2e6	-0.09811954
21	0xbd0389a1	-0.032113675
22	0xbda93778	-0.08262533
23	0x3e01d213	0.12677793
24	0xbe2b6602	-0.16738132
25	0xbda6e86c	-0.081498
26	0xbcd0063d	-0.0253936
27	0xbe103a37	-0.14084707
28	0x3d06e762	0.032935508
29	0xbe218e50	-0.15776944
30	0x3e590566	0.21193466
31	0xbe24d68f	-0.16097473
32	0x3e40d024	0.188294
33	0x3c62fb42	0.01385385
34	0xbd676f08	-0.056502372
35	0x3dc5f4c0	0.09665823
36	0x3d123594	0.035695627
37	0x3dfdd932	0.12394942
38	0x3ca1872c	0.019717775
39	0xbdb2a02d	-0.08721957
40	0x3d5368ca	0.051613607
41	0xbd5c28b1	-0.053749744
42	0x3dbd7d7b	0.09252449
43	0x3e38b341	0.1803713
44	0x3de20557	0.11036175
45	0xbda9a54c	-0.08283481
46	0x3e05bbd2	0.13059929
47	0x3d3c9ffe	0.046051018
48	0x3dd41e20	0.103573084
49	0xbdd9335b	-0.106054984
50	0xbe3caf9d	-0.18426366
51	0xbd32dfdb	-0.043670516
52	0xbdfdb365	-0.123877324
53	0x3e054df8	0.13018024
54	0x3d8f57b3	0.06999149
55	0x3d8ccf06	0.06875424
56	0x3db0de02	0.08636095
57	0xbcf43782	-0.029811624
58	0x3e3ceb19	0.18449058
59	0xbe2a08d4	-0.1660493
60	0x3be14aa5	0.0068753534
61	0xbe14e55b	-0.14540617
62	0x3d79ed6d	0.061017442
63	0xbdcd2015	-0.10015885
64	0x3d54fa41	0.051996473
65	0xbd73b716	-0.059500776
66	0x3e3a6084	0.1820088
67	0xbdcf0f65	-0.10110358
68	0xbdd67936	-0.10472338
69	0xbdc88d80	-0.09792614
70	0x3e2b634d	0.16737099
71	0x3d5914a8	0.052998215
72	0x3e444883	0.19168286
73	0xbe1bc9d8	-0.15213716
74	0xbe390c27	-0.18071042
75	0xbe0295b1	-0.12752415
76	0xbe09cdd1	-0.13457419
77	0x3dddefe9	0.10836775
78	0x3db1337a	0.086523965
79	0x3e20e612	0.15712765
80	0xbdba470f	-0.090955846
81	0xbe0b8121	-0.13623478
82	0x3df67b95	0.1203529
83	0xbda4a44c	-0.0803915
84	0x3e0910a5	0.13385256
85	0xbd53015d	-0.051514972
86	0x3dce0317	0.10059183
87	0xbe2e9495	-0.17048867
88	0xbdbdeaa3	-0.09273269
89	0x3d509b5a	0.050929405
90	0x3d166b54	0.03672345
91	0xbd479a25	-0.048730988
92	0x3dd29870	0.102829814
93	0x3dffd889	0.12492473
94	0xbe1505ee	-0.14553043
95	0xbdda8053	-0.10669007
96	0x3e335721	0.17513706
97	0xbd8ada97	-0.06779974
98	0xbd91912f	-0.0710777
99	0xbe448067	-0.19189607
100	0xbdc8bf3a	-0.098020986
101	0x3d5929df	0.053018447
102	0xbc6e1448	-0.014531203
103	0xbe0c5bd4	-0.13706905
104	0x3cf7179a	0.030162621
105	0xbe0baf60	-0.13641119
106	0xbe151a75	-0.14560874
107	0xbdecec64	-0.115685254
108	0xbe18dd05	-0.14928062
109	0xbdf82058	-0.12115544
110	0x3e5fae44	0.21843821
111	0x3cf18043	0.029480105
112	0x3d76b087	0.060226943
113	0xbe4084ab	-0.18800609
114	0xbdff0ecd	-0.12453995
115	0xbd8aff2d	-0.06786952
116	0x3d32ffb8	0.043700904
117	0xbe44a355	-0.19202931
118	0xbdb23a50	-0.087025285
119	0xbdf51d53	-0.11968484
120	0x3c3c35cd	0.0114874365
121	0xbd7e9bc3	-0.062160265
122	0x3b982b07	0.004643801
123	0xbdf0b8c4	-0.11753991
124	0xbdf65f1d	-0.1202986
125	0xbdbfb3b0	-0.093604445
126	0xbd57b4ec	-0.052662775
127	0xbe139176	-0.14410958
128	0x3e383562	0.17989114
129	0xbcff2718	-0.031146571
130	0x3e33f477	0.17573725
131	0x3d590231	0.052980606
132	0xbe338934	-0.17532808
133	0x3e07f7ee	0.13278171
134	0xbd0a8f88	-0.03382829
135	0xbd9c7eeb	-0.07641395
136	0xbe189652	-0.14901093
137	0xbe4caa6c	-0.19986886
138	0x3d3b7fc4	0.045776144
139	0xbd3bd8a1	-0.04586089
140	0x3d81cde9	0.06338102
141	0xbe24c222	-0.16089681
142	0x3e0c93ce	0.13728258
143	0xbe17839f	-0.14796303
144	0xbca90433	-0.020631885
145	0x3d650a51	0.05591804
146	0x3def1f96	0.116759464
147	0x3e2dbad7	0.16965805
148	0x3e37a980	0.17935753
149	0xbe1b1b09	-0.15147032
150	0x3d651cea	0.055935778
151	0xbd9489b1	-0.07252825
152	0xbcd1e228	-0.025620535
153	0xbe0984fd	-0.13429637
154	0x3e39a103	0.18127827
155	0xbe14abb7	-0.14518629
156	0x3e0d7f40	0.13818073
157	0x3d324434	0.043522075
158	0x3d4eb3d5	0.05046447
159	0xbdbf27d3	-0.09333768
160	0x3e590e5c	0.21196884
161	0x3cb95c5f	0.022627054
162	0x3d67cc85	0.05659153
163	0xbe4172dd	-0.18891473
164	0x3db7f88e	0.08982955
165	0xbd5212ba	-0.05128739
166	0xbd9c2ba0	-0.07625508
167	0x3e0d2e3d	0.1378717
168	0x3d180200	0.037111282
169	0xbdf47b18	-0.11937541
170	0xbdd8df1f	-0.10589432
171	0xbccf7838	-0.02532588
172	0x3dc5b3a7	0.096534066
173	0xbd82cb91	-0.063864835
174	0xbdab8845	-0.08375601
175	0xbd28effa	-0.041244484
176	0xbdfc84c1	-0.12330008
177	0x3dc9b50e	0.098489866
178	0x3e09e008	0.13464367
179	0xbe2f4d7c	-0.17119402
180	0x3d573955	0.05254491
181	0x3dd2696c	0.10274014
182	0x3d30887f	0.043098923
183	0xbd846d59	-0.06466169
184	0x3dc1fc5b	0.09471961
185	0x3de92a51	0.11385024
186	0x3da47ea9	0.08031971
187	0xbd14817a	-0.03625629
188	0xbd6a1fff	-0.05715942
189	0x3cfaa3aa	0.03059562
190	0xbc871012	-0.016487155
191	0xbd38d474	-0.045124486
192	0x3dfcf2b8	0.123509824
193	0x3e2e5e60	0.17028189
194	0xbc8ad447	-0.016946925
195	0xbd03b169	-0.032151613
196	0x3c22b75d	0.0099314125
197	0x3a0ba448	0.0005326909
198	0x3d714c67	0.058910754
199	0x3d80fd84	0.06298354
200	0xbe33ca87	-0.17557727
201	0xbd6aae7e	-0.057295315
202	0x3e38e66b	0.18056647
203	0x3dacccfd	0.08437536
204	0xbc011263	-0.007877919
205	0xbde1f372	-0.11032762
206	0xbdef437c	-0.116827935
207	0xbe2ef78c	-0.17086619
208	0xbd96fedc	-0.07372829
209	0x3daeb4dd	0.08530591
210	0x3e0a33c1	0.13496305
211	0x3da1a9c5	0.07893709
212	0xbe3d98ed	-0.18515368
213	0xbdb6f891	-0.08934129
214	0xbd223627	-0.039602425
215	0x3e5a489f	0.21316765
216	0x3ceecc56	0.02915017
217	0xbd2dc5bd	-0.042424906
218	0x3d8fe636	0.07026331
219	0xbd7c6661	-0.061621074
220	0xbdf3d5c9	-0.11906011
221	0x3e21429b	0.15748064
222	0xbdb9df28	-0.09075767
223	0xbd288f37	-0.041152205
224	0xbe45da19	-0.19321479
225	0x3e026e8f	0.12737487
226	0x3e306813	0.17227201
227	0x3dcd5128	0.10025245
228	0xbdea2718	-0.11433238
229	0xbe392063	-0.18078761
230	0xbe288ae4	-0.16459233
231	0x3e043203	0.12909703
232	0x3dc100c0	0.09423971
233	0x3e19e153	0.1502736
234	0x3e0cdd29	0.13756241
235	0x3cf0ec8b	0.029409667
236	0x3cda6d9f	0.0266636
237	0xbe143ddb	-0.14476721
238	0xbe0dac85	-0.13835342
239	0xbe2bb70e	-0.16769049
240	0x3df627d8	0.12019318
241	0xbde4d1fa	-0.11172862
242	0xbd74736d	-0.05968039
243	0xbe1a189e	-0.15048453
244	0xbcdcbd0f	-0.026945619
245	0xbe24e4ab	-0.16102855
246	0xbdeea58a	-0.11652668
247	0x3d0435e0	0.03227794
248	0xbd378d80	-0.04481268
249	0x3dfc8b3c	0.12331244
250	0xbd786785	-0.0606456
251	0xbe0f9682	-0.14022258
252	0xbc866681	-0.0164063
253	0xbdb7803d	-0.089600064
254	0xbd806f51	-0.06271232
255	0xbe2dedd4	-0.16985255

net.0.bias f4 [64]
0	0xbe300afb	-0.17191689
1	0x3c85f0b1	0.016350122
2	0xbe0ca813	-0.1373599
3	0x3e174511	0.1477244
4	0x3d0184df	0.031620856
5	0xbd517c20	-0.051143765
6	0xbdcf7c0e	-0.101310834
7	0x3d8cc881	0.068741806
8	0xbdf17dc7	-0.11791568
9	0x3dbc2495	0.09186665
10	0x3dda7b06	0.10667996
11	0x3df58d27	0.11989813
12	0x3d57f86a	0.05272714
13	0xbe2ec431	-0.17067029
14	0x3e100224	0.14063317
15	0xbd7af8ba	-0.06127236
16	0xbd70cb7d	-0.05878781
17	0xbcb560ad	-0.022140825
18	0x3e136952	0.14395645
19	0x3e1a691a	0.15079156
20	0x3cf9ec16	0.030508082
21	0x3dbfc418	0.09363574
22	0xbe3bd4df	-0.18342923
23	0xb9467714	-0.00018927112
24	0xbe318e54	-0.1733945
25	0x3d89cdea	0.06728728
26	0xbe0f3c99	-0.1398796
27	0xbd8cb2c0	-0.06870031
28	0x3e0cb1dc	0.13739723
29	0x3e40c468	0.18824923
30	0xbdf0d072	-0.11758508
31	0xbdd9f20a	-0.106418684
32	0x3cd1acd7	0.025595112
33	0x3d9ccf5a	0.07656737
34	0xbd037706	-0.03209593
35	0xbd7a2bbf	-0.061076876
36	0xbe05d966	-0.13071212
37	0x3daaa14b	0.083315454
38	0x3e4708c6	0.1943694
39	0xbdc105c1	-0.094249256
40	0x3dc01e36	0.09380762
41	0x3dc2af93	0.095061444
42	0x3e225398	0.15852201
43	0xbcb3779f	-0.021907626
44	0x3bc92be2	0.0061392644
45	0x3e13a285	0.14417465
46	0x3dfc5b27	0.123220734
47	0x3e4547e4	0.19265705
48	0xbd60b5ad	-0.05486076
49	0x3d9e11db	0.077182494
50	0x3e0c5601	0.13704683
51	0xbe090f5e	-0.13384768
52	0x3d1a81da	0.037721492
53	0xbd359843	-0.04433466
54	0x3e00e960	0.12589025
55	0xbdb1796d	-0.08665738
56	0x3c5d214f	0.013496711
57	0x3def93b0	0.11698091
58	0xbe38392f	-0.17990564
59	0xbe2a7227	-0.16645108
60	0xbdcd30bc	-0.10019061
61	0x3e010038	0.1259774
62	0x3e06237e	0.13099477
63	0xbe0ae72d	-0.13564749

net.1.weight f4 [64]
0	0x3f7aefee	0.98022354
1	0x3f82bc20	1.0213661
2	0x3f816c74	1.0111222
3	0x3f7e6622	0.9937459
4	0x3f823018	1.0170927
5	0x3f8130b0	1.0092983
6	0x3f83f9d2	1.0310614
7	0x3f7eab0d	0.9947975
8	0x3f7e1593	0.9925167
9	0x3f813d48	1.0096827
10	0x3f7acb3d	0.97966367
11	0x3f816508	1.0108957
12	0x3f812e11	1.0092183
13	0x3f8096ae	1.0045984
14	0x3f7c04a2	0.9844457
15	0x3f7f11d8	0.996366
16	0x3f81d385	1.0142676
17	0x3f7d7fa7	0.99022907
18	0x3f80a3e1	1.0050012
19	0x3f794c0c	0.97381663
20	0x3f80dff1	1.0068341
21	0x3f830463	1.0235714
22	0x3f7c3d13	0.9853069
23	0x3f7dc891	0.99134165
24	0x3f7c48ab	0.9854838
25	0x3f79f5a7	0.9764046
26	0x3f7f80f5	0.9980615
27	0x3f7e563c	0.99350333
28	0x3f79bb23	0.9755117
29	0x3f7fb24e	0.99881446
30	0x3f80ef4e	1.007303
31	0x3f83eb03	1.0306095
32	0x3f80bfde	1.0058553
33	0x3f7aa331	0.9790526
34	0x3f7bcff3	0.9836418
35	0x3f80cbe9	1.0062228
36	0x3f83d52f	1.0299433
37	0x3f7c6d22	0.98604023
38	0x3f839a52	1.028147
39	0x3f7bd5de	0.9837321
40	0x3f808ecd	1.0043579
41	0x3f7ceda4	0.9880011
42	0x3f848b40	1.0354996
43	0x3f7c3145	0.9851268
44	0x3f7ba156	0.98293054
45	0x3f804b01	1.0022889
46	0x3f801e3c	1.0009227
47	0x3f83ec25	1.030644
48	0x3f81a79d	1.0129277
49	0x3f7ff732	0.99986565
50	0x3f7be029	0.98388916
51	0x3f7a1b9b	0.9769837
52	0x3f7969b6	0.9742693
53	0x3f843a74	1.0330338
54	0x3f7eff13	0.9960796
55	0x3f7d5d25	0.9897025
56	0x3f7e7dd2	0.99410737
57	0x3f7e0600	0.99227905
58	0x3f7bbd70	0.98335934
59	0x3f7c19a6	0.98476636
60	0x3f7e9f30	0.9946165
61	0x3f7dc100	0.9912262
62	0x3f7f1dd7	0.99654907
63	0x3f82598a	1.0183575

net.1.bias f4 [64]
0	0xba92f6fc	-0.0011212523
1	0x3cdcec8d	0.026968265
2	0x3cc837d6	0.024440687
3	0xbbf9285b	-0.0076036877
4	0x3bb7b18a	0.005605881
5	0x3c304569	0.010758736
6	0x3d02fe26	0.031980656
7	0xbc120334	-0.0089118965
8	0x3adc17ee	0.00167918
9	0xbb5a93ce	-0.0033352259
10	0xbbede336	-0.0072597517
11	0x3ba44a3d	0.0050137327
12	0xbb71f28a	-0.0036918246
13	0x3c83412e	0.016022291
14	0xbc70aa3d	-0.0146890255
15	0xba2ed9ff	-0.0006670057
16	0x3ccabb1c	0.024747424
17	0xbbc81174	-0.006105596
18	0xbb63a55e	-0.0034736018
19	0xbc9ffb84	-0.019529112
20	0x3aff19f2	0.0019462688
21	0x3cbaa158	0.022782013
22	0xbc6d3587	-0.014478094
23	0xbad6ce40	-0.0016388372
24	0xbc6d79d8	-0.014494382
25	0xbca82a7d	-0.020528072
26	0xbbb4f464	-0.0055222977
27	0x3c111007	0.008853919
28	0xbcee8e10	-0.029120475
29	0xbba456e9	-0.0050152433
30	0xbb222c75	-0.0024745737
31	0x3c7597e8	0.014989831
32	0xbc059b07	-0.008154637
33	0xbc8a094a	-0.016850132
34	0xbc168280	-0.009186387
35	0x3c3d8ba4	0.011568937
36	0x3cd89152	0.026436482
37	0xbb16a412	-0.0022985977
38	0x3c87dac3	0.016583806
39	0xbc88dbe9	-0.016706424
40	0x3ba6bad4	0.0050881896
41	0xbc3687c8	-0.011140771
42	0x3d06da89	0.032923255
43	0xbc6ee8cf	-0.014581873
44	0xbc1ab7e5	-0.009443258
45	0x3c95690a	0.018238563
46	0x3b849bd8	0.0040468983
47	0x3d0ae755	0.03391202
48	0x3c840206	0.016114246
49	0xbb1bd865	-0.0023780104
50	0xbbcb0036	-0.0061950935
51	0xbca23e22	-0.019805018
52	0xbbd6d5bc	-0.006556241
53	0x3cfe8972	0.031071398
54	0xbc7733d6	-0.015088042
55	0xbc526308	-0.012840994
56	0xbc3abbb9	-0.011397296
57	0x3bfe0f74	0.007753307
58	0xbbe0e5c7	-0.006863329
59	0xbc9547b7	-0.018222673
60	0xbbeb5050	-0.007181205
61	0xbb8d1768	-0.0043057688
62	0xbb708e1b	-0.0036705795
63	0x3b5e41cd	0.0033913732

net.1.running_mean f4 [64]
0	0xbe310be2	-0.17289689
1	0x3cb92f75	0.022605637
2	0xbdfb4d46	-0.12270598
3	0x3e1491de	0.14508769
4	0x3cb605f8	0.022219643
5	0xbd5bb6fc	-0.053641304
6	0xbde86add	-0.113485076
7	0x3d90cdef	0.07070529
8	0xbde5eaa2	-0.11226393
9	0x3d9ff845	0.078110255
10	0x3dc92acb	0.09822615
11	0x3dea793b	0.11448904
12	0x3d53ed80	0.05174017
13	0xbe211c9e	-0.15733573
14	0x3e1efef4	0.15526944
15	0xbd84379a	-0.06455918
16	0xbd753058	-0.059860557
17	0xbcb6391f	-0.022244034
18	0x3e1e60e3	0.15466647
19	0x3e0fbfc9	0.14038004
20	0x3ce18a00	0.027531624
21	0x3db85f28	0.090025246
22	0xbe349f56	-0.17638907
23	0x3b86392a	0.00409617
24	0xbe303f16	-0.17211565
25	0x3d74f6c8	0.05980566
26	0xbe057daf	-0.13036226
27	0xbd7f9445	-0.06239726
28	0x3e115b4b	0.14194982
29	0x3e361bf5	0.17784102
30	0xbdd27bec	-0.102775425
31	0xbddc48ad	-0.10756049
32	0x3c8656a6	0.01639874
33	0x3da101ae	0.078616485
34	0xbcd341e4	-0.025788255
35	0xbd50e03e	-0.050995104
36	0xbe08ed36	-0.13371739
37	0x3dbe7e60	0.09301448
38	0x3e40c93d	0.18826766
39	0xbdcab804	-0.098983794
40	0x3db32bdc	0.087486
41	0x3de4d93e	0.11174248
42	0x3e217519	0.15767325
43	0xbcec4362	-0.028840724
44	0x3c98ec34	0.018667318
45	0x3e162b64	0.1466499
46	0x3e0936e6	0.13399848
47	0x3e38e745	0.18056972
48	0xbd7e93a0	-0.062152505
49	0x3dbaad7e	0.09115122
50	0x3e0a09db	0.13480322
51	0xbe01acc9	-0.12663569
52	0x3cfb448e	0.030672338
53	0xbd4af65b	-0.04955135
54	0x3df96ae3	0.1217859
55	0xbdcbb444	-0.09946492
56	0x3bfaee73	0.00765782
57	0x3ded35ca	0.11582525
58	0xbe337bc6	-0.17527685
59	0xbe159175	-0.14606269
60	0xbdcd5001	-0.10025025
61	0x3df9bba1	0.121939905
62	0x3e0d42ef	0.13795064
63	0xbe0e7826	-0.1391302

net.1.running_var f4 [64]
0	0x3ec40a5e	0.3828916
1	0x3ea63e4a	0.32469398
2	0x3ecdf632	0.40226895
3	0x3e380c00	0.17973328
4	0x3f18a1b3	0.59621733
5	0x3ed2f20c	0.41200292
6	0x3eabe31b	0.33571705
7	0x3dff5dbe	0.12469052
8	0x3e89c27e	0.26906198
9	0x3eef1e26	0.4670269
10	0x3ea68639	0.3252428
11	0x3e964ac0	0.29353905
12	0x3f161865	0.58630973
13	0x3efcc38d	0.49367943
14	0x3ea824c6	0.32840556
15	0x3ee82760	0.4534254
16	0x3e5dcdcd	0.21660538
17	0x3e86e0c3	0.26343355
18	0x3ec6bfdf	0.3881826
19	0x3f083b13	0.5321514
20	0x3e29ab94	0.16569358
21	0x3f2deb1c	0.67936873
22	0x3eaa4c39	0.33261278
23	0x3e70d8c0	0.23520184
24	0x3ec630f8	0.38709235
25	0x3e4c16d3	0.19930582
26	0x3ef0c651	0.47026303
27	0x3ea6ffd8	0.32617068
28	0x3ea82654	0.32841742
29	0x3e7d9851	0.24765135
30	0x3ea66860	0.32501507
31	0x3e7edcba	0.24888888
32	0x3ef30aef	0.4746928
33	0x3ec07505	0.3758928
34	0x3e8e1285	0.27748504
35	0x3ea53e62	0.32274157
36	0x3ef83903	0.48480996
37	0x3ecf4e81	0.4048958
38	0x3eb87c1a	0.36032182
39	0x3e593b63	0.2121406
40	0x3e7290b2	0.2368801
41	0x3f08eeb4	0.5348923
42	0x3f0f5724	0.5599234
43	0x3ed94a83	0.4243966
44	0x3ed909cc	0.42390287
45	0x3e8efedd	0.2792882
46	0x3ea5a422	0.32351786
47	0x3eb3106d	0.3497347
48	0x3e7470e9	0.23871197
49	0x3f11a442	0.5689126
50	0x3e3b83fe	0.1831207
51	0x3e522dfb	0.20525353
52	0x3e96c917	0.29450294
53	0x3f003dde	0.500944
54	0x3e5c5738	0.21517646
55	0x3efb5ce1	0.49094298
56	0x3e650faf	0.22369264
57	0x3ea06dcf	0.31333777
58	0x3ed3e9ae	0.4138922
59	0x3eeab973	0.45844612
60	0x3e0e8677	0.13918482
61	0x3e3441d5	0.17603238
62	0x3e9442fa	0.2895735
63	0x3e24c699	0.16091384

net.4.weight f4 [64, 64]
0	0x3d0308fd	0.031990994
1	0xbd9cb155	-0.07651011
2	0xbd780f72	-0.060561605
3	0x3dca62db	0.098821364
4	0x3d399a35	0.04531308
5	0xbd3e1a12	-0.04641158
6	0xbb859885	-0.0040770196
7	0x3c794717	0.015214703
8	0x3d4a5c9d	0.04940473
9	0xbd6e1aeb	-0.05813114
10	0xbdb9ea3c	-0.0907788
11	0x3dc4609d	0.0958874
12	0x3cf499c7	0.029858483
13	0x3d46aaee	0.048502855
14	0xbd365c05	-0.04452135
15	0x3d7cea55	0.061746914
16	0x3ddf535f	0.10904574
17	0x3d98c87a	0.07460113
18	0x3cae9636	0.02131186
19	0x3dee4b08	0.11635405
20	0xbc28f2e2	-0.010311814
21	0x3d2d9999	0.04238281
22	0x3e126f57	0.14300285
23	0x3df463c2	0.1193309
24	0xbd2ef1df	-0.042711135
25	0x3db9a4ba	0.09064622
26	0x3d469dfb	0.048490506
27	0xbc673d6c	-0.014113765
28	0x3ded7866	0.1159523
29	0xbd79f06d	-0.061020304
30	0x3dbda992	0.092608586
31	0x3e11a328	0.14222395
32	0xbdb7ead3	-0.08980336
33	0xbda02d0e	-0.078210935
34	0xbdd37f51	-0.10327018
35	0xba4f384f	-0.0007904814
36	0xbdb2354f	-0.08701574
37	0xbd2d5cba	-0.04232476
38	0x3c5ca805	0.013467793
39	0x3da8b891	0.08238328
40	0x3da0ffb5	0.07861272
41	0x3da8170b	0.0820752
42	0x3da02129	0.07818825
43	0xbdaeb54d	-0.08530674
44	0xbda196a4	-0.078900605
45	0xbb23718a	-0.00249395
46	0x3df8b664	0.12144163
47	0xbc8c7893	-0.017147338
48	0x3c77256b	0.015084605
49	0xbd9ca2fd	-0.07648275
50	0xbd41c0ae	-0.047302894
51	0xbd97e3a6	-0.07416467
52	0x3da3b3e1	0.079932936
53	0xbd23de29	-0.04000679
54	0xbdbb54eb	-0.09147056
55	0x3c28babd	0.010298428
56	0x3c8ade05	0.01695157
57	0xbc8b2a91	-0.01698807
58	0x3d45abb7	0.048259463
59	0x3d997f64	0.07495001
60	0xbddd49dc	-0.10805103
61	0xbdc594a2	-0.0964749
62	0xbcd47aec	-0.02593752
63	0xbe060f2d	-0.13091727
64	0xbde359d8	-0.11101121
65	0x3daf02a1	0.08545423
66	0xbd211ca6	-0.039333962
67	0xbd9f84b9	-0.07788987
68	0xbd6dc745	-0.058051366
69	0xbdee6165	-0.1163967
70	0x3d9e44a7	0.07727938
71	0xbcc22ff6	-0.02370451
72	0xbd6b9372	-0.05751366
73	0xbdf0a42a	-0.11750062
74	0x3d3d92c2	0.046282537
75	0xbb98ff15	-0.00466908
76	0x3c007079	0.007839316
77	0xbcda46ef	-0.026645152
78	0xbd877710	-0.06614506
79	0x3d2fc7a9	0.04291502
80	0x3de8da10	0.11369717
81	0xbd8974b0	-0.067117095
82	0x3b925b1f	0.004466429
83	0xbdaff921	-0.085924394
84	0xbd8d1435	-0.0688862
85	0x3e0519cf	0.12998126
86	0x3cc83ca0	0.02444297
87	0x3dffc6fe	0.124891266
88	0xbc68e08b	-0.014213691
89	0xbdb1848f	-0.08667862
90	0xbd99ab1b	-0.07503339
91	0x3df8f68e	0.121564016
92	0xbda26d0b	-0.079309545
93	0x3d85d2f4	0.06534377
94	0x3d2ade2a	0.04171578
95	0x3d7ebb8b	0.062190574
96	0x3d4c3caa	0.04986254
97	0xbd4be173	-0.049775552
98	0x3db2259f	0.08698582
99	0xbd9be981	-0.07612897
100	0xbd0cabff	-0.034343716
101	0x3d94446a	0.072396114
102	0x3c5fec0f	0.013667121
103	0xbc251ce9	-0.0100776935
104	0xbcc06b66	-0.023488712
105	0xbd88e006	-0.06683354
106	0x3ddc626d	0.10760961
107	0xbb70f838	-0.0036769044
108	0x3c103339	0.008801275
109	0x3c792870	0.015207395
110	0x3dc5ab96	0.09651868
111	0xbdad08a7	-0.08448916
112	0xbcfff25b	-0.031243494
113	0x3db8538b	0.090003096
114	0x3dafa776	0.085768625
115	0xbd3b6cd2	-0.045758076
116	0xbde2077a	-0.11036582
117	0xbb91b50f	-0.0044466327
118	0x3d94b352	0.07260765
119	0x3d2b1f5a	0.041777946
120	0x3db8ce5d	0.09023736
121	0xbdf3d077	-0.11904996
122	0x3d60d3f3	0.05488963
123	0xbd8ba547	-0.068186335
124	0x3daced2a	0.08443673
125	0x3dafd726	0.08585958
126	0x3c4e647f	0.012597202
127	0x3d9ec65c	0.07752678
128	0xbd4a3204	-0.049364105
129	0xbe08dfa0	-0.13366556
130	0xbe07c904	-0.13260275
131	0x3d860173	0.06543245
132	0x3cd98973	0.026554799
133	0xbdd03a61	-0.10167385
134	0x3d3a75a6	0.045522355
135	0x3e06b13c	0.13153547
136	0xbde702d2	-0.11279835
137	0x3d8f237f	0.06989192
138	0xbc371ba7	-0.011176026
139	0x3cb18821	0.021671357
140	0x3e06f739	0.13180245
141	0x3dbf7e9f	0.09350323
142	0x3d216ad7	0.03940853
143	0x3df0ef97	0.11764448
144	0x3d7c5a9e	0.061609857
145	0x3cbb3658	0.022853062
146	0xbddd8569	-0.108164616
147	0x3d32a9c5	0.043618936
148	0xbd9150f9	-0.070955224
149	0x3d6d028d	0.05786376
150	0x3d4b0f92	0.049575396
151	0x3c86ec85	0.016470203
152	0xbda33b61	-0.0797031
153	0xbdba957b	-0.091105424
154	0x3db45f83	0.0880728
155	0x3d562842	0.052284487
156	0x3da28bc4	0.079368144
157	0xbcf9361f	-0.030421315
158	0xbbefc613	-0.0073173135
159	0xbbb71275	-0.005586917
160	0x3d5f6c28	0.054546505
161	0xbd6e9a49	-0.058252607
162	0x3db303dc	0.087409705
163	0x3de0edfc	0.10982892
164	0xbdd5fc26	-0.10448484
165	0xbca009a1	-0.019535841
166	0xbd2fc7ef	-0.04291528
167	0xbd81429c	-0.06311533
168	0x3d608d8a	0.054822482
169	0x3af1c19f	0.0018444544
170	0x3e0b10c9	0.13580622
171	0xbd8c1d6b	-0.068415485
172	0x3d8bb56f	0.06821715
173	0xbdb90131	-0.0903343
174	0xbd8603ce	-0.065436944
175	0xbc4baf54	-0.012431938
176	0x3df5289a	0.11970635
177	0x3d8ad2fb	0.067785226
178	0xbda2746e	-0.079323635
179	0x3d28cd71	0.04121155
180	0xbd88bec9	-0.066770144
181	0xbc8df4a5	-0.01732857
182	0xbdc2b68a	-0.09507473
183	0xbcc07274	-0.023492076
184	0x3da0fcb8	0.07860702
185	0xbe0181f2	-0.12647226
186	0xbdc37941	-0.09544612
187	0x3cc3fcec	0.023924313
188	0x3c903137	0.017601592
189	0xbcede6db	-0.029040745
190	0x3da17278	0.07883161
191	0xbdbdaa18	-0.092609584
192	0xbdab052a	-0.08350594
193	0xbd99e1ce	-0.07513772
194	0xb81986f0	-3.6603713e-05
195	0xbc9ae438	-0.018907651
196	0x3dcf9964	0.10136679
197	0x3bac4180	0.0052568316
198	0x3d8d882a	0.06910737
199	0xbd274750	-0.040839493
200	0x3d9b684b	0.07588252
201	0x3df182be	0.11792515
202	0xbdac72ed	-0.08420358
203	0xbd41c4eb	-0.047306936
204	0xbddeb065	-0.10873488
205	0x3d552d59	0.0520452
206	0xbdd923cd	-0.106025316
207	0xbd806601	-0.06269456
208	0x3dcef96f	0.101061694
209	0xbdebbc5c	-0.11510536
210	0x3dc2ef40	0.095182896
211	0x3c3c2264	0.011482809
212	0x3df12347	0.11774307
213	0xbd9ebf45	-0.077513255
214	0x3d6ff153	0.058579754
215	0x3c090c34	0.008364726
216	0xbbb081e0	-0.005386576
217	0x3dcba638	0.09943813
218	0xbdf6d25a	-0.1205184
219	0xbdcc9843	-0.09989979
220	0x3dd540a2	0.10412718
221	0xbd90f2a4	-0.0707753
222	0xbdd01029	-0.10159332
223	0xbcf3e93d	-0.029774303
224	0xbcb843db	-0.022493294
225	0xbc3f767a	-0.011685962
226	0xbdc96919	-0.09834499
227	0x3ce74a94	0.028233804
228	0xbdfcc534	-0.12342301
229	0x3cf58616	0.029971164
230	0x3dcd4a02	0.100238815
231	0x3cf1025e	0.029420074
232	0xbbdb8677	-0.006699379
233	0x3c1fb2c7	0.009747214
234	0xbd875b4b	-0.066092096
235	0xbc8f5394	-0.017495908
236	0xbd8180cc	-0.06323394
237	0xbd7a987e	-0.061180584
238	0xbd95bca7	-0.07311373
239	0x3e18c61b	0.14919321
240	0xbd29db4b	-0.0414689
241	0x3d32f3b7	0.043689456
242	0x3d911785	0.07084564
243	0xbcfdf2f4	-0.030999638
244	0xbd8019d6	-0.06254928
245	0xbd5aac58	-0.053387016
246	0xbd7deb8c	-0.061992213
247	0x3d4096c9	0.0470188
248	0xbdbf3abb	-0.09337374
249	0x39017680	0.00012346543
250	0x3d3d93de	0.046283595
251	0x3db15d2a	0.08660348
252	0x3d14865a	0.03626094
253	0x3d408c0a	0.04700855
254	0x3dce1a14	0.10063568
255	0x3dae9c41	0.08525897

net.4.bias f4 [64]
0	0x3d532234	0.05154629
1	0x3dda53f4	0.10660544
2	0xba58e1b0	-0.0008273376
3	0xbd0002dc	-0.031252727
4	0xbca3ddf1	-0.02000329
5	0xbd3d0914	-0.046151236
6	0x3d7469dc	0.059671268
7	0xbdfcef4c	-0.1235033
8	0x3dd9c642	0.10633518
9	0xbb9576c4	-0.004561277
10	0xbd99cdab	-0.07509931
11	0xbd2c379c	-0.04204522
12	0xbd9c8b2e	-0.07643734
13	0xbde1ebd3	-0.11031308
14	0x3c57f3ef	0.013180717
15	0xbcf380c0	-0.029724479
16	0xbd662556	-0.05618795
17	0xbcaaf9cb	-0.020871064
18	0xbc95656f	-0.018236844
19	0x3d6510b3	0.05592413
20	0xbdcf9045	-0.10134939
21	0xbb5f40d3	-0.0034065738
22	0xbb0864bf	-0.0020812002
23	0xbdd0db38	-0.10198063
24	0x3de9e356	0.11420314
25	0xbd721198	-0.05909881
26	0x3dca098c	0.09865102
27	0x3dc48905	0.09596447
28	0x3b835ee6	0.0040091155
29	0x3dbd3e8e	0.09240447
30	0xbdc099e0	-0.09404349
31	0xbc495dc5	-0.012290423
32	0xbdd3ea13	-0.103473805
33	0xbd9cdfd0	-0.07659876
34	0x3d21abfb	0.039470654
35	0x3dbbad8f	0.09163963
36	0xbd97c9b4	-0.07411519
37	0xbd4df630	-0.05028361
38	0xbd8f5d01	-0.07000161
39	0xbc30ab0a	-0.010782966
40	0xbdd4fccc	-0.1039978
41	0xbdcaa046	-0.09893851
42	0xbcdc0ec0	-0.026862502
43	0x3df0c102	0.11755563
44	0x3cafab27	0.021443916
45	0xbd569234	-0.052385524
46	0x3dab70c1	0.083711155
47	0x3dbb87d6	0.09156768
48	0x3dafbef4	0.08581343
49	0x3a79c989	0.0009528627
50	0xbc719a11	-0.014746205
51	0x3da38b1a	0.07985516
52	0x3d881803	0.06645205
53	0x3dc10322	0.09424426
54	0x3dba17aa	0.09086545
55	0xbd0e364f	-0.03471976
56	0x3dd86deb	0.1056784
57	0x3cd0a718	0.025470302
58	0x3dfdf8b9	0.12400956
59	0x3dfefc9d	0.12450526
60	0x3dd4337d	0.10361383
61	0x3dabdf8e	0.08392249
62	0x3dc9bc17	0.098503284
63	0xbd6ee1b9	-0.058320735

net.5.weight f4 [64]
0	0x3f84534a	1.0337918
1	0x3f7cf42c	0.98810077
2	0x3f843ff4	1.0332017
3	0x3f81ccff	1.0140685
4	0x3f81d026	1.0141647
5	0x3f8294cb	1.0201658
6	0x3f818d05	1.0121161
7	0x3f834209	1.0254527
8	0x3f7b1d32	0.98091424
9	0x3f7de0cc	0.9917114
10	0x3f82e768	1.022687
11	0x3f7d0027	0.9882836
12	0x3f804d50	1.0023594
13	0x3f80f3ae	1.0074365
14	0x3f8197f3	1.0124496
15	0x3f8159ed	1.0105568
16	0x3f83b6cf	1.0290164
17	0x3f7f15fc	0.9964292
18	0x3f814186	1.0098121
19	0x3f83f49f	1.0309027
20	0x3f8459fa	1.0339959
21	0x3f8348e7	1.0256623
22	0x3f7b4a99	0.981607
23	0x3f8292b9	1.0201026
24	0x3f8352b6	1.0259616
25	0x3f7d1cf2	0.9887229
26	0x3f81ec9b	1.0150331
27	0x3f7e7c28	0.994082
28	0x3f805464	1.0025754
29	0x3f8091c6	1.0044487
30	0x3f7a7fd0	0.97851276
31	0x3f79c19f	0.9756107
32	0x3f81ae2b	1.0131277
33	0x3f83723a	1.0269234
34	0x3f7deb88	0.9918752
35	0x3f8401d7	1.0313061
36	0x3f7b6fcd	0.9821747
37	0x3f7f0e99	0.9963165
38	0x3f834856	1.025645
39	0x3f7f8f21	0.9982777
40	0x3f86351d	1.0484959
41	0x3f84039e	1.0313604
42	0x3f7aa385	0.9790576
43	0x3f8133d0	1.0093937
44	0x3f7c0b85	0.9845508
45	0x3f7a5e57	0.978002
46	0x3f7e30db	0.992933
47	0x3f82dc54	1.0223489
48	0x3f7be093	0.9838955
49	0x3f80bcaa	1.0057576
50	0x3f81116d	1.0083443
51	0x3f7d58d9	0.98963696
52	0x3f7b0891	0.98059946
53	0x3f7b1451	0.98077875
54	0x3f809596	1.004565
55	0x3f818194	1.0117669
56	0x3f81a6ab	1.0128988
57	0x3f7fc2d9	0.9990669
58	0x3f819e23	1.0126384
59	0x3f807f8b	1.0038923
60	0x3f7d19cd	0.98867494
61	0x3f7d6b3b	0.98991746
62	0x3f818d2e	1.012121
63	0x3f8387da	1.0275834

net.5.bias f4 [64]
0	0x3cde653c	0.027147882
1	0xbc0db46d	-0.008648974
2	0x3cb30e01	0.021857264
3	0x3b318a5e	0.002709053
4	0x3be0c983	0.0068599596
5	0x3caf059f	0.021364985
6	0x3c274546	0.010209387
7	0x3ccd5714	0.025065936
8	0xbc90baff	-0.017667292
9	0xbba365b7	-0.0049864906
10	0x3c9db9b9	0.019253599
11	0xbad036f9	-0.0015885524
12	0x3bbb4e82	0.005716146
13	0x3b25d46f	0.0025303622
14	0x3c34a2cb	0.011025141
15	0x3b30343a	0.0026886598
16	0x3c870847	0.01648344
17	0xbb79719b	-0.00380621
18	0x3c4a6ced	0.0123550715
19	0x3c9e3751	0.019313486
20	0x3d0d3440	0.034473658
21	0x3c9bcc35	0.019018272
22	0xbc8d7081	-0.01726556
23	0x3c1943f6	0.009354582
24	0x3caa325a	0.020775963
25	0xbc7422d8	-0.0149008855
26	0x3c84cf01	0.016211988
27	0xba781050	-0.000946288
28	0x3bd3e113	0.00646604
29	0xbb8fa8b2	-0.0043841237
30	0xbc8ad259	-0.016946005
31	0xbc76b82d	-0.015058559
32	0x3c1c4760	0.0095385015
33	0x3c5385b5	0.012910296
34	0xbc30e562	-0.010796877
35	0x3cea3477	0.02858947
36	0xbca65cba	-0.020307887
37	0xbba71614	-0.0050990675
38	0xbbb17136	-0.005415107
39	0xbb4595de	-0.0030149142
40	0x3d260c57	0.040539112
41	0x3c9a6844	0.018848546
42	0xbc93ec94	-0.018057145
43	0x3c5d3a7e	0.013502715
44	0xbc464cfc	-0.012103315
45	0xbc60ce46	-0.013721054
46	0xbc106f7c	-0.008815642
47	0x3c024be7	0.007952667
48	0xbc1b54c7	-0.009480662
49	0xbb0b9a38	-0.0021301638
50	0x3ca2b204	0.019860275
51	0xbc0485e1	-0.00808856
52	0xbc5c3949	-0.013441392
53	0xbc23b7e1	-0.009992571
54	0xb9fc86a7	-0.0004816551
55	0x3cc89623	0.024485653
56	0x3c928180	0.017884016
57	0x3a1e80ae	0.00060463964
58	0x3c7650cc	0.015033912
59	0x3c3405bd	0.010987696
60	0xbc97d204	-0.01853276
61	0xbbf87ff5	-0.007583613
62	0x3c854052	0.016266022
63	0x3cf0c364	0.029390045

net.5.running_mean f4 [64]
0	0x3e6e2862	0.23257592
1	0x3e461ef4	0.19347745
2	0x3bb267da	0.005444509
3	0xbdfc6af8	-0.1232509
4	0xbeb0baec	-0.3451761
5	0x3ded28a9	0.11580021
6	0x3f12dda3	0.5736944
7	0xbea0c8b8	-0.31403136
8	0xbeec1ef1	-0.46117356
9	0x3d042369	0.032260332
10	0xbf0c3a48	-0.5477643
11	0xbcbe6342	-0.02324069
12	0x3dfecab4	0.12441006
13	0x3ddc6217	0.10760897
14	0xbe97300f	-0.29528853
15	0x3ef8d959	0.48603323
16	0xbe42923e	-0.190011
17	0x3e42a8f1	0.19009759
18	0xbd946284	-0.07245353
19	0x3d844860	0.06459117
20	0x3dbb910a	0.091585234
21	0xbd10d40f	-0.035358485
22	0xbd715672	-0.05892033
23	0x3e204584	0.15651518
24	0xbe4e973f	-0.20174883
25	0xbe386ec8	-0.1801101
26	0xbda6b109	-0.081392355
27	0xbdb64cfc	-0.08901402
28	0xbddd51e1	-0.10806633
29	0x3dc9d6f2	0.09855451
30	0xbea230c9	-0.31677845
31	0x3c76e640	0.015069544
32	0xbd3c35ee	-0.04594987
33	0xbe5a2c74	-0.2130602
34	0x3e8d4f36	0.27599496
35	0x3e6ed4eb	0.2332341
36	0x3e000aba	0.12504092
37	0xbe5d3dd6	-0.2160562
38	0x3dcbe164	0.09955099
39	0x3dd78336	0.105230734
40	0xbdb5685a	-0.08857794
41	0xbeab2105	-0.3342363
42	0xbf31fd94	-0.69527555
43	0xbd8dafa0	-0.069182634
44	0xbd9f1829	-0.0776828
45	0x3d90b9a8	0.07066661
46	0x3ebd211d	0.36939326
47	0xbe2d07da	-0.16897526
48	0x3efdc569	0.49564674
49	0x3d9915bd	0.074748494
50	0x3d9b0bf3	0.075706385
51	0x3f00da6f	0.50333303
52	0x3e90f229	0.28309754
53	0x3ed4f548	0.41593385
54	0x3d3d9dfe	0.04629325
55	0x3d949aa1	0.072560556
56	0x3dc22204	0.09479144
57	0xbdffff58	-0.12499875
58	0x3d65e018	0.056121916
59	0x3ee68b5b	0.45028195
60	0x3f1d193a	0.6136662
61	0xbd150e0b	-0.036390346
62	0x3e6760ff	0.22595595
63	0xbb9a6e92	-0.004712888

net.5.running_var f4 [64]
0	0x3e8447ac	0.2583593
1	0x3e216fe0	0.15765333
2	0x3e7f97fe	0.24960324
3	0x3e5c7b29	0.21531357
4	0x3e495a42	0.19663337
5	0x3e6a6719	0.22890891
6	0x3e4de560	0.20107031
7	0x3e36de36	0.17858204
8	0x3e3ffc96	0.18748698
9	0x3e203eaf	0.15648912
10	0x3e4f5f6c	0.20251244
11	0x3e4e9164	0.2017265
12	0x3e467027	0.1937872
13	0x3e1e8112	0.15478924
14	0x3e906bcf	0.2820725
15	0x3e797f04	0.24364859
16	0x3e2823ea	0.1641995
17	0x3dfb3b20	0.122671366
18	0x3e3104ff	0.17287062
19	0x3e821a1b	0.25410542
20	0x3e80c1e1	0.25147918
21	0x3e352d49	0.17693056
22	0x3e6db433	0.23213272
23	0x3e8db11d	0.2767419
24	0x3e1fe53a	0.15614787
25	0x3e9631b8	0.29334807
26	0x3e387982	0.18015102
27	0x3e2cbc91	0.16868807
28	0x3e9b94c4	0.30386937
29	0x3e5adc61	0.2137313
30	0x3e7029ec	0.23453492
31	0x3e54d978	0.20786083
32	0x3e8c7b01	0.27437595
33	0x3e844965	0.25837246
34	0x3e27db64	0.16392285
35	0x3e2efceb	0.17088668
36	0x3e70564d	0.23470421
37	0x3e3a313d	0.18182845
38	0x3e6afa1c	0.22946972
39	0x3e60369d	0.21895833
40	0x3e743b54	0.23850757
41	0x3e62cc77	0.2214831
42	0x3e5a937e	0.21345326
43	0x3e8688d5	0.2627627
44	0x3e022a26	0.12711391
45	0x3eb04acd	0.34432068
46	0x3e63631c	0.22205776
47	0x3e332e8f	0.1749823
48	0x3e2e6b68	0.1703316
49	0x3e812bd5	0.25228754
50	0x3e5a0c95	0.21293862
51	0x3e8c0315	0.273461
52	0x3e227e54	0.15868503
53	0x3e25e9f2	0.16202524
54	0x3e32c3bc	0.17457479
55	0x3eabc399	0.33547667
56	0x3eada1fd	0.3391265
57	0x3e63f248	0.22260392
58	0x3e717b02	0.2358208
59	0x3e4a8ae7	0.1977955
60	0x3e724971	0.23660828
61	0x3e0b3064	0.13592678
62	0x3e693815	0.227753
63	0x3ebb42f8	0.3657453

net.8.weight f4 [2, 64]
0	0xbda3ad1f	-0.079920046
1	0xbc8f46df	-0.017489849
2	0xbdc457ea	-0.09587081
3	0x3dd88568	0.1057232
4	0x3ccf920a	0.025338192
5	0xbd4e32ba	-0.050341345
6	0xbd88835f	-0.06665682
7	0xbe0b3f1a	-0.1359829
8	0xbc262061	-0.010139556
9	0x3de2476f	0.11048781
10	0x3dd5453a	0.104135945
11	0x3db363cf	0.08759271
12	0x3db45010	0.08804333
13	0x3d7559b9	0.05990002
14	0x3c08f898	0.008360051
15	0xbdd2e894	-0.10298267
16	0x3d94fbfc	0.07274625
17	0xbdad413c	-0.08459708
18	0xbdad624c	-0.08466014
19	0x3d9f2eeb	0.07772621
20	0x3dcdf982	0.100573555
21	0xbdb8afc2	-0.09017898
22	0x3d77c50d	0.060490657
23	0xbe076e29	-0.13225617
24	0x3bb70c1b	0.00558616
25	0x3d361eb7	0.044462886
26	0x3c160d35	0.009158422
27	0xbd865961	-0.065600164
28	0xbdb24ce0	-0.08706069
29	0x3dd5cf4f	0.104399316
30	0x3d706e86	0.058699153
31	0xbce6158a	-0.028086443
32	0x3e086342	0.13319114
33	0xbd5452b7	-0.051836696
34	0xbc83a865	-0.016071508
35	0x3d7d4987	0.0618377
36	0x3dabb4cb	0.08384093
37	0xbd6c1f4a	-0.057647027
38	0xbc91438d	-0.017732406
39	0xbd69fff6	-0.05712887
40	0xbcd3070f	-0.025760202
41	0x3bf445da	0.007454616
42	0xbccd8989	-0.025089996
43	0x3d9c8683	0.076428436
44	0xbd82cb63	-0.06386449
45	0x3d4cc67b	0.049993973
46	0x3dba5b04	0.09099391
47	0x3bdf139e	0.0068077585
48	0xbce91815	-0.028453866
49	0x3d15c5db	0.036565643
50	0xbdfb8503	-0.12281229
51	0x3da7a591	0.08185876
52	0xbd2fcdc4	-0.042920843
53	0xbc73576a	-0.014852384
54	0x3d5ef90f	0.05443674
55	0x3d817aa3	0.06322219
56	0xbd8eb437	-0.06967967
57	0xbdba768c	-0.09104642
58	0xbe074998	-0.13211668
59	0xbdde39ca	-0.10850866
60	0xbc74a19b	-0.014931108
61	0xbdb22d45	-0.08700041
62	0xba8358dc	-0.0010020989
63	0xbdb75ced	-0.08953271
64	0x3dd112da	0.10208674
65	0x3d9742fc	0.07385823
66	0x3e0cf1fb	0.13764183
67	0xbdc44f0b	-0.09585389
68	0xbdd09e7d	-0.10186479
69	0x3d7e21e7	0.06204405
70	0xbc928ea7	-0.017890288
71	0x3df4b813	0.11949172
72	0xbdc3b6bf	-0.095563404
73	0x3dec23f3	0.11530294
74	0xbdde8257	-0.10864704
75	0xbdb5c722	-0.08875872
76	0xbc8237b3	-0.0158957
77	0xbd805c18	-0.062675655
78	0xbdb9de7b	-0.09075638
79	0x3da7ae02	0.08187486
80	0x3decf110	0.115694165
81	0x3d87a482	0.06623174
82	0x3ccac5d2	0.024752531
83	0xbd3a990a	-0.045556106
84	0xbdcd0ee1	-0.100126036
85	0x3e13bb66	0.14426956
86	0xbd4a9bf6	-0.049465142
87	0xbdc12a05	-0.09431843
88	0x3e05606b	0.13025062
89	0x3a274d75	0.00063820864
90	0x3dc8cce0	0.09804702
91	0xbd3d5596	-0.0462242
92	0x3dcccd69	0.100001164
93	0xbdbdba57	-0.09264057
94	0x3d347783	0.044059288
95	0x3d92c994	0.07167354
96	0xbc6e458c	-0.014542948
97	0x3dde7e45	0.10863928
98	0xbb2adef5	-0.0026072834
99	0xbe13913b	-0.1441087
100	0x3d9991f8	0.074985445
101	0xbdc2e739	-0.095167585
102	0x3cb69b2b	0.022290787
103	0xbde4330a	-0.111425474
104	0xbdb91375	-0.09036914
105	0xbd7ce07f	-0.061737534
106	0xbcc173ac	-0.023614727
107	0xbe07b704	-0.13253409
108	0xbdbb90ae	-0.09158455
109	0xbdbf07c4	-0.09327653
110	0xbdc85ea3	-0.097836755
111	0xbe154322	-0.1457639
112	0xbd604100	-0.05474949
113	0xbd0a3e14	-0.03375061
114	0x3df7c54e	0.1209818
115	0xbd9f6073	-0.07782068
116	0xbd978bef	-0.07399737
117	0xbda7ae71	-0.08187569
118	0x3df95e92	0.12176241
119	0xbcde7dcc	-0.027159594
120	0xbcaf6af8	-0.021413311
121	0x3d8aca79	0.067769
122	0xbd7f45ed	-0.062322546
123	0xbcecc376	-0.028901797
124	0x3dd366bb	0.10322329
125	0x3d6793ee	0.05653756
126	0xbdde60ca	-0.10858305
127	0xbc31eb63	-0.010859343

net.8.bias f4 [2]
0	0x3b11fb72	0.0022275117
1	0x3d622308	0.05520919
