data/weights/feature_mlp_pipeline_4ch.pth (torch, 32361 bytes, 14 tensors)

net.0.weight f4 [64, 26]
00000000: c249 5bbe 667c 923d cd4b 0ebe cea1 20be
00000010: b60b f7bd 7aa3 63be 0658 34bd d217 363e
00000020: 43bb 423e a24c 6d3d fd17 8ebc e818 76bd
00000030: fc02 98bd caef 84bd c323 3e3c 2873 b9bd
00000040: 58f1 88bd 4137 0b3b 0dd9 9e3d b07b 9cbd
00000050: 50e0 c63d 0434 c53d 300d 35be a39a 0c3e
00000060: 8965 83bc 80bf 7abd 5dee f43d f0df 51bc
00000070: 8270 5fbd 6d85 f93d 6b58 593e e752 19be
00000080: d255 a7bd 98dd a13d 86ef c5bd 50a5 bd3d
00000090: 213e 0f3e 1561 1ebe 5d25 f03d 5f87 36be
000000a0: 8061 9db7 87d7 bc3d eb02 d63d 32a8 01be
000000b0: aabe a53c 5143 8ebd d2b2 3c3e 725f 11be
000000c0: f6f5 b13d 8d4e 58be f8a3 01be 04c2 253e
000000d0: a549 583e 1312 e23d 6f66 2bbd d2a2 19bc
000000e0: f140 c5bd 856e b2bb d787 1e3e 5e0d a93d
000000f0: c3f8 73bd 8fff 183e 0b00 d2bd f5f9 25be
00000100: 29ff 36bd 3828 a43d 1c7b 803d 3efe cabd
00000110: e549 cebd 77e8 9f3d 0716 b33c e2a5 6ebb
00000120: c981 423e 418d 433e 7494 333d e2ba 1dbe
00000130: 82ca 163e 46a8 a03d 1192 a9bd cfa1 18be
00000140: af72 3cbe 5e69 d8bd c5ea 273d 3d71 f3bd
00000150: cc1a 87bb c468 05be 9740 2dbe c64a 0f3d
00000160: 4e3d 013e 2f6d 7abd c5fe 283e 4b1d 253e
00000170: 20a5 4f3d e835 d2bc 9464 97bd b349 df3d
00000180: c5c8 be3d 463a acbd 76b1 8abc 8f0f 15bc
00000190: 7baf 3abe 49cb 6cbd 3e6d 15bd d45e fcbd
000001a0: 1a99 83bd 7913 4c3e 59d7 edbd 363a 8a3d
000001b0: 3bf2 f43d aa12 ff3d e388 a73d ed49 713e
000001c0: 3cbb 4c3e 92d0 1a3e 05af 2abd 25d0 c139
000001d0: a374 78bd 6b53 223e c487 823a 1878 07bd
000001e0: 118a 9a3d 6087 08be b7d7 b8bd 24d5 0e3d
000001f0: 193c 1dbd 9fb0 2bbe 3b87 1b3e f17a 44bc
00000200: 4409 3ebe cd1c f8bd c6c0 09be 759f 463d
00000210: f2de 01be ba3e 0c3b 1880 babd 0ab7 9dbd
00000220: 3a36 fcbd 1ec5 3cbd 5a02 bb3d 6574 1cbe
00000230: dcdf 55bd 8691 c53d af91 f0bd ed8f 05bc
00000240: 75f0 a0bd 82fe 48be b4e8 debb 8ebc 133e
00000250: 824a 95bd 6fe9 aebd c74c 4f3e c786 bc3c
00000260: e582 82bd c49b 2a3e 6f74 0f3e 7109 16be
00000270: 3c97 37be 883e d83d f9f2 75be 1766 f23d
00000280: 59b8 bcbd 3da6 423d b0d9 0cbe 67db 31bd
00000290: f499 86bd c7b9 153e 75a2 bfbd a7e0 32bc
000002a0: 4a92 d9bd b457 5abe 293f febb 6633 2bbe
000002b0: 16c2 86bc 230c 50bd 1223 0f3e 7560 2dbd
000002c0: cb31 273e d87e c3bd 1336 1c3e e831 2c3d
000002d0: 74e9 d83d 90d1 d6bc 18af 5abe a1e8 00be
000002e0: 353f 13bd 669d 033e d5d7 32bd 94b7 113e
000002f0: a549 1bbe 56b9 3b3e cbc5 ac3d 5f34 133e
00000300: 3043 94bc ca16 053d 353c e63d e40c ef3b
00000310: 9359 93bd 3b90 dbbd b481 01bd 90f8 b4bc
00000320: 6c4a fbbd ac4d 2b3e 90f6 edbd abd2 51bd
00000330: b35e bc3d dda3 113e 7428 1f3e 0a96 aa3c
00000340: 7d37 193c 8bd0 31bc fc90 54bd 57f7 a4bd
00000350: e9f7 0fbe d699 af3c 2e1e dcbd cde5 173e
00000360: bff0 48be 597a 89bd c306 61bd 15e2 023e
00000370: 1662 26be c702 423e b5e0 ebbd 60d4 7e39
00000380: 8ebf 4abc fea9 ea3b 147b 11be d567 24be
00000390: e80b f83d f9a9 0dbd 7736 503e 7241 703d
000003a0: aa0b 6b3d c7e9 663d a017 1bbe 0d25 4fbe
000003b0: 1a2e 603d 1e73 5bbd 3f6b d33d a872 2dbd
000003c0: 5061 743e f038 25be 87b3 613d 8926 6c3c
000003d0: f5f3 1a3e 9c5a 0f3d fb56 0ebe aff3 54be
000003e0: 0d1a 023e e2a2 a73d 4ae0 ed3d 6ba8 41be
000003f0: 5a23 b0bd 7412 1bbc 27b7 2cbe 0372 473e
-0.21414855 0.07152633 -0.13896103 -0.15686724 -0.120627806 -0.2223033 -0.04402926 0.17782524
0.19016747 0.05793441 -0.017345423 -0.060082346 -0.07422444 -0.06491049 0.011605206 -0.090551674
-0.06686658 0.002124265 0.07756243 -0.07640779 0.09710753 0.09629062 -0.17680812 0.13730864
-0.016039627 -0.061217785 0.11959527 -0.0128097385 -0.054550655 0.12183652 0.21225135 -0.14973031
-0.08170666 0.07903594 -0.09664826 0.092600465 0.13988544 -0.15466721 0.117258765 -0.17825077
-1.876126e-05 0.09220796 0.10449775 -0.12661818 0.020232517 -0.06946433 0.1842759 -0.14196566
0.086894915 -0.21123715 -0.12660205 0.16187292 0.21121843 0.11038604 -0.041845735 -0.009377198
-0.09631527 -0.005445304 0.15481506 0.08254503 -0.05956341 0.14941238 -0.102539144 -0.16208632
-0.044676933 0.080154836 0.06273481 -0.09911774 -0.10072688 0.07808011 0.02186109 -0.0036414792
0.18994822 0.19096853 0.043842748 -0.15403321 0.14725688 0.078445956 -0.08279813 -0.14905475
-0.18403123 -0.10566972 0.040995378 -0.11886833 -0.0041230675 -0.13028246 -0.1691917 0.03498342
0.12621042 -0.06113928 0.16503437 0.16124456 0.050694585 -0.02566047 -0.07392231 0.10902729
0.093156375 -0.08409552 -0.016930323 -0.009097948 -0.18231003 -0.057811055 -0.036481135 -0.123227745
-0.06425686 0.19929303 -0.1161334 0.06749384 0.11960264 0.12454732 0.08180406 0.23563357
0.19993299 0.15118626 -0.041670818 0.00036966908 -0.06065811 0.15852134 0.0009958674 -0.033073515
0.07545865 -0.13332891 -0.09025519 0.034871235 -0.03838739 -0.16766594 0.15188305 -0.011992202
-0.18558222 -0.12114868 -0.13452443 0.048491914 -0.12682703 0.0021399693 -0.09106463 -0.077009276
-0.123150304 -0.046086423 0.09131308 -0.15278776 -0.052215442 0.09646897 -0.11746537 -0.00815199
-0.078583635 -0.19628337 -0.0068026427 0.14427397 -0.07289602 -0.08540618 0.20244132 0.023013486
-0.063726224 0.16660982 0.1400926 -0.14652039 -0.17928785 0.10558802 -0.24018468 0.11835878
-0.09214849 0.04752182 -0.13754916 -0.04342213 -0.06572333 0.1462165 -0.09357158 -0.010917819
-0.106236055 -0.21322519 -0.007758994 -0.16718826 -0.01644997 -0.050792824 0.13978222 -0.042328317
0.16327588 -0.09545678 0.15255003 0.04203978 0.10591403 -0.026222974 -0.21355855 -0.12588741
-0.03594895 0.12853011 -0.043662865 0.14230186 -0.15164812 0.18332419 0.084361635 0.14375447
-0.018098444 0.032492436 0.11241952 0.007295238 -0.07194819 -0.10720869 -0.031617835 -0.02209118
-0.12270054 0.16728848 -0.11619294 -0.0512263 0.0919775 0.14222665 0.15542775 0.020823497
0.009351608 -0.010852943 -0.05189608 -0.08054989 -0.14059414 0.02143566 -0.10747944 0.14833756
-0.19623087 -0.06712789 -0.05493809 0.12781556 -0.16248354 0.18946372 -0.11517469 0.00024302443
-0.012374772 0.007161378 -0.14207107 -0.16055234 0.12111646 -0.034585927 0.20333277 0.058656164
0.05738417 0.05637529 -0.15145731 -0.20228978 0.054731466 -0.05357658 0.1032319 -0.042345673
0.23865247 -0.16135001 0.05510285 0.014413484 0.15132125 0.03499852 -0.13900368 -0.20796083
0.1270525 0.08185364 0.11615045 -0.18911903 -0.08600493 -0.009464849 -0.16866742 0.19477086

net.0.bias f4 [64]
00000000: b0ad 133d 678f dc3c 7816 cf3d ad93 a7bd
00000010: 86b0 2d3d 20cf e0bd 4f18 0e3e dc1d 0abd
00000020: fdf3 f03d 7114 f9bd e6f4 39be 7190 4a3c
00000030: 48a1 28be 5eb8 af3d 0044 7abd 97d2 ecbc
00000040: 8a5a 713c f0e9 073e 185d bcbd 8790 19be
00000050: 8780 3f3e e44a 3ebe 24f2 393d 8bab e7bd
00000060: 723f 43be 926e 363d 4d9a c1bb 1f25 d43d
00000070: c65f d0bd fa89 10be 5c9a fa3d 0b3d c93d
00000080: 1125 243c 670b 10bd f9b4 39bd df2c fd3c
00000090: bc8b 90bd ae73 14be c221 1c3e d3b3 8fbb
000000a0: 8e74 2cbb 095e 8d3c 0fb1 3abd 759c 303e
000000b0: 7719 cfbd 126e 9fbd bb95 f9bd af1c 09be
000000c0: 3df7 7e3c 7d2c 553d 3f05 e339 b2aa 0a3e
000000d0: 0d5c 293d 7b0f 0a3e 1651 863d 98af 18be
000000e0: ab26 43be 02b4 34be 0e67 2dbd f8c2 303e
000000f0: fcdd 1fbd edf2 783d 120e 1bbd 230a cabd
0.036054313 0.026923848 0.101117074 -0.08182464 0.042404674 -0.10977006 0.1387646 -0.033719882
0.11765287 -0.12162102 -0.18159828 0.012363539 -0.16467774 0.08580087 -0.061100006 -0.02890901
0.014731059 0.13272834 -0.09197444 -0.14996539 0.18701373 -0.18583256 0.04539694 -0.11312016
-0.19067171 0.04453904 -0.0059082867 0.10358643 -0.10174517 -0.14115134 0.12236473 0.09826096
0.010018603 -0.035167124 -0.045338605 0.030905185 -0.07057902 -0.14497253 0.15247253 -0.0043854504
-0.002631459 0.017256754 -0.045579012 0.17247184 -0.10112279 -0.07784666 -0.12186762 -0.13389848
0.015561876 0.05204438 0.00043300723 0.13541678 0.041347552 0.13482468 0.06558435 -0.14910734
-0.1905772 -0.17646793 -0.04233461 0.17261875 -0.03903006 0.060778547 -0.037855215 -0.09865215

net.1.weight f4 [64]
00000000: 4494 823f 8817 833f 6e16 7e3f 927c 773f
00000010: e309 803f b324 7a3f 94aa 793f 5bb2 853f
00000020: fc2a 843f 7487 853f ad32 7a3f ca18 743f
00000030: 4a06 853f fdf1 863f 1fca 773f b7b7 743f
00000040: 195c 7c3f 39eb 7f3f d009 793f ce75 853f
00000050: 259d 763f ba7a 7e3f 88b0 7e3f c89e 773f
00000060: 1ca0 733f 18f2 753f d866 813f 58ba 863f
00000070: abf2 7b3f b96b 763f 0223 7e3f 4beb 833f
00000080: 3ca3 7d3f 82d6 843f 1ecb 863f 443a 743f
00000090: 8108 853f a231 873f fc74 803f a9f4 833f
000000a0: ae29 783f 52d2 813f 62c4 753f a0c7 773f
000000b0: 34aa 833f 6ef8 753f 8207 753f dc1e 743f
000000c0: 85ee 7e3f c232 813f 090e 843f e6e6 7b3f
000000d0: b112 803f 2cca 7a3f d0ef 7f3f d304 723f
000000e0: 626e 863f c88c 833f 92c4 803f c0bb 783f
000000f0: 373d 853f 9b1c 853f 43e3 7a3f 76e2 733f
1.0201497 1.0241556 0.99252975 0.96674454 1.0003017 0.9771225 0.97525907 1.0445055
1.0325618 1.0431962 0.97733575 0.95350325 1.0392544 1.0542599 0.9679279 0.95592827
0.9857803 0.99968296 0.972806 1.0426576 0.96333534 0.99406016 0.99488115 0.96726656
0.9516618 0.9607253 1.010951 1.0525618 0.98417157 0.9625812 0.9927217 1.0306181
0.990772 1.0377963 1.0530736 0.95401406 1.039322 1.0562022 1.0035701 1.0309039
0.969386 1.014231 0.9600278 0.9678898 1.0286317 0.960822 0.9571458 0.9535959
0.995827 1.0093615 1.0316783 0.983992 1.0005704 0.9796474 0.999753 0.9453861
1.0502436 1.0277338 1.0059988 0.97161484 1.0409306 1.0399355 0.98003024 0.95267427

net.1.bias f4 [64]
00000000: 9736 6dbd 7283 22bd cd87 18bd fc7e 30bd
00000010: c432 0b3d 5efc c8bc 4409 29bd c232 753d
00000020: 2055 523d 0ea5 af3c 27fc 07bd 7b9f 05bd
00000030: 1870 6ebb 1452 663c c16c eabc 7572 373c
00000040: ffef a9bc ba3b 55bb bded 0abb 7c74 933c
00000050: fd03 1bbd c803 793c db21 2cbc 4c0d adbc
00000060: d5f5 c93c bd94 8cbc c5a7 9a3c f322 333d
00000070: f34a 1a3c a07a 0dbd f614 bdbc 1654 bd3c
00000080: 5c69 94bc 2915 8e3d 202a 703d 97ac 62bd
00000090: 0ec5 4c3d 1d87 ebbb b1d9 f8bb d92b 04bc
000000a0: e570 74bd 88bb 8d3c e435 e63b a2af 1cbc
000000b0: f9c4 3bbc dcb9 47bd 5ad6 7bbd 45da a8bc
000000c0: d53e d43c 759e 443d 1638 aebc a474 cd3c
000000d0: 445e 14bc 4346 143a d942 00bd 4c45 69bd
000000e0: 185c 633d 0672 533c ec01 2cba a132 9ebc
000000f0: b257 01bd 1dcc 203d 7444 60bc 57cc 04bd
-0.05791339 -0.039676137 -0.037238885 -0.04308985 0.03398396 -0.0245344 -0.041268602 0.05986286
0.051350713 0.021441009 -0.033199456 -0.032622796 -0.003638273 0.014057655 -0.028616311 0.011196722
-0.020744322 -0.003253682 -0.0021198832 0.01799988 -0.0378456 0.015198655 -0.010506119 -0.021124505
0.024653355 -0.017160768 0.018878827 0.043734502 0.009417283 -0.034540772 -0.023081284 0.023111384
-0.018116646 0.0693763 0.058633924 -0.055340376 0.049992613 -0.0071877376 -0.00759431 -0.008067095
-0.059677977 0.017301336 0.007025467 -0.0095633585 -0.011460536 -0.048761234 -0.06148372 -0.020611892
0.025908867 0.04800268 -0.021266978 0.025080033 -0.009055678 0.0005656222 -0.03131375 -0.056950852
0.05550775 0.012905603 -0.00065615657 -0.019311251 -0.031577773 0.039257158 -0.0136881955 -0.032421436

net.1.running_mean f4 [64]
00000000: 84b7 083d 8903 c93c b9fd be3d f42f 9abd
00000010: 84f0 213d 9088 cfbd 286e 023e 253b 00bd
00000020: ac83 dd3d c6fa e4bd 0680 2bbe ceed 393c
00000030: 8229 1bbe 6059 a23d 80c1 66bd ac06 d9bc
00000040: 6036 633c 0d63 f93d 37de acbd ff71 0dbe
00000050: 621c 303e da42 2fbe 434f 2c3d 8b43 d5bd
00000060: 877f 33be d3b8 263d 9b5b b5bb 2858 c33d
00000070: 17f6 bfbd 6020 05be a2ba e63d c35c b93d
00000080: a88b 1e3c c3b6 02bd 8af4 2bbd 0caf e83c
00000090: 6ff8 83bd a3f1 07be 95a0 0f3e 0080 84bb
000000a0: a410 26bb b630 813c e0ef 2abd 549e 223e
000000b0: 7607 bebd ad8e 92bd 369f e5bd 04d7 fbbd
000000c0: f175 663c d3c4 443d cd4d 3f3a 4014 ff3d
000000d0: e5ce 1c3d f47d fe3d 9f64 763d ab5c 0cbe
000000e0: 1bdb 33be d80a 26be e6fb 1ebd 74d9 223e
000000f0: b2ae 13bd 63b3 653d 5db4 0ebd ad86 b9bd
0.03337814 0.024537819 0.093257375 -0.075286776 0.039536014 -0.10133469 0.12737334 -0.031306405
0.1081613 -0.11180644 -0.16748056 0.011348201 -0.15152553 0.07927203 -0.05633688 -0.02649244
0.0138679445 0.121770956 -0.084408216 -0.13813017 0.17198327 -0.17115346 0.042067777 -0.104132734
-0.17529117 0.040703606 -0.005534602 0.09538299 -0.0937311 -0.13000631 0.11266066 0.09050896
0.009676851 -0.031912576 -0.041981257 0.028403781 -0.06443869 -0.13275771 0.14026101 -0.004043579
-0.0025339508 0.015770297 -0.04173267 0.1588071 -0.09278767 -0.071561195 -0.11212008 -0.1229687
0.014066205 0.04803927 0.0007297665 0.12455034 0.038283248 0.124263674 0.060154554 -0.13707225
-0.17564051 -0.16215074 -0.038814448 0.15903264 -0.036055274 0.05607928 -0.034839977 -0.090588905

net.1.running_var f4 [64]
00000000: 6b3a ee3e 941f 9f3e 47f3 bc3e 20d5 dc3e
00000010: b200 103f fc60 8f3e f663 003f 23db d43e
00000020: d389 063f 0150 e93e 5139 cd3e ba6c 843e
00000030: 8c9d c83e e631 933e bdfa 903e 6c2a 933e
00000040: 7f7e 973e 68bc d53e b629 eb3e 5ece ad3e
00000050: 81a8 ec3e 210f 863e 1ef7 b63e 6095 1c3f
00000060: 1fea 003f c0b0 dc3e 841a 073f ac32 ff3e
00000070: c901 cb3e 92ff e93e d5b5 283f 6a1a c13e
00000080: 8b1c 583e 0407 a33e bb2a ca3e 2cc0 0b3f
00000090: 2140 083f cad3 973e 079c 293f cf25 d53e
000000a0: 0215 1b3f 95e9 4e3f 8493 4f3f b729 b23e
000000b0: 62e3 913e d31b 6a3f 4a05 863f fbfb c43e
000000c0: 81a9 163f c771 d43e 5d0f c53e c56b c23e
000000d0: cbe5 d93e db9e a73e ae7d d73e ecc1 b83e
000000e0: e7cb 963e eaa8 e63e fecf 113f c93d b63e
000000f0: cd06 a63e 1ab1 c83e ce76 053f c7b8 2b3f
0.46528944 0.3107878 0.36904356 0.4313135 0.5625106 0.2800368 0.5015253 0.41573438
0.52554053 0.4556885 0.4008279 0.25864202 0.391827 0.28749007 0.28316298 0.28743303
0.29588696 0.41745305 0.4593026 0.33946508 0.46222308 0.26183417 0.3573541 0.6116543
0.5035724 0.431036 0.52774835 0.49843347 0.396498 0.45702797 0.65902454 0.37715465
0.21104638 0.3184129 0.39485726 0.54590106 0.5322285 0.2965377 0.66253704 0.41630408
0.6057893 0.8082517 0.81084466 0.3479745 0.28493792 0.91448706 1.0470364 0.38473496
0.5885239 0.41493055 0.38488284 0.37972847 0.4255813 0.32738385 0.42088073 0.3608545
0.2945244 0.45050746 0.56957996 0.35594013 0.32427064 0.39197618 0.52134407 0.6707882

net.4.weight f4 [64, 64]
00000000: 368a c9bd 4041 113e 8c82 f9bd 93d1 e73d
00000010: 793d 00be f169 0cbe 94b4 65bd 3df5 753d
00000020: 271c 06be 1290 e23b 827b cc3b 7040 fe3d
00000030: 3191 abbb 9a91 ba3b 336a 00be 586f bd3d
00000040: 601a 18be a372 de3c 4912 90bc 2c44 0b3d
00000050: f676 c73c 1c7b 11bd 1650 f93d 5e0f 81bc
00000060: 7ee2 0dbc 1f7c 57bd 3bd7 aabd 8be8 d3bb
00000070: d6b7 e4bc 167c 103e b8a4 d5bd cf12 40bc
00000080: 8c18 9abd c157 a5bd 4a26 0b3e df5b 393d
00000090: 707f d0bb 42f7 193e fbff 983d 86f5 0f3e
000000a0: 9af5 653c fd16 11bd f5a2 8a3d eeba 2ebd
000000b0: 4ecb 8ebd 3858 c7bd fe1d 873c a21e 63bd
000000c0: ef92 13bc b272 fe3c b2d8 c33b c260 093d
000000d0: 55ed ac3d 0959 74bd 6611 6cba 7c56 55bc
000000e0: 9e01 4abc b7f9 4b3c eed6 95bd 5ba9 673d
000000f0: 8cd9 59bd 46ee d3bd a0dc ebbb a7e2 b6bd
00000100: 567f b3bd 4cb3 4c3d 2ef0 3a3c 72f3 a43b
00000110: 7d7c c8bd a1a6 d2bd 2dfd 1d3d d9e0 48bd
00000120: 5fa9 c6bb 87cf a63d 904a 52bb 0b1c 34bd
00000130: 1d1c 01be 3078 7ebb 8b1b 593d 2007 a8bd
00000140: f8a6 3a3d 86ee 41bd 0113 aebc a10a 153d
00000150: f482 6bba 7658 ae3b e915 bebd 1a42 8cbd
00000160: 1cec 22bd c6d8 993b 389a eabc df78 13bd
00000170: 3126 80bd 66ae ba3b a0dc 9ebd b41b 97bd
00000180: fe19 51bd 7ec8 d33b 722c 913d 9662 f7bd
00000190: fc21 c7bd 02c8 313e 3b4b 4fbd baea 92bc
000001a0: 1288 05ba 5dfc 0abe 4fec a93d f61b e1bd
000001b0: 3e3b 843d 4206 c0bb e221 f43d 8c0d 55bc
000001c0: 40e9 da3c a6de 0b3d 2c7d 113d e548 adbd
000001d0: f479 19be 98b8 e7bd bbcd 953d b820 8dbd
000001e0: 830e 803d a5bb 653d 51f8 a2bd 79a8 db3c
000001f0: 7e21 b0bc f8c6 a53c bd1a 84bd 86f8 65bc
00000200: cc16 a13d 1f71 8bbb 567a 7abd 4399 d3bc
00000210: 1c0b 03be edb4 903d 1dc6 f9bd 7eac bfbd
00000220: 6638 75bd 822f 073e eaad 3ebc ad57 ad3d
00000230: cf9c a7bd 0f34 1a3d 8429 32bd c32c a3bd
00000240: f728 5dbd 65de 0e3c ee30 fbbb f5fa babc
00000250: 0f0c 2bbd d542 db3d e4a7 fcbc 9e53 14be
00000260: 0ba0 62bd 48ec 4f3d 732e 083e 8d1d ecbd
00000270: 1fdf e03d 6cc9 0d3e 1d79 ad3d ccd5 013c
00000280: 9072 f13c 9ff0 893d 48bf be3d 95b8 463d
00000290: 1987 0b3c 4120 a1bd 75a4 8b3d 92fc c5bc
000002a0: e02a c93d 1734 e1bd d367 073e 7997 27bd
000002b0: c908 bf3d e97d 0fbd 7adf 913c c24a 42bd
000002c0: b011 d63d 7551 c73d 3dbd ec3b 5a6a bcbd
000002d0: 5b52 bc3d c01c 12be ee44 69bd 687b cebc
000002e0: 2804 91bc 74ca dd3d 31ee a7bd 8ac3 c23d
000002f0: 282c c8bd a389 9b3d 721f 55bd 4454 3ebd
00000300: 7e2c 5dbd 6a90 253d 50bc 453c 2489 2bbd
00000310: 62a6 20bd b8cf 32bc a7ec 3c3d 9496 363c
00000320: b2a3 853d e0fd d03d 57d3 0c3e 797a a8bd
00000330: a558 03bd 2aa1 0a3e 91ca 363c 98cc 85bd
00000340: e7fe 54bd cd53 b13c 0238 14bd f49b 933a
00000350: 8b9f efbd 07a8 903d dfe6 9f3d 4d35 bfbc
00000360: 68c6 633d d5d5 0fbe 432d b83c 34af a1bd
00000370: b6d7 cf3d d6e0 35bd fcab 043c bff5 0abe
00000380: a77a 1abd a166 c8bd a7a0 6a3c ac9b 81bd
00000390: 6495 95bd 17a1 a3bd be21 c33d f9dd 163e
000003a0: 5cf8 b33c 7fbd 17be 63c0 053c 2eca 483d
000003b0: 1de9 073d 7fc5 04bd 1ea8 2bbd c6b3 403d
000003c0: 6276 393d ff6e b9bd 031f 113d f30c 8e3c
000003d0: af60 1bbe d321 6abd 374a 5abd 6fe3 683c
000003e0: 163f 5a3d 66fe f93d ef7d e63d a31c 273d
000003f0: d774 ca3d 0a63 a43c 9888 0bbd 76e9 b93d
-0.09840815 0.14185047 -0.12183103 0.1131927 -0.1252345 -0.13712288 -0.056080416 0.06004833
-0.13096677 0.006914147 0.006240309 0.12414634 -0.005235814 0.0056936266 -0.12540512 0.09249753
-0.14853811 0.027154272 -0.017586844 0.03400056 0.024348717 -0.035517797 0.12173478 -0.015754398
-0.008659957 -0.052608605 -0.08341833 -0.0064669303 -0.027919691 0.14109835 -0.10431808 -0.011723234
-0.07524213 -0.08073378 0.13588825 0.04525363 -0.006362848 0.15035728 0.074706994 0.14058504
0.014035607 -0.035422314 0.06769363 -0.04265874 -0.06972371 -0.09733623 0.016493794 -0.055449136
-0.0090072 0.03106055 0.00597676 0.03353954 0.08443705 -0.059655223 -0.0009005278 -0.013021108
-0.012329487 0.012449673 -0.07316385 0.056557994 -0.053185984 -0.103481814 -0.0071979314 -0.08929949
-0.08764522 0.04997568 0.011409802 0.0050339038 -0.09789369 -0.10285688 0.038571525 -0.049042556
-0.006062671 0.081450514 -0.00320879 -0.043972056 -0.1260838 -0.0038828962 0.053004783 -0.08204484
0.04556939 -0.047346614 -0.021249296 0.03638709 -0.0008984052 0.005320604 -0.09281523 -0.06848545
-0.039775953 0.004695031 -0.02863799 -0.036003944 -0.062572844 0.0056970594 -0.07756925 -0.07378331
-0.05105018 0.0064631095 0.070885554 -0.12079351 -0.09723279 0.17361453 -0.050608855 -0.017934192
-0.00050938234 -0.13572831 0.082970254 -0.10991661 0.06456612 -0.005860121 0.11920525 -0.013003718
0.02672255 0.03414788 0.035519764 -0.08461169 -0.14987928 -0.11314505 0.073146306 -0.06891006
0.06252768 0.056087155 -0.07957519 0.026813732 -0.021500345 0.020236477 -0.064504124 -0.014036303
0.07865676 -0.0042554284 -0.061151825 -0.025829917 -0.12797207 0.07065759 -0.1219599 -0.09359072
-0.05986824 0.13201717 -0.011638144 0.084639885 -0.08184206 0.037647303 -0.043496624 -0.07967522
-0.053994145 0.008720015 -0.007665745 -0.022824744 -0.041759547 0.107061066 -0.030841775 -0.14485022
-0.05532841 0.050762445 0.13298969 -0.11529074 0.10980057 0.13846368 0.08470366 0.007924508
0.029473573 0.06735348 0.09313828 0.048515875 0.0085160965 -0.0786748 0.06818477 -0.024168286
0.09822631 -0.109962635 0.132232 -0.04091594 0.093278475 -0.035032187 0.017806757 -0.047434576
0.104525924 0.097323336 0.0072247074 -0.091999725 0.091953956 -0.1426878 -0.056950502 -0.025205329
-0.017702177 0.108296305 -0.08199728 0.09509952 -0.09774047 0.075946115 -0.05203194 -0.04646708
-0.05399751 0.040420927 0.012068823 -0.041878834 -0.039221175 -0.010913782 0.046124127 0.011144299
0.06525363 0.10204673 0.13752495 -0.08226485 -0.03206696 0.13538042 0.011156694 -0.06533164
-0.052000906 0.021646405 -0.036186226 0.0011261688 -0.11700352 0.07063299 0.07807707 -0.023340845
0.055609137 -0.14046414 0.02248252 -0.078947455 0.101485655 -0.044403873 0.008097645 -0.13570307
-0.037714627 -0.097852 0.014320529 -0.0632852 -0.073038846 -0.0798971 0.0952792 0.14733113
0.021969013 -0.14818381 0.008163544 0.04902094 0.0331813 -0.03241491 -0.041908376 0.047046445
0.045278914 -0.09054374 0.035429966 0.017340159 -0.151736 -0.057161164 -0.053293433 0.014214381
0.05328282 0.12206726 0.11254489 0.040798794 0.09885567 0.020066757 -0.034065813 0.09077732

net.4.bias f4 [64]
00000000: ffd1 263d 370a aebd 2cc4 fb3d 2d2b b2bd
00000010: b651 a33d 7575 f2bd 738b 93bd 9449 b5bd
00000020: ee83 e5bd 0d3f b9bd 1020 9fbd 5c9a b6bd
00000030: 019d 5bbd 537a d2bd 0a15 dd3d 7fe7 263d
00000040: 589a f5bd 3723 a23d 8c8e 0f3d c923 9a3d
00000050: 4a83 99bd 324f 793d 2547 3abd ac73 80bd
00000060: 4692 2d3d 3033 5dbd 2ef6 d23d 1357 163d
00000070: d594 dabd 701d cfbd 9f0a ed3b 26df 27bd
00000080: 4c50 ae3d c12b b23d cd2b 98bd 3ef5 bd3d
00000090: 32bf 053d 9e77 3a3c 4a34 cebc 8d96 1abc
000000a0: 3bf0 df3d 2081 e33d 160d 113d c2a1 98bd
000000b0: 9466 6cbd 17dd 0bbc a0e8 943d 2e83 f13c
000000c0: db77 803d 8d66 683d 3d8b 41bd 6267 20bd
000000d0: 4215 dd3d 055b dabb 7ca5 013d a1e2 09bd
000000e0: 432b cb3d 7ad6 ae3d 2a66 d93a d7f9 4abb
000000f0: 0e63 3b3d 178d a1bd e4ab e3bd fb92 0abd
0.04072761 -0.08498042 0.12293276 -0.086996414 0.079745695 -0.118388094 -0.07204332 -0.088519245
-0.11206804 -0.09045229 -0.07769787 -0.089161605 -0.053616527 -0.10277238 0.107950285 0.040748116
-0.11992329 0.07916873 0.035048053 0.07526357 -0.074957445 0.060866542 -0.045478005 -0.06272063
0.042375825 -0.054003894 0.10300861 0.036704134 -0.10672919 -0.10113037 0.007233932 -0.040984295
0.08511409 0.08699752 -0.07430229 0.09275292 0.03265304 0.011381058 -0.025171418 -0.009435308
0.10934492 0.11108613 0.03541287 -0.07452728 -0.057715014 -0.008536599 0.07270932 0.029481497
0.062728606 0.056738425 -0.04725193 -0.039161094 0.1079507 -0.0066636824 0.03165196 -0.033663396
0.09920361 0.08537002 0.0016586233 -0.003097167 0.045748763 -0.07888239 -0.1111677 -0.033831578

net.5.weight f4 [64]
00000000: 3b43 7f3f f482 833f d6db 7a3f a022 843f
00000010: 8ea7 853f 1d56 823f 5d55 823f b682 773f
00000020: 969a 823f 08e3 7e3f 4ac1 823f 1cfc 753f
00000030: ef32 793f fbb5 863f 6cb2 873f 31b0 883f
00000040: d611 883f 9e12 7f3f 28dc 813f 08ea 873f
00000050: 16a7 7b3f 9331 863f 8fda 7d3f b71e 883f
00000060: 9c09 873f 2323 793f bd92 823f d83d 7d3f
00000070: 1424 7e3f f745 863f 1808 833f f507 7c3f
00000080: ec54 843f c09b 863f ecf5 873f 1a88 823f
00000090: 83e9 7f3f 459a 873f 13b5 883f 8c98 863f
000000a0: 175c 883f 33aa 843f 9fe0 863f 6fe6 7a3f
000000b0: d7f1 873f 3216 883f 8760 783f 03e3 7b3f
000000c0: 0308 7b3f 0248 863f 23fe 883f 8c1a 833f
000000d0: edf4 803f 557a 843f 5c43 803f 1b6d 883f
000000e0: f126 883f cc49 803f e499 863f 201c 863f
000000f0: 7e99 833f c5b8 803f 7e00 873f b622 863f
0.9971196 1.0274339 0.97991693 1.0323067 1.0441759 1.018253 1.0182301 0.96683824
1.0203426 0.9956517 1.0215237 0.96087813 0.97343343 1.0524286 1.0601325 1.0678769
1.0630443 0.9963778 1.0145311 1.0618296 0.9830183 1.0483879 0.9916162 1.0634373
1.0549808 0.9731924 1.0201031 0.9892249 0.992738 1.0490102 1.0236845 0.9844964
1.0338416 1.0516281 1.0621924 1.0197785 0.99965686 1.0593954 1.068026 1.0515304
1.0653104 1.0364441 1.0537299 0.98007864 1.0620679 1.0631773 0.9702229 0.9839327
0.980591 1.0490725 1.0702556 1.0242476 1.0074745 1.0349833 1.0020556 1.0658296
1.0636884 1.0022521 1.0515714 1.0477333 1.0281217 1.0056387 1.0547025 1.0479343

net.5.bias f4 [64]
00000000: 1b48 71bc 10aa aa3c 9177 c9bc 4968 d63c
00000010: b67f 2d3d fc7c a53c e4a7 163b 2b86 d2bc
00000020: 6ab5 abbb 022e fd3c 682d 533c c139 893b
00000030: aa1b 2bbd b841 373d 6e1c a03c 1b88 893d
00000040: 90a1 323d 30bc 483b d92a 84bb f57c 173d
00000050: c9f6 63bc a3f2 043c f42d 49bc 7fa9 743d
00000060: 1815 763d cca4 aabc a2d4 4cbc 28cb 0eba
00000070: ae97 24bc df87 343d 9fd1 043d 3a6a ccbc
00000080: 110d fe3b 2622 843d ad49 f83c d2a4 c33c
00000090: f8c0 b9bc 14a3 523d 9f53 8c3d e616 033d
000000a0: d4f1 843d da42 a83c 696d 553d f2ca 1cbc
000000b0: 7685 273c 72f6 4a3d f4d8 07bd 05a4 53bc
000000c0: 6adb eab9 34fe 4f3d d9b0 853d bb78 5a3d
000000d0: d74d 033c 0cd2 0a3d b143 e23b 0c0a 833d
000000e0: 39d5 6c3d bd67 f83c 26de 3a3d 055f 123d
000000f0: b987 653c 56b6 08bc dc1d 363d bdd6 3f3d
-0.014726664 0.020833045 -0.024593147 0.026172774 0.042358123 0.020201199 0.0022988254 -0.025698742
-0.005240132 0.030905727 0.012889244 0.004187793 -0.04177443 0.04474041 0.019544806 0.06715413
0.04361111 0.0030629747 -0.004033428 0.036984403 -0.013913819 0.00811449 -0.0122790225 0.059731957
0.06007871 -0.020830534 -0.0125018675 -0.0005447143 -0.010045929 0.04407489 0.032426473 -0.024952997
0.0077530225 0.06451826 0.030308569 0.023882303 -0.022675022 0.051425055 0.06851887 0.03200426
0.064914376 0.02053969 0.052106295 -0.00956987 0.010224691 0.049551435 -0.033165887 -0.012917523
-0.00044795434 0.050779536 0.06527872 0.053337794 0.008014164 0.033891723 0.006905042 0.06398401
0.057820532 0.030322904 0.045622014 0.03573515 0.01400941 -0.0083442535 0.04446207 0.04683565

net.5.running_mean f4 [64]
00000000: d06f 10be 9f10 12bf 5dff 283e 6e84 02bd
00000010: ded3 18be 9e01 f2be 9b3f 95bc 6aaf 9e3e
00000020: abf6 18be 2ec4 123d 73ec aabe 2bcf acbe
00000030: c003 d23d 10b5 1cbe 5b77 1e3e 1f4d 6e3e
00000040: 6db2 15be 773b e5bd 7e1a 763e ecee 06be
00000050: 4ecf 723e b711 d0bd b3d3 5bbe 5e6d 92be
00000060: 7a70 66be 110d 673d be0b 823d 8e32 5abd
00000070: 2cc3 68bd 4da9 d4be 1867 c03d d1b0 d4bd
00000080: bbe0 f23d 8d55 973d 2895 05bc c13d 22bd
00000090: 2f7e 74bd 9c3c ce3d 659e 4abe bea9 12bd
000000a0: 3d62 8c3e f145 e5bc be02 463c 26e5 97be
000000b0: be8a 24be 0285 e33d 560b 00be de6a 1a3f
000000c0: 68f1 c2bd bfc6 563e b212 b83d 64dc 8cbe
000000d0: 9489 203d 162f 8cbd 6fa7 9cbd 1e38 d13d
000000e0: bb20 703d c370 af3e 682e 2e3a 8473 4f3e
000000f0: b202 9ebc a1f1 473d 6b31 71be c388 f6bc
-0.14105153 -0.5705661 0.16503663 -0.031864576 -0.14924571 -0.4726686 -0.018218806 0.30993205
-0.14937846 0.035831623 -0.3338352 -0.33751807 0.102546215 -0.15303445 0.15475218 0.23271607
-0.14618845 -0.11192983 0.24033543 -0.13177079 0.23711893 -0.10159629 -0.21467476 -0.28599066
-0.22503844 0.056408945 0.06349896 -0.05327087 -0.056826755 -0.41535416 0.093946636 -0.103852876
0.1185927 0.073893644 -0.008153237 -0.039609674 -0.05969065 0.10070154 -0.19786985 -0.03580641
0.274187 -0.027987452 0.012085615 -0.29667014 -0.16068551 0.111093536 -0.12504324 0.60319316
-0.09518701 0.20974253 0.08987941 -0.27511895 0.039193705 -0.068449184 -0.07649123 0.10215782
0.058624964 0.34265718 0.00066444883 0.2025891 -0.019288395 0.04881442 -0.23554008 -0.03009451

net.5.running_var f4 [64]
00000000: 30d1 923e 2a89 bb3e abab 8d3e 75b2 ab3e
00000010: b5fd b73e 7ff2 793e 859e a43e 7b47 af3e
00000020: c2b3 883e d9f2 8c3e ebca b93e 5a45 e33e
00000030: c3f0 bf3e 03b8 c43e 7988 c03e d9de d93e
00000040: a539 973e 3b96 883e 4c82 b53e 5d6d b03e
00000050: 146e ef3e 657b b93e 1367 593e 292a d93e
00000060: 67a6 ae3e d022 983e 7055 a73e a5fd a33e
00000070: 4ce5 e43e 6e60 fd3e bb74 943e df68 a03e
00000080: 15d6 c43e c507 973e 287e c43e 3139 b83e
00000090: 65bf 793e ae1a ae3e da53 b93e 6c55 a73e
000000a0: c7ab da3e 5c10 9f3e bb4e a83e 4915 9b3e
000000b0: 40b5 a33e a0de ab3e 2b2d a03e 433d 6d3e
000000c0: cce8 dc3e 0896 d93e f04e ad3e 1822 cc3e
000000d0: c406 8f3e 9c30 d63e 9b3c 713e 092f ef3e
000000e0: bf82 013f 6a4a d33e a473 cf3e 6296 a73e
000000f0: 53d9 af3e 4cba cf3e 355b c03e 8d2a 963e
0.28675222 0.36628085 0.27670035 0.3353459 0.3593575 0.24408911 0.3215219 0.34234223
0.26699644 0.27529028 0.36287627 0.4438885 0.37488374 0.3842164 0.3760412 0.42552832
0.29536167 0.26677117 0.3545097 0.34458438 0.4676367 0.36226955 0.21230726 0.42414978
0.3411133 0.2971406 0.3268237 0.32029453 0.4470619 0.49487633 0.28995308 0.3133001
0.38444582 0.29498115 0.383775 0.35981134 0.24389417 0.3400473 0.36196786 0.3268236
0.4270918 0.3106717 0.32872567 0.30289677 0.3197422 0.33568287 0.3128446 0.231679
0.4314636 0.42497277 0.33849287 0.3986976 0.2793485 0.4183396 0.23558275 0.46715572
0.5059013 0.4126771 0.40517914 0.3273192 0.34345493 0.4057182 0.37569585 0.2932934

net.8.weight f4 [2, 64]
00000000: 89d4 da3d d8a0 173e a455 303d eb06 0f3e
00000010: 9348 28be 1840 0bbe 60f0 6f38 cbf1 103d
00000020: 9462 73bd d1f4 56bd 5164 70bd 6d37 e13c
00000030: 6bb8 fa3b 66e5 6bbd 63af 2a3e d2e0 47bc
00000040: eb0c 363d f034 143e b7d1 e13d 26e7 333d
00000050: 17fb c93d 6b23 d6bd 4b3e f9bd 31f1 1ebe
00000060: 6871 20be 9943 97bd 4b92 10be e125 fa3c
00000070: 006b e03d aa16 06bd 66fa d4bd aa14 2bbd
00000080: d77e 183e 7b18 113d a0f4 253d 8705 46bd
00000090: 300c 11be 03c5 79bc 9a3f 8b3d 2fd1 13be
000000a0: 3a6b 8c3c 5743 bd3d 3b8b 9e3b 1d88 933d
000000b0: 8b23 323e 1d30 1bbe 33a3 d3bd 56fa 3c3d
000000c0: 1f17 16bd db7c 19be 6a38 c23b 9653 ae3d
000000d0: 97a4 123d 775c efbd bae4 863d e437 063a
000000e0: 3c27 28be aca5 383d c77b 1bbe ed47 c8bc
000000f0: bb08 3a3d cef5 a93d b440 fdbd c616 803c
00000100: c686 5dbd a774 17be 18af e43c 25bf f3bd
00000110: e10c 9a3d 74ab 7fbd 56c4 ffbd 6f6f f43c
00000120: 4db6 f8bd 6678 373d 5fd6 ad3d 2948 e43c
00000130: 30de c53d 8342 cc3d fea5 d4bc 4b15 3cbe
00000140: dd61 353e 7dcf 993d 8f4b 513c ba5e 0ebe
00000150: b13b aabc 7a90 a63d 6889 85bd 8e1e f9bb
00000160: cfb8 6fbd 38ae 6e3d 23e5 14bd 97cd 59bc
00000170: 4fca c2bd 9c7d 243e d4d6 723d c2a6 a7bd
00000180: df4f 4a3c 04e1 f43d d61c 9bbd 77a5 113d
00000190: c4f6 9dbd e570 dd3d f930 27be 45f2 603c
000001a0: 2507 1bbe 7012 67bd aad3 233e 2f71 60bd
000001b0: ae76 9cbd 8f1c 8fbc 5be6 c2bd b6fa 3d3b
000001c0: 2cd5 47bd 181d f83d e576 33be dbf2 1a3e
000001d0: 03a0 33bd a275 04bc fae6 173a d467 35be
000001e0: 25de 2ebd 2efa f2bd 0305 823c b8e5 233e
000001f0: 4fbc 163e 706b c9bd 58ee 9439 2ac9 c8bd
0.10685069 0.14807451 0.043050423 0.13967483 -0.16433935 -0.13598669 5.7205907e-05 0.03538684
-0.059420183 -0.05247957 -0.05868942 0.02749225 0.007651379 -0.05759182 0.16668467 -0.012199597
0.044445913 0.14473319 0.11026328 0.043921612 0.09862345 -0.10455974 -0.121700846 -0.15521695
-0.15668261 -0.0738594 -0.14118306 0.03053564 0.10957909 -0.032736458 -0.10399322 -0.041767754
0.14892136 0.035423737 0.040516496 -0.048345115 -0.14164805 -0.015244725 0.067992404 -0.14435266
0.017140973 0.0924136 0.004838375 0.07203696 0.17396371 -0.15155073 -0.10333862 0.046137176
-0.036643144 -0.14989035 0.0059271352 0.085120365 0.035801496 -0.11687558 0.06586595 0.00051200227
-0.16421217 0.045079872 -0.15183936 -0.02444836 0.045418482 0.08298837 -0.12365857 0.01563586
-0.054083608 -0.14790593 0.027915522 -0.11901692 0.07521988 -0.06241937 -0.1248862 0.029838292
-0.12144146 0.044792555 0.08488154 0.02786644 0.096615195 0.099736236 -0.025958057 -0.18367498
0.17713113 0.075102784 0.012774362 -0.13903323 -0.020780416 0.081330255 -0.06520349 -0.0076025194
-0.058525857 0.058271617 -0.036351334 -0.013293645 -0.095112436 0.16063541 0.059286907 -0.081861034
0.012348144 0.11956981 -0.075738594 0.03555819 -0.077130824 0.108125485 -0.16327275 0.013729637
-0.15139444 -0.056414068 0.15998712 -0.05479544 -0.07639824 -0.017469672 -0.09516593 0.0028988547
-0.04878728 0.12114924 -0.17525823 0.15131705 -0.04385377 -0.0080846865 0.0005794611 -0.17715389
-0.042692322 -0.11864124 0.01587153 0.160056 0.14720272 -0.09834945 0.0002840634 -0.09803994

net.8.bias f4 [2]
00000000: 0509 d13c 0b40 27bd
0.025516996 -0.04083256
