data/weights/feature_mlp_pipeline.pth (torch, 38289 bytes, 14 tensors)

net.0.weight f4 [64, 50]
0	0xbb8a14d7	-0.00421391
1	0x3d76a1cb	0.06021289
2	0x39f94bb8	0.00047549396
3	0x3ddb0100	0.1069355
4	0xbdd5f90a	-0.10447891
5	0xbe1f4767	-0.15554582
6	0xbcaea3c5	-0.021318326
7	0xbdf6245f	-0.12018656
8	0xbe011545	-0.1260577
9	0x3dbfae9b	0.09359475
10	0xbdd85ca2	-0.10564543
11	0x3baa9171	0.0052053262
12	0x3d3c1a78	0.04592368
13	0x3e0c5499	0.13704146
14	0x3b0344d1	0.0020030031
15	0x3e0f869a	0.1401619
16	0xbd7aa8bb	-0.06119607
17	0xbcb5d080	-0.022194147
18	0x3dd2ec96	0.102990314
19	0xbd821933	-0.063524626
20	0xbdf23cb2	-0.11827983
21	0x3e131ae8	0.14365733
22	0xbdc125ca	-0.09431036
23	0xbb5201d3	-0.0032044544
24	0x3ba0b497	0.0049043405
25	0xbb0e6bfe	-0.0021731849
26	0x3ce5d072	0.028053496
27	0xbdab8dc7	-0.08376651
28	0xbd00fb7d	-0.031489838
29	0x3c79ccda	0.015246594
30	0xbd8645f5	-0.06556312
31	0x3da3a8c4	0.07991174
32	0x3db859d4	0.09001508
33	0xbdf6f6cb	-0.12058791
34	0xbdc71a6f	-0.09721839
35	0xbc896fd9	-0.016776966
36	0xbb8abe6c	-0.004234126
37	0x3a0eeb5d	0.0005451942
38	0x39bcc78e	0.00036006834
39	0xbd598f4e	-0.05311518
40	0x3dd8ef1d	0.10592482
41	0xbd85bffe	-0.0653076
42	0xbd03c9a8	-0.032174736
43	0x3dde28bd	0.10847614
44	0xbd18b528	-0.03728214
45	0xbca8012f	-0.020508377
46	0xbd1e1eed	-0.038603712
47	0xbccc1585	-0.024912605
48	0x3d419990	0.04726559
49	0x3c8a0106	0.016846191
50	0xbe070f03	-0.1318932
51	0x3c59ebbf	0.013300835
52	0xbd045aae	-0.03231304
53	0xbdb05760	-0.086104155
54	0x3e02d1c6	0.12775335
55	0xbd305a96	-0.04305514
56	0x3e1000a8	0.1406275
57	0xbd78fb99	-0.060786817
58	0xbd971315	-0.073766865
59	0x3e02d115	0.12775071
60	0x3cef8b41	0.029241206
61	0xbb25cb85	-0.002529831
62	0xbc567827	-0.01309017
63	0x3de6b491	0.11264909
64	0x3ca7d506	0.02048732
65	0xbd976f15	-0.07394234
66	0xbd90639b	-0.07050248
67	0xbcce73f5	-0.025201777
68	0x3bbf10ee	0.0058308756
69	0xbd5ee157	-0.05441412
70	0xbdf1d282	-0.11807729
71	0x3dbabc1e	0.09117912
72	0x3b991229	0.0046713543
73	0xbdfed86f	-0.12443625
74	0xbd23edd5	-0.040021736
75	0xbd5077e2	-0.05089558
76	0xbd620494	-0.055180147
77	0xbe0f943d	-0.14021392
78	0xbd837412	-0.06418623
79	0xbdd77ead	-0.10522208
80	0x3d9a4e0c	0.075344175
81	0x3db16632	0.0866207
82	0xbde45b94	-0.1115028
83	0x3ddf086d	0.10890279
84	0xbd559954	-0.05214818
85	0xbdb94ce6	-0.0904787
86	0x3db33103	0.087495826
87	0x3da525c3	0.08063843
88	0xbe17e0f4	-0.14831907
89	0xbdb63a83	-0.08897879
90	0xbcfd5f94	-0.030929364
91	0x3df3cb53	0.119040154
92	0xbd98a1c4	-0.07452729
93	0x3da5a433	0.08087959
94	0x3dd49aba	0.10381074
95	0x3d56daa9	0.052454624
96	0x3af38ddc	0.0018581706
97	0x3d74ba09	0.05974773
98	0x3d9e7a90	0.07738221
99	0x3d54cfbe	0.05195593
100	0xbdef1968	-0.11674768
101	0x3bbf0f53	0.005830684
102	0x3d9db950	0.07701361
103	0x3d1c987b	0.038231354
104	0x3d72bb1b	0.05926047
105	0x3e0d34f4	0.13789731
106	0xbd895d3d	-0.06707237
107	0x3ce2e764	0.027698226
108	0xbe040f71	-0.12896515
109	0x3d750b3e	0.059825175
110	0x3db7e57a	0.08979316
111	0xbbfd5b38	-0.0077318214
112	0x3d902e03	0.07040026
113	0x3df00ff3	0.11721792
114	0xbde9e4ba	-0.11420579
115	0x3d38a5fe	0.045080177
116	0xbd812272	-0.06305398
117	0xbcff40f9	-0.031158911
118	0x3d612558	0.054967254
119	0x3db90cef	0.0903567
120	0xbdce60d6	-0.10077064
121	0xbe100be2	-0.14067033
122	0x3d87ecbd	0.06636951
123	0xbdcc2889	-0.09968669
124	0x3d2bc7ef	0.04193872
125	0xbd9dbda9	-0.077021904
126	0x3d721953	0.059106182
127	0xbc3e41a3	-0.011612329
128	0x3d0fa923	0.03507341
129	0x3c002933	0.007822323
130	0xbdc60dea	-0.09670623
131	0x3cef4296	0.029206555
132	0xbc5db415	-0.013531704
133	0xbdfc3f63	-0.123167776
134	0x3dbc2718	0.09187144
135	0x3d5eb3c1	0.054370645
136	0xbd8a6026	-0.0675662
137	0xbd91ddfd	-0.07122419
138	0xbd08c346	-0.033389352
139	0xbc0d29c9	-0.008615919
140	0xbd8a1969	-0.06743128
141	0xbdc28c3c	-0.09499404
142	0x3da052ce	0.07828294
143	0xbc1b8904	-0.009493116
144	0x3ba20934	0.0049449448
145	0xbc14a05a	-0.009071434
146	0x3dd21f3b	0.10259863
147	0x3dd1456a	0.10218318
148	0xbd35c744	-0.044379488
149	0xbe05bcf6	-0.13060364
150	0x3d6cccaf	0.05781239
151	0x3def3f3e	0.11681984
152	0x3c79c76f	0.015245303
153	0xbdb1756e	-0.08664976
154	0x3daf0a64	0.08546904
155	0xbdf8240d	-0.12116251
156	0x3d705376	0.058673345
157	0x3da841ea	0.08215697
158	0xbd5e5d4c	-0.054288194
159	0xbc192d9c	-0.009349253
160	0xbdc83fe3	-0.097778104
161	0x3da8f4e2	0.08249833
162	0xbddd5d7a	-0.10808845
163	0xbe108a51	-0.14115264
164	0xbdf0a4e6	-0.11750202
165	0xbce2c314	-0.027680911
166	0xbe10f4e7	-0.14155923
167	0x3d06a295	0.032869894
168	0x3d254c4a	0.040355958
169	0x3d1b447e	0.037907116
170	0xbdf75d03	-0.120782875
171	0x3d8114d7	0.06302803
172	0x3be5b1f1	0.0070097377
173	0x3d44086f	0.047859605
174	0x3db87149	0.090059824
175	0x3de256f5	0.11051742
176	0x3d9e9ef9	0.077451654
177	0xbd360f30	-0.044448078
178	0x3dbd8e7c	0.09255692
179	0x3e15cfc1	0.14630033
180	0xbd63a5f0	-0.055578172
181	0xbdcb0ba2	-0.09914328
182	0xbde002ef	-0.109380595
183	0xbde70d85	-0.112818755
184	0xbc6d52a6	-0.014485037
185	0xbdcd4a09	-0.10023887
186	0xbd9cc059	-0.07653875
187	0x3af351f5	0.0018563854
188	0xbd36de1c	-0.044645414
189	0x3d9bc5cd	0.07606087
190	0xbca89785	-0.020580063
191	0x3ab4c986	0.0013792969
192	0xbd746002	-0.059661873
193	0x3dd322c2	0.10309364
194	0xbce49adf	-0.02790588
195	0x3dbd90cd	0.09256134
196	0x3c50b52f	0.01273851
197	0xb9a6f129	-0.00031841666
198	0x3dc5a79c	0.096511096
199	0x3d8ad9f0	0.067798495
200	0xbc7a57aa	-0.01527969
201	0xbe1e83e9	-0.15480007
202	0xbd8f99d5	-0.07011763
203	0x3d9a9906	0.07548718
204	0x3db4c4ce	0.088266
205	0xbd6d8d02	-0.057995804
206	0x3d24d1b0	0.040239036
207	0x3d470e32	0.048597522
208	0xbd946afb	-0.072469674
209	0x3d91808d	0.07104597
210	0xbdffbe75	-0.12487499
211	0xbdb2df14	-0.08733955
212	0xbd44193c	-0.047875628
213	0xbc39e9ee	-0.011347277
214	0x3d6cd09d	0.057816137
215	0x3c5956ea	0.013265351
216	0x3da49037	0.08035319
217	0xbdc87e85	-0.09789757
218	0x3d86c644	0.06580785
219	0x3d858488	0.06519419
220	0x3d66fb26	0.056391858
221	0x3d4f8447	0.05066326
222	0x3d4c0f6c	0.049819395
223	0xbd2449c9	-0.04010943
224	0xbddc3c0d	-0.10753641
225	0x3dbeac12	0.093101636
226	0x3dd0b8d8	0.10191506
227	0xbd9b5170	-0.07583892
228	0x3dd49d07	0.10381513
229	0xbd7a075e	-0.061042182
230	0x3e11d7a4	0.14242417
231	0x3d42e076	0.047577344
232	0xbd894ded	-0.06704316
233	0xbd8e04e9	-0.0693453
234	0x3c7bf694	0.015378613
235	0x3b1633c8	0.0022919048
236	0xbda30d1f	-0.07961487
237	0xbd20817d	-0.03918599
238	0xbdd97530	-0.10618055
239	0x3de66759	0.11250181
240	0x3d47c1f1	0.04876894
241	0x3db8390a	0.08995254
242	0x3d28d7a3	0.041221272
243	0x3d569362	0.05238665
244	0xbde36c8d	-0.11104689
245	0x3c3c11c3	0.011478844
246	0x3dd10057	0.10205143
247	0xbdd1eaa2	-0.10249831
248	0xbd907da2	-0.070552126
249	0x3e12adcf	0.14324115
250	0xbd875b14	-0.06609169
251	0x3c0d79cf	0.008634998
252	0x3b1af1d6	0.002364268
253	0x3e211348	0.15730011
254	0xbdf05570	-0.11735046
255	0xbd5f4947	-0.054513242

net.0.bias f4 [64]
0	0x3d345a57	0.044031467
1	0xbd0e78ae	-0.034783058
2	0xbbe3621b	-0.0069391853
3	0xbdfb01e1	-0.12256218
4	0xbd1befb3	-0.038070392
5	0x3de79d27	0.11309271
6	0xbde026c6	-0.109448954
7	0x3cc4caf9	0.024022566
8	0x3d7104e9	0.058842573
9	0x3d04e813	0.032447886
10	0xbcb327d5	-0.02186958
11	0xbc025fd8	-0.007957421
12	0xbce96be6	-0.028493833
13	0xbd94e997	-0.07271116
14	0xbde49ccf	-0.11162721
15	0x3e01c91c	0.12674373
16	0x3cb98839	0.022647964
17	0x3d8fda96	0.07024114
18	0x3d8a6579	0.067576356
19	0x3cc30bd4	0.023809351
20	0x3dd3e794	0.103469044
21	0x3d12c088	0.035828143
22	0x3d321679	0.043478463
23	0x3e11bd31	0.14232327
24	0x3cbc20dd	0.02296489
25	0x3d9bb7c0	0.07603407
26	0xbd12f6a8	-0.03587976
27	0x3d839c7f	0.06426334
28	0xbdad8964	-0.08473471
29	0x3dcd6004	0.10028079
30	0xbdf0338d	-0.117285825
31	0x3d4eaee5	0.05045976
32	0x3d9ad6a3	0.0756047
33	0xbd92643f	-0.07148027
34	0x3d9e7cba	0.077386335
35	0xbcb0aa78	-0.02156566
36	0x3d617569	0.05504361
37	0x3cb62eaa	0.022239048
38	0x3cee65ab	0.029101213
39	0x3ddcba0b	0.107776724
40	0xbda6bb0a	-0.081411436
41	0xbdff30c5	-0.12460474
42	0x3e0b5d28	0.13609755
43	0x3cad2d38	0.021139726
44	0x3bcc3ec0	0.0062330663
45	0xbb45ca5a	-0.0030180425
46	0xbd8656b5	-0.06559507
47	0x3bbc2050	0.0057411566
48	0xbd89d5bb	-0.06730219
49	0xbdc84192	-0.097781315
50	0x3dbab12a	0.091158226
51	0xbcd68de6	-0.02619071
52	0xbdc86aa1	-0.09785963
53	0x3d909736	0.07060091
54	0xbddb14e0	-0.10697341
55	0x3d92447f	0.07141971
56	0xbd0b55c9	-0.034017358
57	0xbdc03ed1	-0.09386981
58	0xbd2497c3	-0.040183794
59	0x3d431f7e	0.047637455
60	0xbdf38bb2	-0.11891879
61	0xbd8a8140	-0.06762934
62	0xbdca021a	-0.09863682
63	0xbd63a4cd	-0.05557709

net.1.weight f4 [64]
0	0x3f8030a8	1.0014849
1	0x3f7bdffd	0.98388654
2	0x3f83074a	1.02366
3	0x3f808bd9	1.0042678
4	0x3f7db26a	0.99100363
5	0x3f82777d	1.0192715
6	0x3f79dd1e	0.97603023
7	0x3f7d63d9	0.9898048
8	0x3f7b9a94	0.9828274
9	0x3f7b5791	0.9818049
10	0x3f7d905d	0.99048406
11	0x3f787bee	0.970641
12	0x3f818377	1.0118245
13	0x3f7bb522	0.9832326
14	0x3f7e19be	0.9925803
15	0x3f7e8902	0.9942781
16	0x3f8229a1	1.0168954
17	0x3f7bb708	0.9832616
18	0x3f783861	0.9696103
19	0x3f8159de	1.010555
20	0x3f7ef997	0.99599594
21	0x3f806dd8	1.0033522
22	0x3f85b6ca	1.0446408
23	0x3f7d5340	0.98955154
24	0x3f80f211	1.0073873
25	0x3f7e7802	0.9940187
26	0x3f821d6c	1.0165229
27	0x3f801c08	1.0008554
28	0x3f82b90c	1.0212722
29	0x3f80198b	1.0007795
30	0x3f799ab9	0.97501713
31	0x3f777564	0.966635
32	0x3f7d7089	0.9899984
33	0x3f81dee6	1.0146148
34	0x3f7eb4f9	0.9949489
35	0x3f806acf	1.0032595
36	0x3f7b9b04	0.9828341
37	0x3f7c1df2	0.9848319
38	0x3f8183af	1.0118312
39	0x3f7deb5b	0.9918725
40	0x3f7b1fc5	0.9809535
41	0x3f7ea599	0.9947143
42	0x3f7c5d51	0.9857989
43	0x3f7b17d7	0.9808325
44	0x3f7d12e4	0.9885695
45	0x3f80bc3c	1.0057445
46	0x3f808bf1	1.0042707
47	0x3f7c4d60	0.98555565
48	0x3f821e87	1.0165566
49	0x3f7c10b3	0.9846298
50	0x3f7ca431	0.98688036
51	0x3f813e66	1.0097167
52	0x3f7bdf4f	0.98387617
53	0x3f83ca59	1.0296127
54	0x3f849bfd	1.0360104
55	0x3f798e61	0.9748288
56	0x3f800533	1.0001587
57	0x3f84a6e8	1.0363436
58	0x3f838127	1.0273789
59	0x3f7a799b	0.97841805
60	0x3f806cd9	1.0033218
61	0x3f82b49e	1.021137
62	0x3f7aeea4	0.98020387
63	0x3f82317b	1.017135

net.1.bias f4 [64]
0	0x3bb2dd98	0.005458545
1	0xbc266427	-0.010155714
2	0x3c1a0cf3	0.009402501
3	0x3b238b5e	0.0024954895
4	0xbc882c24	-0.01662261
5	0x3d0eda29	0.034876022
6	0xbc3a5b32	-0.011374282
7	0xbbb0fdbd	-0.0054013417
8	0xbc9c7cd5	-0.019102493
9	0x3c60bb19	0.013716483
10	0xbc5e8bd2	-0.01358314
11	0xbc06804c	-0.008209299
12	0xbc304513	-0.010758656
13	0x3c13f7c5	0.009031241
14	0xbc941757	-0.018077536
15	0xbac88798	-0.0015299199
16	0x3c883a69	0.016629415
17	0xbc479831	-0.012182281
18	0xbd0b9520	-0.034077764
19	0x3b7865e8	0.0037902538
20	0x39ce200a	0.00039315253
21	0x3c024bb0	0.007952616
22	0x3d42adbb	0.047528964
23	0xbca3ea43	-0.020009166
24	0xbb104bc0	-0.0022017807
25	0xbc7bf7be	-0.015378891
26	0x3c74d9c1	0.014944495
27	0x3c0676bf	0.008207022
28	0x3cfa00a0	0.030517876
29	0xbb36c089	-0.0027885756
30	0xbc9696a7	-0.018382384
31	0xbc9f96cc	-0.019481085
32	0xbb9596fb	-0.0045651174
33	0x3cd6d19e	0.026223
34	0xbc292930	-0.010324761
35	0x3c44555f	0.011983245
36	0xbcc6d3c1	-0.024270894
37	0xbc745b67	-0.01491437
38	0x3c720bdd	0.014773336
39	0xbc0eed37	-0.008723549
40	0xbbb6b6c3	-0.005575986
41	0xbbda5bc8	-0.006663773
42	0xbbf7c699	-0.0075615165
43	0xbbb81bcd	-0.0056185485
44	0xbc018958	-0.00790628
45	0x3c73a361	0.014870496
46	0x3c69bcb4	0.014266182
47	0xbcd92c0b	-0.02651026
48	0x3cc1ab80	0.023641348
49	0xbc9640a9	-0.01834138
50	0xbb879af9	-0.004138347
51	0xbc24ace7	-0.010050989
52	0x3ba30c29	0.004975815
53	0x3c891e3f	0.016738055
54	0x3cf7b08b	0.03023555
55	0xbc9b03b3	-0.018922662
56	0x3bf9b046	0.0076198904
57	0x3cfdd03e	0.030983087
58	0x3ca0f3d2	0.019647513
59	0xbcd3f0f9	-0.02587174
60	0xbc0304cc	-0.007996749
61	0x3ce20a4e	0.027592804
62	0xbc9073ad	-0.017633284
63	0x3c26ff98	0.010192774

net.1.running_mean f4 [64]
0	0x3d29acab	0.041424435
1	0xbd1eab0d	-0.038737345
2	0xbc0ad3c8	-0.008473344
3	0xbdff7419	-0.12473316
4	0xbcbda7ed	-0.023151362
5	0x3de5c834	0.11219826
6	0xbde0f006	-0.10983281
7	0x3c758876	0.014986148
8	0x3d561f26	0.0522758
9	0x3d1a12c8	0.037615567
10	0xbd0164a9	-0.031590138
11	0xbab23a88	-0.0013597766
12	0xbcc4b70f	-0.02401307
13	0xbd58fe5c	-0.05297695
14	0xbde2266a	-0.11042483
15	0x3ddf2797	0.10896223
16	0x3cbb43b9	0.022859441
17	0x3d6fb855	0.058525402
18	0x3d80ab3c	0.0628266
19	0x3c6b670d	0.014367831
20	0x3dc38480	0.09546757
21	0x3d006301	0.031344417
22	0x3d3fc7ed	0.046821523
23	0x3e0d6982	0.1380978
24	0x3cb9f4b1	0.022699686
25	0x3d8ba71d	0.06818984
26	0xbd310270	-0.043215215
27	0x3d880780	0.066420555
28	0xbda2e6a4	-0.079541475
29	0x3dd3305b	0.103119574
30	0xbdee11bd	-0.11624477
31	0x3d4d8471	0.050175134
32	0x3db50638	0.08839077
33	0xbd931510	-0.07181752
34	0x3d944a70	0.0724076
35	0xbc6d7d96	-0.014495274
36	0x3d52ab97	0.051433172
37	0x3cf74d62	0.030188266
38	0x3ccf2bc9	0.025289433
39	0x3dd6f8e3	0.1049669
40	0xbda4e3ec	-0.08051285
41	0xbdf2bdf3	-0.11852636
42	0x3dfe0c11	0.12404645
43	0x3ba85e24	0.0051381756
44	0x3cabd22e	0.020974245
45	0xbbacde1a	-0.0052755
46	0xbd9ed6d4	-0.07755819
47	0x3ca7ee28	0.020499304
48	0xbd858447	-0.065193705
49	0xbdce754b	-0.100809656
50	0x3db2c696	0.087292835
51	0xbd13ae34	-0.036054805
52	0xbdbe0e00	-0.09280014
53	0x3d8ee6dc	0.06977627
54	0xbde42a1f	-0.111408465
55	0x3d8c83d7	0.06861084
56	0xbcf33255	-0.029687086
57	0xbdc60138	-0.09668201
58	0xbd1e4ba5	-0.03864636
59	0x3d2488a9	0.04016939
60	0xbdf5cb52	-0.12001671
61	0xbd74b67d	-0.059744347
62	0xbdd819b4	-0.105517775
63	0xbd5901d8	-0.052980274

net.1.running_var f4 [64]
0	0x3e448ca9	0.19194283
1	0x3e332b4f	0.1749699
2	0x3df3005e	0.118653044
3	0x3e6e50a1	0.23272945
4	0x3e694706	0.22781
5	0x3dfec7ed	0.124404766
6	0x3e34f810	0.17672753
7	0x3f15d9b0	0.5853529
8	0x3eab809e	0.33496565
9	0x3f22c1bc	0.63576865
10	0x3ea03e2d	0.31297436
11	0x3ead6c27	0.33871576
12	0x3df7aadf	0.12093138
13	0x3f4c083f	0.7970008
14	0x3e95fd7a	0.2929495
15	0x3f0bbbed	0.54583627
16	0x3e280f03	0.16411977
17	0x3ee46851	0.44610837
18	0x3dc0a98f	0.09407341
19	0x3eda51fc	0.42640674
20	0x3eeee539	0.46659258
21	0x3dd76fce	0.10519372
22	0x3e31219c	0.17297977
23	0x3e0a5d67	0.13512193
24	0x3e95937e	0.2921409
25	0x3e7ed26a	0.24884954
26	0x3e131799	0.1436447
27	0x3e9e84a7	0.3096058
28	0x3e24eb5a	0.16105404
29	0x3e48c90f	0.19607948
30	0x3ecf9ff2	0.40551716
31	0x3e5ff1cb	0.2186958
32	0x3f5dc677	0.8663096
33	0x3e1fb650	0.1559689
34	0x3e8bf4cf	0.27335212
35	0x3e7abf90	0.24487138
36	0x3e2cc839	0.16873254
37	0x3e1fba60	0.1559844
38	0x3e9c5197	0.30530998
39	0x3ebebf5d	0.37255374
40	0x3dec9874	0.115525156
41	0x3f06c436	0.52643144
42	0x3f0100a8	0.50391626
43	0x3ea0bf8b	0.31396136
44	0x3f790a49	0.9728132
45	0x3e838f43	0.25695238
46	0x3eae1919	0.34003523
47	0x3eb57234	0.35438693
48	0x3e4ecb45	0.20194729
49	0x3e8af6b7	0.27141353
50	0x3e2ea1f1	0.17053963
51	0x3e44445e	0.19166705
52	0x3e862482	0.26199728
53	0x3dd49c41	0.103813656
54	0x3e5e9361	0.21735908
55	0x3e185ff7	0.14880358
56	0x3e6f59ad	0.23374052
57	0x3e6759b2	0.2259281
58	0x3e312fac	0.17303342
59	0x3e874b70	0.26424742
60	0x3e19ae3e	0.15007874
61	0x3ea92694	0.33037245
62	0x3f1a3ee4	0.60252213
63	0x3e1aa940	0.15103626

net.4.weight f4 [64, 64]
0	0xbda070c3	-0.078340076
1	0xbde03243	-0.10947087
2	0x3d5c718c	0.053819224
3	0xbd2ffa33	-0.042963218
4	0xbd18c0d4	-0.03729327
5	0xbc6a63bd	-0.014306006
6	0xbd50eafd	-0.051005352
7	0x3d062642	0.03275133
8	0x3dd376eb	0.10325416
9	0xbcc96602	-0.024584774
10	0xbdb6d0cb	-0.08926543
11	0x3da22b52	0.07918419
12	0x3daf5460	0.08561015
13	0x3ce29e88	0.027663484
14	0xbdf388dd	-0.11891339
15	0x3d9853fa	0.07437892
16	0xbc3e7028	-0.01162342
17	0xbdbcc434	-0.0921711
18	0xbc8c9e0f	-0.017165212
19	0xbd65a262	-0.056063063
20	0x3dde8628	0.10865432
21	0x3d739d68	0.059476286
22	0x3a20cbad	0.00061338657
23	0xbdca3968	-0.098742306
24	0x3cdba50a	0.026812095
25	0xbd6f8b03	-0.05848218
26	0xbdea3f43	-0.114378475
27	0xbc6e5b4c	-0.014548134
28	0x3cde23db	0.027116707
29	0x3dce4015	0.100708164
30	0xbd486053	-0.048919987
31	0xbc5cb333	-0.013470459
32	0xbb2cc946	-0.0026365086
33	0x3d75f0df	0.060044166
34	0xbde410a4	-0.111359864
35	0xbd2dbb1e	-0.042414777
36	0x3c9c48b8	0.019077644
37	0x3d1983fe	0.037479393
38	0xbdb22f3d	-0.08700416
39	0x3d95ff24	0.07324055
40	0xbbb8b8db	-0.005637271
41	0x3d878c36	0.0661854
42	0x3e0708f0	0.13187003
43	0xbb6e678c	-0.0036377637
44	0xbe09ad18	-0.13444936
45	0x3d685429	0.056720886
46	0xbc3a3669	-0.011365511
47	0x3ad19ed5	0.001599277
48	0x3c8d44ef	0.017244784
49	0xbd72e472	-0.059299894
50	0x3bd4ad8c	0.006490415
51	0xbd90ff72	-0.07079972
52	0x3dc8737e	0.097876534
53	0x3d856d1d	0.06514952
54	0x3d8c1552	0.06840004
55	0x3c7c853a	0.015412623
56	0x3de66e74	0.11251536
57	0xbc3f91a6	-0.01169244
58	0x3cb3ae1a	0.021933604
59	0x3c49ceaf	0.012317344
60	0xbdb3a261	-0.08771206
61	0xbce38e3e	-0.027777787
62	0x3e0cbaa4	0.13743073
63	0x3ddfc17c	0.10925576
64	0xbbc3cda5	-0.0059754425
65	0xbcfcbb1e	-0.030850943
66	0xbce86f23	-0.028373307
67	0xbdc5f259	-0.09665365
68	0x3d956da4	0.07296303
69	0x3b947135	0.004530097
70	0xbdcf5228	-0.10123092
71	0x3da5e936	0.08101122
72	0xbd82b183	-0.06381514
73	0x3d5af28b	0.053453963
74	0xbd95d06a	-0.073151425
75	0xbd40240e	-0.046909384
76	0xbded4b19	-0.11586589
77	0x3c824b24	0.01590497
78	0xbd9a7aab	-0.07542928
79	0xbd8f67ae	-0.07002197
80	0x3db639c1	0.088977344
81	0xbc61b68c	-0.013776433
82	0xbd1bd2de	-0.038042895
83	0x3d90780f	0.07054149
84	0xbd96afc1	-0.07357741
85	0xbbd7993d	-0.0065795467
86	0x3da0896c	0.07838711
87	0x3d21109b	0.039322477
88	0x3d960c9b	0.07326623
89	0xbda967b4	-0.08271733
90	0x3d8abf49	0.06774766
91	0x3cd08511	0.025454076
92	0xbd7a3554	-0.061086014
93	0x3d70b702	0.05876828
94	0xbd1ff69c	-0.039053544
95	0x3c9848bf	0.018589376
96	0xbd567d6b	-0.0523657
97	0x3e088f6d	0.13335963
98	0x3df49058	0.11941594
99	0x3ded09af	0.115741126
100	0x3b7d845a	0.0038683624
101	0xbdda638f	-0.106635205
102	0x3d8cf013	0.06881728
103	0xbd4b0b86	-0.049571536
104	0xbda6b125	-0.081392564
105	0x3dcffda6	0.101558015
106	0xbdab5f24	-0.08367756
107	0x3de7e268	0.113224804
108	0x3d98fccf	0.074700944
109	0x3dc71f1c	0.097227305
110	0xbd94af73	-0.07260027
111	0xbce05a7d	-0.027386898
112	0x3e017586	0.12642488
113	0x3dcc01eb	0.09961303
114	0x3d1ee33c	0.038790926
115	0xbe045e60	-0.12926626
116	0x3dad2b24	0.08455494
117	0xbd60a015	-0.054840166
118	0xbd93ba57	-0.07213276
119	0x3dd2e5f5	0.10297767
120	0xbdfa9d4d	-0.12237034
121	0xbd4d37a9	-0.05010191
122	0xbdbe3dff	-0.092891686
123	0xbd36644c	-0.044529244
124	0xbb2b1bba	-0.0026109056
125	0xbde4b397	-0.111670665
126	0x3d148696	0.036261164
127	0x3d2dd8cc	0.04244308
128	0x3dc14720	0.09437394
129	0xbc3227ad	-0.010873717
130	0x3d318e4f	0.043348607
131	0xbdab176c	-0.08354077
132	0x3d83f6ba	0.06443544
133	0xbd9e2ba4	-0.077231675
134	0xbddc4bb1	-0.107566245
135	0xbd658c88	-0.056042224
136	0xbd4ca357	-0.04996046
137	0x3baee065	0.0053368085
138	0xbd8ebe83	-0.06969931
139	0xbd9ed7f0	-0.077560306
140	0x3db7557b	0.08951851
141	0xbde544fd	-0.11194799
142	0xbcf28d0e	-0.029608276
143	0x3cf93e24	0.030425139
144	0xbd7a670a	-0.061133422
145	0x3d0a081a	0.033699133
146	0x3d0e2391	0.034701888
147	0xbca3b793	-0.019984996
148	0xbbbc148a	-0.005739753
149	0xbdea7e7e	-0.11449908
150	0x3d7e1924	0.062035695
151	0x3d0210d1	0.03175432
152	0xbd729af3	-0.059229802
153	0xbe00e6c3	-0.12588029
154	0x3e00e53d	0.12587447
155	0xbd6427ae	-0.055701904
156	0xbe05c321	-0.13062717
157	0x3ce79ea6	0.028273892
158	0x3cd720a3	0.02626068
159	0x3cbea066	0.023269843
160	0xbe0921d5	-0.13391812
161	0x3c91a98e	0.017781045
162	0x3d048fe3	0.032363784
163	0x3d69c093	0.05706842
164	0xbdb35ce7	-0.08757954
165	0xbda83521	-0.082132585
166	0x3d8bf86d	0.06834493
167	0x3d6414bd	0.05568384
168	0x3e0746bc	0.13210577
169	0xbd127c5c	-0.03576313
170	0xbd37861f	-0.044805642
171	0xbd6da9e6	-0.058023356
172	0x3dfddef4	0.123960406
173	0x3d7217d2	0.059104748
174	0x3cf2dd64	0.029646583
175	0x3dca529a	0.09879036
176	0xbd4fdb7b	-0.050746422
177	0x3d71b585	0.059011
178	0x3adff401	0.0017086269
179	0xbbfe5d9d	-0.0077626244
180	0x3de34a1c	0.110981196
181	0xbccc9056	-0.024971168
182	0xbd63cb6a	-0.055613913
183	0xbdc734fc	-0.09726903
184	0x3ca0f2f7	0.019647105
185	0xbd42aa7f	-0.04752588
186	0x3db892ae	0.09012352
187	0x3ceb4de7	0.02872367
188	0xbd62b6f5	-0.055350263
189	0xbd9f377b	-0.07774254
190	0xbe07d346	-0.13264188
191	0xbd87995f	-0.0662105
192	0xbb4cc7c5	-0.0031247002
193	0x3db51891	0.08842576
194	0xbd83cc80	-0.0643549
195	0xbde07f65	-0.109617986
196	0x3d805053	0.06265321
197	0x3cb8b8b9	0.02254902
198	0xbde1fe91	-0.11034883
199	0xbdeeb22a	-0.11655076
200	0xbdc65089	-0.096833296
201	0xbc57f9c8	-0.013182111
202	0x3dbcb390	0.09213936
203	0xbdf4ff50	-0.119627595
204	0x3db06534	0.08613053
205	0xbcd66060	-0.026169002
206	0x3c864fe7	0.016395522
207	0xbda979ea	-0.082752064
208	0x3d0ab70b	0.03386597
209	0xbd2102d4	-0.039309338
210	0x3d267a8c	0.040644214
211	0xbbe3bb51	-0.00694982
212	0xbd2495f5	-0.040182073
213	0xbdbecc2c	-0.093162864
214	0x3df92cbb	0.12166735
215	0xbd2472cf	-0.040148553
216	0x3c0c56db	0.00856563
217	0x3d9d703d	0.076874234
218	0x3dacebc7	0.084434085
219	0xbd5669ab	-0.052346867
220	0x3d8461d9	0.064639755
221	0x3d1ab7cc	0.03777294
222	0xbd63a580	-0.055577755
223	0xbc05d432	-0.008168267
224	0x3da2c716	0.07948129
225	0xb990f1d2	-0.0002764599
226	0x3d5a59b1	0.053308193
227	0xbd8b0610	-0.06788266
228	0x3c8eef1a	0.017447997
229	0x3dc2dd7e	0.095149025
230	0x3d0f7646	0.035024904
231	0x3b969cbf	0.0045963223
232	0xbdf0380b	-0.11729439
233	0x3d4bbf9b	0.049743276
234	0x3d964dfc	0.07339093
235	0xbd9e6124	-0.07733372
236	0xbdfaca46	-0.12245612
237	0x3dae7090	0.08517563
238	0xbe1209cb	-0.14261548
239	0xbd33839f	-0.043826696
240	0x3d8a4a0c	0.067524046
241	0x3d9a19da	0.07524462
242	0x3cbd2c11	0.023092302
243	0xbd9dd457	-0.07706516
244	0xbd878136	-0.06616442
245	0xbb91796d	-0.004439524
246	0xbc051092	-0.008121626
247	0x3d75fefa	0.060057618
248	0xbb5a5834	-0.0033316733
249	0xbd2bdbdf	-0.041957732
250	0x3dd1f9df	0.10252737
251	0xbc82483d	-0.015903587
252	0x3c93fd74	0.018065192
253	0x3ae707a5	0.001762618
254	0xbd969091	-0.073517926
255	0xbdffd06a	-0.12490924

net.4.bias f4 [64]
0	0x3ca9f3ec	0.020746194
1	0x3dd39ee4	0.1033304
2	0x3ddf6b64	0.10909155
3	0x3d10d714	0.035361364
4	0x3dd0eb87	0.10201173
5	0xbdc46c6e	-0.09590994
6	0x3b977237	0.00462177
7	0xbc6474de	-0.013943879
8	0xbdb3dbfc	-0.08782193
9	0x3dda5d4a	0.10662325
10	0x3d98f580	0.074687004
11	0x3de97989	0.11400134
12	0xbba1bdfc	-0.004935978
13	0xbd8fbb99	-0.07018203
14	0x3d91ccb4	0.07119122
15	0x3d6604ee	0.056157045
16	0x3da359a0	0.07976079
17	0xbd8bcd64	-0.068262845
18	0x3d3a1769	0.045432482
19	0xbd05e07e	-0.032684796
20	0xbda031aa	-0.07821973
21	0xbd9c97fb	-0.076461755
22	0x3cd49c96	0.025953572
23	0xbd6f220c	-0.05838208
24	0x3d53d36a	0.051715292
25	0x3ce1ea2c	0.027577482
26	0x3db50033	0.088379286
27	0x3d9ddf80	0.07708645
28	0x3d7f9109	0.062394176
29	0x3de3955f	0.11112475
30	0x3d7ffeac	0.062498733
31	0xbd315e18	-0.043302625
32	0xbded0dc8	-0.11574894
33	0xbdb8a900	-0.09016609
34	0xbd6f3530	-0.058400333
35	0xbd4649c3	-0.04841019
36	0xbda4d6b0	-0.08048761
37	0x3d063cf1	0.032772962
38	0xbd123edc	-0.03570448
39	0x3d8de17b	0.069277726
40	0x3dc090de	0.09402631
41	0xbd9d9837	-0.07695048
42	0x3be47488	0.0069718994
43	0x3ddd6853	0.10810914
44	0x3d87a9c8	0.0662418
45	0x3c865971	0.01640007
46	0xbdcb85e6	-0.099376485
47	0x3c8a1ce5	0.016859481
48	0xbd0c92c4	-0.034319654
49	0x3d8d5570	0.069010615
50	0x3db4e3ac	0.088324875
51	0x3c771995	0.015081783
52	0xbd2d43e4	-0.042301074
53	0xbdc56a70	-0.09639442
54	0xbbd32668	-0.0064437874
55	0x3d899526	0.06717901
56	0x3d5a4b79	0.053294633
57	0x3d088225	0.03332724
58	0xbd017350	-0.03160411
59	0x3c88458d	0.016634727
60	0xbde6578a	-0.112471655
61	0x3d46c0e2	0.04852379
62	0x3d4de1d8	0.05026421
63	0x3bf54fad	0.0074863047

net.5.weight f4 [64]
0	0x3f7cc6e1	0.98740965
1	0x3f7c964a	0.9866682
2	0x3f7ae03b	0.979984
3	0x3f812722	1.0090067
4	0x3f7f8137	0.9980654
5	0x3f7ae8ee	0.9801167
6	0x3f8182e9	1.0118076
7	0x3f8122a5	1.0088698
8	0x3f7d4aa1	0.98942
9	0x3f79d32f	0.97587866
10	0x3f80bffd	1.005859
11	0x3f7f560d	0.9974068
12	0x3f7c43f5	0.98541194
13	0x3f824560	1.0177422
14	0x3f8440d8	1.0332289
15	0x3f7fc308	0.9990697
16	0x3f856bb6	1.0423496
17	0x3f8123b9	1.0089027
18	0x3f827dce	1.0194643
19	0x3f85cbe3	1.0452846
20	0x3f852c0c	1.0404067
21	0x3f7e073b	0.9922978
22	0x3f83ca09	1.0296031
23	0x3f81e90d	1.0149246
24	0x3f818020	1.0117226
25	0x3f8103be	1.0079267
26	0x3f81cb27	1.0140122
27	0x3f7f8f3b	0.9982793
28	0x3f80d13d	1.0063854
29	0x3f83c721	1.0295144
30	0x3f82c70b	1.0216993
31	0x3f7b96e4	0.98277116
32	0x3f7ed4df	0.99543566
33	0x3f82fb6b	1.0232977
34	0x3f82573a	1.018287
35	0x3f831bad	1.0242821
36	0x3f83eb3c	1.0306163
37	0x3f7d040f	0.9883432
38	0x3f848ee7	1.035611
39	0x3f7a5158	0.9778037
40	0x3f7c55c2	0.98568356
41	0x3f79a49c	0.975168
42	0x3f82ad32	1.0209105
43	0x3f7c6042	0.9858438
44	0x3f849048	1.0356531
45	0x3f80afea	1.0053685
46	0x3f7c4c95	0.98554355
47	0x3f7aa635	0.9790986
48	0x3f84c274	1.0371842
49	0x3f7ac924	0.97963166
50	0x3f84032f	1.0313472
51	0x3f82bcee	1.0213907
52	0x3f837385	1.0269629
53	0x3f827795	1.0192744
54	0x3f7ebffa	0.99511683
55	0x3f83f45b	1.0308946
56	0x3f7be1cd	0.9839142
57	0x3f83e07b	1.0302881
58	0x3f7bb029	0.98315674
59	0x3f81579f	1.0104865
60	0x3f829b0c	1.0203567
61	0x3f85b6ad	1.0446373
62	0x3f829f6f	1.0204905
63	0x3f82adac	1.020925

net.5.bias f4 [64]
0	0xbb70beda	-0.003673485
1	0xbc755d3b	-0.014975841
2	0xbc40e1d8	-0.011772595
3	0x3b049c94	0.002023493
4	0xbc4168c6	-0.011804765
5	0xbc7af2ef	-0.015316709
6	0x3bfe8092	0.0077667916
7	0xba2b505c	-0.0006535107
8	0xbb5094ed	-0.0031827048
9	0xbc99ec35	-0.01878939
10	0x3b90905d	0.0044117407
11	0x3ab47302	0.0013767185
12	0xbc710cd1	-0.014712528
13	0x3beb0a9b	0.007172895
14	0x3d0a973d	0.03383564
15	0x3a40aeb3	0.0007350251
16	0x3d2e4560	0.04254663
17	0xbb7bb8b0	-0.0038409643
18	0x3c73ef57	0.014888606
19	0x3d1d9c3d	0.03847908
20	0x3d215ad3	0.039393257
21	0x3c843b31	0.016141506
22	0x3cacbb12	0.021085296
23	0x3c934ae4	0.017980047
24	0x3bbc792f	0.005751751
25	0x3c1a4ada	0.00941726
26	0x3cac95be	0.021067496
27	0xba956d1a	-0.0011400313
28	0x3abb818d	0.0014305577
29	0x3d051183	0.032487404
30	0x3c972f59	0.018455194
31	0xbc70f5b7	-0.0147070205
32	0xbc0b4be0	-0.008501977
33	0x3c5ad14c	0.013355564
34	0x3c5d8329	0.013520041
35	0x3cc27eda	0.023742128
36	0x3cec7c3f	0.028867839
37	0xbc894dca	-0.016760726
38	0x3d0e1190	0.034684718
39	0xbc61b467	-0.013775921
40	0xbb6fa044	-0.0036564032
41	0xbcbf7bad	-0.023374403
42	0x3c464b99	0.012102985
43	0xbc8cc217	-0.017182393
44	0x3d01f021	0.031723145
45	0x3b8e5731	0.00434389
46	0xbc8129bd	-0.015766973
47	0xbcd336d1	-0.025782974
48	0x3ce54c97	0.027990622
49	0xbc9d5239	-0.019204246
50	0x3cead28e	0.028664853
51	0x3c84a983	0.01619411
52	0x3cd2705c	0.025688343
53	0x3cea0bc2	0.02857006
54	0xbc2a5bd4	-0.01039787
55	0x3ce34723	0.027743882
56	0xbca32ec3	-0.019919759
57	0x3d015a53	0.03158028
58	0xbc88d963	-0.01670522
59	0x3c4603ce	0.012085868
60	0x3d1826a9	0.037146244
61	0x3d100ede	0.03517043
62	0x3cdbcd9b	0.026831439
63	0x3c140f9a	0.009036923

net.5.running_mean f4 [64]
0	0x3daa920a	0.08328636
1	0x3dbc7dc1	0.09203673
2	0xbdd82b52	-0.10555138
3	0xbdf5611b	-0.11981412
4	0x3d8156de	0.06315397
5	0xbea09fc3	-0.3137189
6	0xbe5f4243	-0.2180262
7	0x3e932171	0.2873645
8	0xbe1bf646	-0.15230665
9	0x3f02c99e	0.51088893
10	0xb8ad9080	-8.276198e-05
11	0x3e9caf65	0.30602565
12	0xbe06a8d0	-0.13150334
13	0xbe46a524	-0.19398934
14	0x3df9706a	0.121796444
15	0x3d464e8c	0.048414752
16	0x3ca51474	0.020151354
17	0xbe04e569	-0.12978138
18	0xbe7d7464	-0.24751431
19	0x3de103f8	0.10987085
20	0xbec1abf3	-0.378265
21	0x3f326d20	0.6969776
22	0x3e2e5bac	0.17027158
23	0x3d7194da	0.058979847
24	0xbe099f4a	-0.1343967
25	0xbcac9691	-0.02106789
26	0x3e86320e	0.26210064
27	0x3e10ebc2	0.14152434
28	0x3e0ba1e8	0.13635981
29	0x3e9334c5	0.28751197
30	0x3ef3f173	0.4764515
31	0xbe292bf2	-0.1652067
32	0x3d15f918	0.036614507
33	0xbe5a1c47	-0.2129985
34	0xbd7e8fc2	-0.062148817
35	0x3e2c813e	0.16846177
36	0xbe0841d0	-0.13306355
37	0x3b9f76e6	0.0048664687
38	0x3de38e10	0.11111081
39	0x3d9074e2	0.070535436
40	0x3ec0d29f	0.3766069
41	0xbf118994	-0.5685055
42	0xbe7f2439	-0.24916162
43	0xbe5d0574	-0.21584111
44	0xbb971e6b	-0.0046117804
45	0x3eb0c3e5	0.34524456
46	0xbe01e135	-0.12683566
47	0x3e4f96b4	0.20272332
48	0xbea9a43b	-0.3313311
49	0xbec92756	-0.39287823
50	0x3e53e173	0.20691471
51	0x3dd39c37	0.1033253
52	0x3d00b06a	0.03141824
53	0x3e858d9e	0.26084608
54	0x3f0ac484	0.5420611
55	0xbdbecdef	-0.093166225
56	0xbe056199	-0.13025512
57	0x3d47c91a	0.04877577
58	0xbdf9849b	-0.121834956
59	0xbe5b30b8	-0.21405303
60	0x3db950d2	0.090486184
61	0xbadb8e59	-0.0016750797
62	0xbd5d509e	-0.05403196
63	0x3dc14677	0.09437268

net.5.running_var f4 [64]
0	0x3e288584	0.16457182
1	0x3e501915	0.20322068
2	0x3e185503	0.1487618
3	0x3e11063b	0.14162533
4	0x3e825813	0.2545782
5	0x3e2d1bce	0.16905138
6	0x3e9a1d70	0.30100584
7	0x3e1c64e9	0.15272869
8	0x3e323b25	0.17405374
9	0x3df9c3fc	0.12195584
10	0x3e082ec1	0.13299085
11	0x3e6a55ad	0.22884245
12	0x3e2eb425	0.17060907
13	0x3e67a716	0.22622332
14	0x3e474f6b	0.1946389
15	0x3e244b6c	0.16044396
16	0x3e1dd846	0.15414533
17	0x3e34e5aa	0.17665735
18	0x3e17138a	0.14753547
19	0x3e3305cf	0.17482685
20	0x3e8b5a49	0.2721732
21	0x3e593363	0.21211009
22	0x3e38374a	0.17989841
23	0x3e3ab19e	0.18231818
24	0x3e49e993	0.19718008
25	0x3dbcda22	0.09221293
26	0x3e10bddc	0.14134926
27	0x3e23071d	0.15920682
28	0x3e70298b	0.23453347
29	0x3e1c3b2d	0.15256949
30	0x3e542076	0.20715508
31	0x3e686a29	0.22696747
32	0x3e1a02e2	0.15040162
33	0x3e6fb4ed	0.23408861
34	0x3e2b66e4	0.16738468
35	0x3e33fdca	0.17577282
36	0x3e252c47	0.16130172
37	0x3dfc00ad	0.123048164
38	0x3e333659	0.175012
39	0x3e3e3153	0.18573503
40	0x3e2beabc	0.16788763
41	0x3eb6089a	0.35553437
42	0x3e1d4d0a	0.1536142
43	0x3e220541	0.15822317
44	0x3e9b72a3	0.30360898
45	0x3e6d0567	0.23146592
46	0x3e0bb831	0.13644482
47	0x3e4cd069	0.20001377
48	0x3e544193	0.2072814
49	0x3e1a6687	0.15078174
50	0x3e2d783b	0.16940396
51	0x3e7cf02b	0.24700992
52	0x3e346a86	0.1761876
53	0x3e135bbe	0.14390466
54	0x3e137bb9	0.14402665
55	0x3e22bbf3	0.1589201
56	0x3e6a3d37	0.22874914
57	0x3de2d62d	0.11076007
58	0x3ea059b3	0.31318435
59	0x3e3673ab	0.17817561
60	0x3e60a3d1	0.21937491
61	0x3e7d1708	0.24715817
62	0x3e2f1d77	0.17101084
63	0x3e28250d	0.16420384

net.8.weight f4 [2, 64]
0	0x3dae8d9f	0.08523106
1	0x3dce0b2d	0.10060725
2	0x3d16eb7f	0.03684568
3	0xbdf304aa	-0.11866124
4	0x3cd6c54f	0.026217131
5	0x3c9c0616	0.01904587
6	0xbca30c4b	-0.019903323
7	0x3d50e8e7	0.051003363
8	0x3d6bd985	0.05758049
9	0x3d76407c	0.06012009
10	0xbdede72a	-0.11616357
11	0xbdcc655c	-0.0998027
12	0x3dab10fd	0.0835285
13	0x3d4acb4a	0.049510278
14	0xbe0aa20a	-0.13538375
15	0xbdeb57d1	-0.11491359
16	0xbd123b2e	-0.03570097
17	0x3dc89769	0.09794504
18	0x3d6e892f	0.058236297
19	0xbe0b42a9	-0.13599648
20	0x3dc63949	0.09678895
21	0xbd8c42e4	-0.06848696
22	0x3d4e7ecf	0.050413903
23	0xbdd6f816	-0.104965374
24	0x3d3b8f23	0.045790803
25	0x3c8f97b7	0.017528398
26	0xbd937d4b	-0.07201632
27	0x3cd21585	0.025645027
28	0x3d89dd44	0.06731656
29	0xbdbcfb10	-0.09227574
30	0xbd8bd3c3	-0.068275
31	0x3c1af173	0.00945698
32	0xbd29f0dd	-0.04148947
33	0x3e086f00	0.13323593
34	0xbde7d587	-0.11320024
35	0x3d9282fb	0.07153889
36	0x3d8fc8ad	0.07020698
37	0xbc4928b2	-0.012277769
38	0xbd809e1e	-0.062801585
39	0xbd8d986a	-0.06913836
40	0xbca32563	-0.019915288
41	0x3d0fd3fb	0.03511427
42	0x3d650502	0.05591298
43	0x3dab5660	0.08366084
44	0x3db0c31a	0.08630963
45	0xbd3eebfd	-0.046611775
46	0x3dc7a7ea	0.09748824
47	0x3cb88bd2	0.022527609
48	0x3d782308	0.060580283
49	0x3d2c7fd4	0.042114094
50	0x3e0fbb48	0.14036286
51	0x3dff308d	0.12460432
52	0xbe15e902	-0.14639667
53	0xbdeaed79	-0.114710756
54	0x3dcd980e	0.10038768
55	0xbcc539fe	-0.024075504
56	0x3ddbb33c	0.107275456
57	0xbe13be6c	-0.14428109
58	0xbc5cfe33	-0.01348834
59	0xbdb9d079	-0.09072966
60	0xbcbe4d33	-0.02323017
61	0x3e124bb9	0.14286698
62	0x3c56127b	0.0130659295
63	0x3ce78e51	0.028266104
64	0x3dbcb5d7	0.09214371
65	0x3dbe5019	0.09292621
66	0x3c931c24	0.017957754
67	0x3d977d1b	0.07396909
68	0xbabf1169	-0.0014577332
69	0xbdaad2de	-0.08341001
70	0xbdf5d2c9	-0.12003095
71	0xbdddf585	-0.10837845
72	0x3d5ec10d	0.054383326
73	0x3d1e59db	0.03865991
74	0x3d99f61b	0.07517644
75	0x3df7f895	0.1210796
76	0xbd3c8b80	-0.046031475
77	0x3c2477d1	0.010038332
78	0xbb918c7e	-0.004441797
79	0x3db699c5	0.08916048
80	0x3dafb35d	0.08579133
81	0xbcbaf3b6	-0.022821289
82	0xbdde9819	-0.10868854
83	0x3cb7093f	0.022343276
84	0xbe020c1d	-0.12699933
85	0x3d048c7f	0.03236055
86	0xbc6d6069	-0.014488318
87	0x3e0e4d2c	0.13896626
88	0xbdf883fe	-0.121345505
89	0x3ded0b6b	0.115744434
90	0x3c07caac	0.008288067
91	0x39cce41d	0.0003907987
92	0xbca6c830	-0.020359129
93	0x3dea80b3	0.11450329
94	0x3de69051	0.11257995
95	0xbd33da54	-0.043909386
96	0x3d71b507	0.05901053
97	0xbcb94383	-0.0226152
98	0x3d950366	0.07276039
99	0xbd613309	-0.05498031
100	0xbe108ca8	-0.14116156
101	0xbcb72492	-0.022356305
102	0x3dac20fd	0.084047295
103	0xbc373f6f	-0.011184557
104	0xbd3a9d45	-0.04556014
105	0xbd62f5b9	-0.05541012
106	0x3de8d021	0.113678224
107	0xbd1fe47e	-0.039036267
108	0xbe12a834	-0.14321977
109	0xbdb5c5e3	-0.088756345
110	0x3cd38eac	0.025824867
111	0xbd2330d5	-0.03984149
112	0xbdb9e3a7	-0.09076624
113	0x3d2d3afb	0.042292576
114	0xbde7c1ab	-0.11316236
115	0xbdff9dfd	-0.12481306
116	0xbcedc323	-0.029023713
117	0x3d92411f	0.07141327
118	0xbcd9fe55	-0.026610533
119	0xbe15b693	-0.14620428
120	0xbd2b70a2	-0.041855462
121	0xbd5aa083	-0.053375732
122	0x3dc29bb2	0.09502353
123	0xbcaa17a9	-0.020763235
124	0x3ca64f00	0.020301342
125	0xbd43c63f	-0.047796484
126	0x3d708bcc	0.05872707
127	0x3e0cfdf9	0.13768758

net.8.bias f4 [2]
0	0xbdf43208	-0.11923605
1	0x3d7f455b	0.062322002
