data/weights/feature_mlp_pipeline.pth (torch, 38289 bytes, 14 tensors)

net.0.weight f4 [64, 50]
00000000: 39f0 d4bc ee37 4ebe 1589 8b3d 10dc e33d
00000010: 891d 24be a172 893d 3312 3fbd 9b45 0f3d
00000020: 81fd e93d 4077 d53d 0380 f9bd 6cfb 94b8
00000030: 118b d0bd 38d3 be3d fbb6 a6bd ef52 67bc
00000040: 9821 8b3c 3418 dbbd 0746 ec3d 7aa3 f63d
00000050: 87ca aa3c ded9 833d 5264 dfbd 6f10 73bd
00000060: b403 dfbd 5f77 87bc 3748 df3d 9d29 8abd
00000070: 05e0 12bd cce0 093e 470e 95bd e44f ccbd
00000080: 7f99 2c3e dc1b 71bd 8d57 6d3d 95ef 693d
00000090: d13e ebbc 41d9 a13d bce9 bcbd 146e e0bd
000000a0: 801e fa3c 3d52 eabd 7edb 59bd 76c5 a0bd
000000b0: 24be 1d3e 18da 78bd b1e9 81bc 60d3 b33d
000000c0: 716a e9bc fd00 86bd eac6 e9bd 30cf 5d3d
000000d0: d1a9 6cbd 344f 403e 6298 4e3d 2d80 1ebe
000000e0: 482f c9bd d4e8 033e b104 03be f7a4 d13d
000000f0: b97d 2abe 3d52 12bd 2602 3abd ca72 b4bc
00000100: 5513 eb3d f68f e3bc f340 4e3d 715a 68bd
00000110: 74f7 8b3d d2ef 8c3d b64b a2bb c5bf 953c
00000120: a887 bc3d 46f5 e03d eaf6 803d 63ad ce3c
00000130: 6846 2a3d 22c3 a6bd 1717 273c fb62 9abd
00000140: 5513 713d 4f69 15bd 7588 f7bc 139f 003d
00000150: 2b8e a43b fd99 003e 9d64 ffbc 2375 d23d
00000160: d77c f6bd fef2 afbd 97bf fc3d 5c3e aa3d
00000170: ed6c c0bd 8450 6abd c77c 893d d7c4 e53d
00000180: cd31 bcbd 6eb5 703d 61a1 ca3d 1f61 303d
00000190: e779 803d 4701 483d 9386 703c 9446 3ebe
000001a0: 797a 0bbd 135e ec3d 69d0 583c b67d c73b
000001b0: 92c1 9bbd ea89 57bd 8950 193d b01f 0abe
000001c0: 10fb 1e3c d144 eb3d 648b 0fbe d1be 613d
000001d0: 9a17 b6bd 1e1d d2bd bae2 03be 30d0 a33d
000001e0: bd50 ed3d 0487 ae3d 2e78 673d 460c b93c
000001f0: 7e6e 8abc 6e86 fd3c d739 dcbc e2f7 7ebc
00000200: bd76 173e c294 a93d d402 d1bd c7a2 f73d
00000210: 0f44 6fbd 2828 45bc 4f12 163e 54e9 a6bd
00000220: 1eea f9bd 4881 94bd f2d8 0ebd 2992 c5bd
00000230: b66b 8b3d d7aa 823c a764 71bd 4484 48bb
00000240: 71c8 ffbc 9e4e a0bc eef5 60bd 4515 f23d
00000250: ee58 d63d fa66 51bd fca1 fbbd cb90 30be
00000260: aea3 9f3d 91e4 1e3d a699 a53d 0e42 2dbd
00000270: f610 24bd 5f0a 093b d7f5 7b3d 81da cf3d
00000280: 3e5e 82bd ce0b 843c b1e7 c13b 7476 1abc
00000290: 45a5 783c d5a6 bbbd 5e3a 303c 3ec9 a73d
000002a0: 1df0 013e 2b17 05be 16e2 f8bd 0f01 e93d
000002b0: 14d3 f33b 0d54 9d3d a88f adbc 2b66 863d
000002c0: fb6c 163e e5a5 fabd b46e cbbc 81ee b9bc
000002d0: cdd0 503b b9cc 083d a876 f3bd 952b 8abc
000002e0: 986c 8abd 676c 9d3d bfec 0fbe 447c 393c
000002f0: 4eb7 ff3d e629 b53d 03df c3bd 141f 73bd
00000300: 649a a03d 8bc7 b83d 9642 d93d 5f2c f73c
00000310: b0ff 08be 7db7 693c a27f e1ba 0ba6 e33d
00000320: 44be d43d a3c3 c03c c645 693d 3d97 c2bd
00000330: 51f9 fdbd 9d80 4f3c a16a 943d ba36 473d
00000340: 92a5 d9bd a9c5 0ebe 981d fabd befa e73c
00000350: b4a3 bf3d 9014 f2bc 7664 37bd 81e9 29bd
00000360: 5751 09be a00d 01be e5c6 88bd 5509 e7bd
00000370: 80ca 043e fbab e23d ae24 7d3d 301d 37bd
00000380: 239c a2bd c63a 5c3b d598 dabd db34 fd3d
00000390: eaaa 803d 769f 83bd e890 9cbd b67b a2bd
000003a0: eb6f adbd eed4 81ba 9187 dabd 6c5d 22bd
000003b0: ff15 a8bd 4992 d83d b323 5dbd ba43 fe3c
000003c0: 95fa 0cbe f917 0fbe 861e f8bd c25d f6bd
000003d0: 9fee cf3d 1bbb cdbc 977a c73c 4fda c33d
000003e0: 5b05 153d 031c de3d 9e97 ffbd 00b7 e2bd
000003f0: 9c7a cb3d 2345 8f3d 01c7 d4bd c4a2 2abd
-0.025993453 -0.20138523 0.06813256 0.11125958 -0.16026892 0.06711317 -0.046648216 0.03497849
0.11425305 0.10423136 -0.121826194 -7.104021e-05 -0.10182775 0.093176305 -0.081403695 -0.014118894
0.016983792 -0.10697976 0.11536794 0.120428994 0.020848526 0.06438039 -0.109078065 -0.059341844
-0.10889378 -0.016536413 0.10902446 -0.06746218 -0.035858173 0.1346466 -0.07278114 -0.099761754
0.16855429 -0.05886446 0.057944823 0.05711325 -0.028716477 0.07902766 -0.09224269 -0.10958496
0.030532122 -0.11441467 -0.05318784 -0.07850163 0.15404564 -0.060754865 -0.015858503 0.08780551
-0.028493138 -0.06543157 -0.11414893 0.054152668 -0.057779137 0.18780214 0.050438292 -0.15478583
-0.09823471 0.12881786 -0.12794758 0.10236543 -0.16649522 -0.03572296 -0.045412205 -0.022027392
0.11478297 -0.027778607 0.05035491 -0.056726877 0.06834307 0.068816796 -0.004952873 0.01827992
0.09205562 0.10984282 0.06297095 0.025229162 0.04157105 -0.081426874 0.010198376 -0.0753841
0.058856327 -0.036477383 -0.030216435 0.031401705 0.0050218306 0.12558742 -0.031175906 0.10276248
-0.1203553 -0.08591269 0.1234123 0.08312675 -0.09395776 -0.057205692 0.067132525 0.11219185
-0.09189186 0.058766775 0.09894062 0.043061372 0.06273251 0.048829343 0.0146805225 -0.18581611
-0.034052346 0.11541381 0.013233283 0.006087984 -0.0760528 -0.05262176 0.03743032 -0.1348865
0.009703413 0.11487735 -0.14018017 0.055113617 -0.088912204 -0.1025946 -0.12879458 0.07998693
0.11587665 0.08521846 0.056511097 0.02258886 -0.01689839 0.03094789 -0.026883049 -0.01556203
0.14791389 0.082803264 -0.102056175 0.12091594 -0.058414515 -0.0120335 0.14655422 -0.081499726
-0.122028574 -0.07251221 -0.034874864 -0.096470185 0.068076536 0.015950603 -0.05893388 -0.0030596415
-0.031223508 -0.019568738 -0.054922037 0.11820463 0.10466181 -0.051123597 -0.122867554 -0.17242734
0.07794891 0.038792197 0.08085947 -0.042299323 -0.040055238 0.0020910723 0.061513748 0.10149098
-0.063656315 0.01611891 0.0059175123 -0.0094276555 0.015176122 -0.0916268 0.010756103 0.08192681
0.12689252 -0.12997119 -0.121524975 0.11377155 0.007440934 0.07682047 -0.021186665 0.06562456
0.1469001 -0.12238673 -0.02483306 -0.022696735 0.0031862736 0.033398364 -0.11887866 -0.016866485
-0.06758994 0.07686692 -0.14055155 0.011321131 0.124861345 0.08845882 -0.095640205 -0.05935581
0.07841948 0.09022435 0.106084034 0.030172525 -0.13378787 0.014264938 -0.0017204175 0.111156546
0.10387853 0.023530787 0.056951307 -0.09501503 -0.12401069 0.012664941 0.072469 0.048636176
-0.10627283 -0.13942589 -0.12212676 0.028317805 0.09357396 -0.02955082 -0.04477354 -0.041482452
-0.13409935 -0.12602854 -0.06678561 -0.11281077 0.12967873 0.11067959 0.06180256 -0.04470557
-0.07939937 0.0033604368 -0.10673682 0.12363597 0.06282599 -0.06426899 -0.07644826 -0.07933752
-0.08468612 -0.0009905377 -0.106703885 -0.039639875 -0.082073204 0.10574777 -0.053989124 0.031038154
-0.13767464 -0.13973989 -0.12115197 -0.12029602 0.10152935 -0.025113633 0.024350448 0.095631234
0.03638206 0.108451866 -0.124800906 -0.11070061 0.09935495 0.06995609 -0.103895195 -0.04165913

net.0.bias f4 [64]
00000000: 3efe d9bd c35a febd f946 363d e703 b9bc
00000010: d817 33bd 2878 62bc d315 303c 29ba dc3d
00000020: 70f2 6abc 4e0b d03d ba46 90bd 70bd 88bc
00000030: 7d3b 063e 6d0a ecbd 481e c43d 073c 15bd
00000040: 3fa7 033e e6a5 ef3b da8b 60bd f282 8c3b
00000050: 863e 373d 267a aabd 449e dcbc 5de7 afbd
00000060: fd6d c5bd a35f 5fbd b271 82bb 6c9f 84bd
00000070: 6f76 ba3b 3fe2 513b 361b e83c c7fa 8e3d
00000080: d507 e33d ec6a 04be a8b8 a23c 293b febd
00000090: 4393 00be dd33 f8bd 1c58 eabc 8cf2 0dbd
000000a0: 66e5 1cbd b5c4 7abd 86ec 083e a3d3 10bd
000000b0: 9a9e 1abd b6ee c23d e40d 1fbb 3e84 06be
000000c0: 1279 1fbd 8bd8 6c3c 32de 5cbc 06ab 2a3d
000000d0: 7b06 1c3d f3ec e23d 4778 32bd 581e a1bc
000000e0: 3deb 5dbd c106 b8bd a140 39bc 2cfa dc3d
000000f0: dc5b e9bd a6d9 d3bd dcfa d4bd 278b c33d
-0.10644196 -0.12419655 0.04450128 -0.022584869 -0.04372391 -0.013822593 0.010747391 0.10777695
-0.014340028 0.10158406 -0.0704474 -0.016691893 0.1310863 -0.11525426 0.09576088 -0.0364342
0.12856768 0.007313478 -0.054820873 0.004288071 0.04473736 -0.08324079 -0.026930936 -0.08589051
-0.09640119 -0.054534566 -0.0039808387 -0.0647572 0.005690388 0.0032025722 0.028333288 0.06981426
0.11085478 -0.12931412 0.019863442 -0.12413628 -0.12556176 -0.12119267 -0.028606467 -0.03465514
-0.03830471 -0.06122275 0.13371477 -0.035358083 -0.03774891 0.09518187 -0.0024269754 -0.13136384
-0.03893382 0.014455925 -0.01348071 0.041667007 0.038092118 0.11080351 -0.043571737 -0.01966779
-0.05417942 -0.08985663 -0.011306913 0.10789904 -0.11394474 -0.103442475 -0.1039941 0.095480256

net.1.weight f4 [64]
00000000: b626 843f 049e 7e3f 7e03 863f 8689 863f
00000010: 47ef 803f 1f1b 7e3f 24de 763f 41a2 823f
00000020: 0263 7c3f 1fd2 793f ef13 7a3f 23cc 763f
00000030: afe7 823f e5c0 7b3f f60e 803f 9e63 7f3f
00000040: 1283 7d3f ac1c 773f 9bb3 793f 6b04 803f
00000050: a764 7a3f 9657 813f 846d 7f3f 1edb 7e3f
00000060: d635 763f 920e 7b3f 5679 7a3f 8341 803f
00000070: 2a1c 793f 1790 7e3f 3a32 773f 006a 7d3f
00000080: 2a81 793f 5027 813f 322a 773f f3f2 743f
00000090: 803e 843f 145b 803f ee3f 7c3f f0bb 7b3f
000000a0: c3bd 7b3f 632b 823f e01c 793f edde 7d3f
000000b0: a54d 7b3f d1c9 863f acb2 863f e84f 793f
000000c0: 22cf 7b3f c705 7c3f 391a 843f 3401 7f3f
000000d0: 0b70 7e3f 733f 783f 6e66 843f d8cc 7c3f
000000e0: 7c13 823f 3ae8 7a3f 9db1 7d3f 0a1d 853f
000000f0: e9aa 7b3f 5a07 7f3f f115 803f 191f 833f
1.0324314 0.9945986 1.0469816 1.0510719 1.0073022 0.99260134 0.9643271 1.0205766
0.98588574 0.97586244 0.97686666 0.9640524 1.0226954 0.9834121 1.0004566 0.9976138
0.9902812 0.96528125 0.9753968 1.0001348 0.97809833 1.0104854 0.9977648 0.99553096
0.961759 0.9806911 0.97841394 1.0019993 0.973086 0.99438614 0.96561015 0.9898987
0.97462714 1.0090122 0.9654876 0.9568321 1.0331573 1.0027795 0.9853505 0.98333645
0.9833643 1.016949 0.97309685 0.9916828 0.9816535 1.053034 1.0523276 0.9738755
0.98362935 0.98446316 1.0320503 0.9961121 0.99389714 0.96971816 1.0343759 0.98750067
1.0162196 0.980106 0.9909914 1.0399487 0.98307663 0.9962059 1.0006696 1.0243865

net.1.bias f4 [64]
00000000: 4f7f c43c d415 263a 220b d03c 66e8 b43c
00000010: 081a e1ba 07ba fa3b c6a2 00bd 4e09 513d
00000020: 8c13 c9bb b090 2e3c 0150 24bc e20f 23bd
00000030: 4344 ab3c ad24 dfbc 665a 8ebb 92aa 343c
00000040: 0662 9ebc ab4b 34bd de74 a3bc 688e 023d
00000050: 8d29 2ebc b1ad 573c 6b0f 70bc 9a3b 293b
00000060: 3bff 1cbd be90 bcbc c915 81bc 2e14 8cbc
00000070: 7803 aebc 218c baba 8cfd cfbc 7fde 3abc
00000080: c34d 01bd 512d bbbc 801b 0ebd 750b 13bd
00000090: d70a 0e3d 0c2f 43bb 4407 aa3a 5d06 b3bb
000000a0: 051e 0cbc 52fd 173d ff08 2dbd 0846 853b
000000b0: 5f07 5d3c 4c5d 843b bcbb 8d3c 6402 41bb
000000c0: 227b a33c 29f3 1ebd ab5b 063d 9483 17bc
000000d0: 53d3 3cbc 1de2 b0bb 5f3c d33c ce75 13bd
000000e0: f67c db3b f500 a9ba 7223 cdbb e472 fb3c
000000f0: 58e7 b2bc b970 e039 13db 2b3a 8f53 8b3b
0.023986487 0.000633565 0.025395934 0.022083472 -0.0017173896 0.0076515707 -0.031405233 0.051034264
-0.0061363634 0.010654613 -0.01002884 -0.03981007 0.020906573 -0.027239168 -0.0043442724 0.011026995
-0.01933385 -0.044017475 -0.019953188 0.03187409 -0.010630024 0.01316397 -0.014652113 0.0025822879
-0.038329344 -0.023018237 -0.015757458 -0.017099466 -0.021241888 -0.0014232435 -0.025389455 -0.011405586
-0.0315683 -0.022848757 -0.034694195 -0.0358996 0.034678306 -0.002978268 0.0012972136 -0.005463405
-0.008552079 0.03710682 -0.042244907 0.0040671863 0.013490527 0.004039442 0.017301433 -0.0029450888
0.019956175 -0.038806114 0.032802265 -0.009247679 -0.011524993 -0.0053980486 0.025785623 -0.03600102
0.006698246 -0.0012893962 -0.006260329 0.030694433 -0.021838829 0.00042808594 0.0006555777 0.0042519043

net.1.running_mean f4 [64]
00000000: e48b ddbd c014 09be 6af2 503d dcf3 dcbc
00000010: fdc6 dfbc 7123 13bc cc70 733c ea48 de3d
00000020: a76f 7ebc 339e ae3d 098f 92bd f22d bbbc
00000030: a41f 033e 6e10 debd 3662 d53d e539 18bd
00000040: 119c 043e d0d4 43bb 61f7 5abd 015d 343b
00000050: b2f7 303d 67e1 a3bd 6a94 7ebc 436a 9ebd
00000060: 45a5 bebd f550 3cbd 55f8 febb 34c5 70bd
00000070: 885e dbba 0244 9b3b 89ca ba3c 89ad 883d
00000080: 4081 c13d 667d eebd 3fe7 843c 1883 02be
00000090: 13b8 f8bd c6c4 00be a47c b1bc 2222 27bd
000000a0: 2749 1fbd 427a 7bbd 9769 0a3e dd83 f3bc
000000b0: 7828 1ebd 3d6f bc3d 54a5 9abb 266a 09be
000000c0: 7c1c 0dbd 27de a43c 3213 f2bb 5603 183d
000000d0: 73c5 223d f8f1 f63d 58d4 33bd b836 c2bc
000000e0: 501f 5cbd 8ac1 b1bd f6db 1bbc 62c3 df3d
000000f0: bc11 f3bd 1340 bebd 7027 e7bd aabf c73d
-0.10817698 -0.13386822 0.051012434 -0.02697175 -0.027316565 -0.008980618 0.014858436 0.10853751
-0.01552955 0.08526268 -0.07156188 -0.022849057 0.12805039 -0.108429775 0.10419123 -0.037164588
0.1295016 -0.0029881485 -0.053458575 0.0027521255 0.04320497 -0.080019765 -0.015538314 -0.077351116
-0.093088664 -0.045975644 -0.0077810683 -0.058781818 -0.0016736547 0.004738332 0.022801654 0.06673724
0.094484806 -0.116450116 0.016223548 -0.12745321 -0.12144484 -0.12575063 -0.021665879 -0.040804036
-0.038888123 -0.06139589 0.13516842 -0.029725963 -0.038612813 0.092009045 -0.0047194157 -0.13419399
-0.034450993 0.020125462 -0.007387542 0.037112556 0.039739083 0.120578706 -0.04390368 -0.023707733
-0.0537408 -0.08679493 -0.009512892 0.10925938 -0.11868617 -0.09289565 -0.11286819 0.09753354

net.1.running_var f4 [64]
00000000: aba6 453e d21f 843e e17d f43d 5fe2 103e
00000010: 11e5 343f 6956 ee3e bf87 ef3e 23ea 413e
00000020: cf4e 853e 06ef 383f 3d45 d83d f2f8 6c3e
00000030: d427 523e e8a2 263f 76e1 f43e 83d6 e83d
00000040: 2a27 2f3e af2c 8b3f 3df4 0b3f 232f d53e
00000050: 4c7c dc3e 44ea 9c3e 5c99 013f 9354 f63e
00000060: 77f1 a53e f50b 1d3e 295c 3d3e aee3 c53f
00000070: e4a5 d13e 3cde 693e 1839 b23e 02f5 043e
00000080: e696 c33f def2 a13e 0e96 b23e 1c20 943e
00000090: 05c3 433e 01b4 773e d0e1 2e3f 018e a83e
000000a0: 7bda 633e 1114 513e 82ad da3e beaa 873e
000000b0: 3c2e 283f c24f 013e 2fa5 173e dfd0 0e3f
000000c0: cf33 3d3e 6fb0 343e 2243 d13d 21a8 f73e
000000d0: bca3 193e 68f5 033f fd79 7d3e 11ee 533e
000000e0: 0769 083e eced c53d 8e93 2f3e ed40 093e
000000f0: ae21 6c3e e370 e43e 7b09 aa3e cc80 343e
0.1930186 0.25805527 0.11938072 0.14148854 0.7066203 0.465503 0.46783254 0.18936972
0.2603669 0.7223972 0.10560081 0.2314184 0.20523006 0.65092325 0.47828263 0.1136904
0.17104784 1.0873011 0.54669553 0.41637525 0.4306358 0.3064748 0.5062463 0.481114
0.32410786 0.15336592 0.18492188 1.5460107 0.40946877 0.22838682 0.34809184 0.12984088
1.5280426 0.31630605 0.34880108 0.28930748 0.19117363 0.2418976 0.6831331 0.3292084
0.22251312 0.20417811 0.427105 0.26497453 0.6569555 0.12628081 0.14809106 0.5578746
0.18476795 0.17645429 0.10217883 0.4837046 0.15003866 0.51546335 0.24753566 0.20696284
0.13321315 0.096645206 0.17146131 0.13403673 0.23059723 0.44617376 0.33210358 0.17627257

net.4.weight f4 [64, 64]
00000000: 6508 cbbd bd44 1e3d d2fe 88bc 36ab d9bd
00000010: d27b 113d e260 0ebe 3a0e d5bc e8bf 0cbe
00000020: 87bb 6c3d 0501 773d 1cea 86bd 912b 813d
00000030: a959 57bd f9cb b03d a802 083e 2b57 70bc
00000040: 42db 993c 4f65 95bd 6fe1 743d 7294 203b
00000050: 0213 dabd 4cf7 e33c 7d38 183d 2d18 acbd
00000060: b5c1 353d e280 86bd e39e 02be fd82 aebd
00000070: 0ad1 d03d 9e0c 163d 20f7 233d a8eb 1dbc
00000080: 69ae 51bd 0fed 8e3d 1bbc 62bd 1ac0 9fbc
00000090: 47b4 ff3d 4071 bebb 64a5 e9bd c631 d33b
000000a0: 3b04 eb3c 367f 0c3d eaa2 2bbd c5f0 c83c
000000b0: 3892 713d d94e c4bd c447 783d fd4f 81bd
000000c0: 612e 08bd 0523 58bd 160b be3d 6456 793d
000000d0: 2fab b7bd c263 00bd fc1c 013e 4904 00be
000000e0: e353 05bd 20d5 d13c 641a 46bd e693 dfbd
000000f0: 151b 763d 5b3c eb3c 6096 6ebd de40 d3bd
00000100: add4 0d3e f282 99bd e977 433d b16b 46bb
00000110: 20ff cc3d f553 ee3d fcd4 143d 9f13 153e
00000120: 4d86 ccbd e720 403d 5b07 843d d92b 14bd
00000130: 7f15 9cbb c468 8d3d 7cdd fb3d 61eb 983d
00000140: 785f 5bbd 251f 61bd 05bb c63d c62f 1bbb
00000150: 4702 a5bd eb27 bb3d c7aa 1b3d 2186 ea3d
00000160: 2bc9 17bd bddc c23d 0072 153e caac bdba
00000170: ffba 6dbd f117 033e 9786 7dbd bd7d 9a3d
00000180: 95b6 683d ea74 8a3d 0178 50bb b52c d93d
00000190: 7e27 24bd 5454 c0bd 6bf0 6b3c 572e 09be
000001a0: 8a40 53ba a26c 8c3d 71e0 7e3c e8ba fdbd
000001b0: 03fd e23c eac3 9fbc d894 ab3d e6eb ad3d
000001c0: d6ca 963d 27c6 debd e52f 2abc 7d02 18bd
000001d0: 0c7f 63bd d6ca 963d bf71 ac3d 6705 553d
000001e0: f404 d4bd cd6f 013e 8aae 84bd acfa 053e
000001f0: f710 923d fe1e 633d 6d5d 81bc 30cb e23b
00000200: 388a 013c 8faa a73d 10aa fcbd d6e0 2c3d
00000210: cec3 f03d 4141 a9bd 1ecb dcbc a46e f43d
00000220: 6376 cd3c f7f3 903d 1cea 4e3c 0bbc 43bd
00000230: be90 1f3a a63e 693d 2ed0 81bc 3417 1cbd
00000240: 26ac 94bd 6cab c63c c054 dc3d 0a36 15bc
00000250: 6779 f63c 0cb5 9fbd 4b40 65bd 1ba8 01be
00000260: 6cbc 223d 1221 a1bd 35df 4c3d be79 cfbd
00000270: 9568 323d 9fab 753d 06c7 abbd 64db 123c
00000280: 5b09 42bd d6e4 c1bd 2d04 eb3c 1fbd 6fbd
00000290: c45c 0fbe 0555 d83d f39b 883d 1bfd 583c
000002a0: ba83 b7bd 61ca d5bd 444a ff3c bbd1 76bd
000002b0: 5b62 b23d 4111 773d a7bc 96bd d21f c9bd
000002c0: 4389 e9bd e6e1 05be a09f 5ebd 1171 1a3d
000002d0: 8453 ac3d 9f67 0f3d 6240 eebd 2f7f 25bd
000002e0: d8f5 543d 23f4 8abd b7d1 54bd 8474 51bd
000002f0: 57c8 f9bc 5088 c9bd 7840 e03b 0ab3 ff3b
00000300: e883 75bc 3bba 0cbd eca6 0bbd b72d e03c
00000310: 4fd2 b9bc d39d f8bd 184e e53d 27a7 c2bd
00000320: 211d 8ebc 2b27 83bd ab2a 743d 408b c13d
00000330: b43e 0c3e 0931 c1bd eb1c 24bb 228f 093d
00000340: 464b 08bc cc6f b73d c9a3 1ebd e1d5 c2bd
00000350: f7a5 a23c 2462 133e c2f0 84bc 8bb6 103d
00000360: 4ea0 84bd 5b0f fdbd d3c7 eabc 325f b4bd
00000370: 91bf 933d baf8 41bd 1b83 d43c ca32 8bbd
00000380: 2d94 1b3d 9825 99bc 5ffd 4fbb 2caf 84bd
00000390: f0bc dd3d dc1a 8ebd 777a 663d 85a0 d1bd
000003a0: d1f0 e03c c141 90bc 99ea 113e c89d cdbd
000003b0: f4f8 b13d 62a7 d9bd 2d81 efbc 8dad d73d
000003c0: 781b d63d ad1f b03d c9b3 473d 1f86 ffbd
000003d0: a453 4c3d cc76 46bd ad34 37bb 6f05 c5ba
000003e0: c68d f73d 4fbb 0ebd 1614 1e3d 93a0 c93b
000003f0: 9af7 82bd 7d4c 073d 30e2 5d3c 81cb 40bd
-0.099137105 0.038639773 -0.01672307 -0.10628359 0.035518475 -0.13904145 -0.02600776 -0.13745081
0.057796028 0.060303707 -0.065876216 0.06307138 -0.05257574 0.08632655 0.13282263 -0.01466922
0.018781308 -0.07294714 0.059785303 0.0024502543 -0.10648157 0.027827881 0.037163246 -0.08403049
0.044374187 -0.06567551 -0.12755923 -0.08521078 0.10196121 0.036633126 0.0400306 -0.009638704
-0.05119172 0.06978809 -0.055355173 -0.01950078 0.12485557 -0.0058118403 -0.11408499 0.0064451424
0.02868854 0.034301005 -0.041903414 0.02452887 0.058977336 -0.095853515 0.060615316 -0.06314085
-0.033247355 -0.052767772 0.09279458 0.060873404 -0.089681976 -0.031345136 0.12608713 -0.12501635
-0.032550704 0.025614321 -0.04836501 -0.10916881 0.06008442 0.028715303 -0.058248878 -0.10315107
0.1385066 -0.07495679 0.047721777 -0.0030276591 0.10009599 0.11637107 0.03633593 0.14558266
-0.09986553 0.046906378 0.064467154 -0.03617463 -0.0047633047 0.06904748 0.12298104 0.0746677
-0.053557843 -0.054961342 0.0970364 -0.0023679598 -0.08057075 0.09138473 0.038004663 0.11451364
-0.037057083 0.09514759 0.14594269 -0.0014471051 -0.05803966 0.12802102 -0.061895933 0.07543514
0.05681475 0.06760581 -0.003180981 0.1060423 -0.040076725 -0.09391084 0.014400582 -0.13396583
-0.00080586283 0.068566576 0.015556441 -0.12389165 0.027708536 -0.019502599 0.08377999 0.0849226
0.07362907 -0.10877638 -0.0103873955 -0.037111748 -0.055541083 0.07362907 0.08420133 0.052007105
-0.10352507 0.12640305 -0.06478603 0.13083905 0.07132142 0.05544948 -0.01579162 0.0069211945
0.007906489 0.08186828 -0.12337124 0.042206608 0.11756097 -0.08264399 -0.026952323 0.119351655
0.025080865 0.070777826 0.012629058 -0.047786754 0.0006086937 0.05694451 -0.015846338 -0.038108066
-0.07259397 0.024251662 0.10758352 -0.009107122 0.030087186 -0.07798204 -0.055969518 -0.12661783
0.039730474 -0.07867636 0.050017554 -0.10130642 0.04355677 0.059978124 -0.0838757 0.00896344
-0.047372203 -0.09467475 0.028688515 -0.05852997 -0.14000231 0.10563091 0.0667037 0.013243939
-0.08960672 -0.10438991 0.031163342 -0.06025861 0.08710166 0.06031919 -0.07360201 -0.09820522
-0.11403134 -0.13074455 -0.05435145 0.037705485 0.08414367 0.03501093 -0.11633374 -0.040404495
0.051992267 -0.06784847 -0.051957812 -0.05113651 -0.030491037 -0.09840453 0.006843623 0.0078033255
-0.014985062 -0.03435729 -0.034094736 0.027365549 -0.02268329 -0.121394776 0.11196536 -0.09504538
-0.017347874 -0.06403955 0.059611004 0.09450388 0.13695794 -0.09433181 -0.002504165 0.033583768
-0.008318728 0.089568704 -0.038730416 -0.095134504 0.019854529 0.14392906 -0.016228084 0.035330337
-0.06475888 -0.123564444 -0.028659737 -0.088072196 0.07214273 -0.047356345 0.025941422 -0.067967966
0.03798311 -0.018694684 -0.0031736714 -0.06478724 0.108270526 -0.06938717 0.056269135 -0.10235695
0.02745858 -0.017609479 0.14249648 -0.1003986 0.08690062 -0.10627629 -0.0292364 0.10531149
0.10454458 0.08599792 0.04875544 -0.124767534 0.049884453 -0.048453137 -0.0027954981 -0.0015031527
0.12087588 -0.0348466 0.038593374 0.006153175 -0.063948825 0.03303193 0.013542697 -0.047069076

net.4.bias f4 [64]
00000000: 0d5e f6bd fdac c03d 6b89 06bd 607a 453d
00000010: a585 d33d 4351 b03d d3aa 893d 330b f1bd
00000020: b546 d03d 6400 833d a7a9 de3c cb1e 423d
00000030: 300d a7bd f00c f8bc 5d9e dd3d ecab 173d
00000040: 6a8e e6bd 2239 f63d 5913 763d 3606 b1bd
00000050: ac72 fcbd eeb9 973d 8bd2 ecbd 89be 1b3d
00000060: 7ad4 a6bd 291f f6bd 9ff5 1c3c e5ca 44bd
00000070: 1113 f9bd 732a e8bd e49e ae3d 531b 55bd
00000080: cbdb e7bc 742a e63d 88b3 e23b b104 f4bd
00000090: 0d4d e13d e35b a53d 6c02 8ebc f2bc bcbd
000000a0: 59ba 73bd e5c6 d73b 67a0 a2bd ef30 be3d
000000b0: 3eb9 65bd 9765 403d ab4f e9bd 7d47 01bd
000000c0: 2585 853c d499 f5bd aef6 c3bc a272 ee3d
000000d0: a8d0 a4bd 05a8 cebb c4c3 213d 629e d2bd
000000e0: c95d ed3d 69d8 ffbd 73e3 f43d 54b7 4abd
000000f0: d679 1e3d 41e9 ecbc ded7 0cbd f9eb 203d
-0.120296575 0.09407995 -0.032845896 0.04821241 0.10328225 0.086092494 0.06722035 -0.11769714
0.10169736 0.06396559 0.027180506 0.047392648 -0.08156812 -0.030279607 0.10821221 0.03702919
-0.11257632 0.12022616 0.060077045 -0.08643763 -0.123265594 0.0740851 -0.115635954 0.038023505
-0.081459954 -0.12017662 0.009580045 -0.048045058 -0.1216184 -0.113362215 0.085264 -0.05202801
-0.028303048 0.11238566 0.0069183744 -0.11914957 0.110010244 0.080741666 -0.01733514 -0.09215726
-0.059503887 0.0065849894 -0.079407506 0.09286677 -0.056084864 0.046971884 -0.113921486 -0.031562317
0.01629884 -0.11992231 -0.023921337 0.11642958 -0.080476105 -0.0063066506 0.039493337 -0.102841154
0.11590154 -0.12492449 0.11957445 -0.04949124 0.03869041 -0.028919818 -0.034385554 0.03928754

net.5.weight f4 [64]
00000000: 5e34 853f 7022 7e3f 2969 873f 1a05 843f
00000010: 8c4f 823f 57bf 823f 94e1 833f 7306 813f
00000020: e276 7e3f 4de3 7f3f e53c 843f e932 843f
00000030: 6d87 803f 05bd 873f d1d4 873f 7ba8 813f
00000040: 1500 833f aa49 853f 0efe 7f3f 2d81 893f
00000050: 390e 843f 389b 853f 3299 833f 848a 7c3f
00000060: 22f8 883f e072 833f ecda 823f d533 873f
00000070: c07b 823f c693 863f 9087 833f fe25 853f
00000080: 1da8 873f b525 863f 8152 7f3f 9c66 7a3f
00000090: 169e 803f 37c3 873f 220d 873f 14ce 813f
000000a0: 8742 863f b285 803f 9243 813f bb31 843f
000000b0: 1576 843f dd6a 813f b69e 813f 64c2 843f
000000c0: 0030 843f 6880 823f 8d37 873f 0a1b 863f
000000d0: eb38 823f 4712 853f 7bbd 863f 4d73 843f
000000e0: fc72 823f 7511 853f 1e6f 893f a33f 7c3f
000000f0: 9f74 863f d8e5 833f 1d34 873f df3e 833f
1.0406606 0.992713 1.0578967 1.0314057 1.0180526 1.0214642 1.0303216 1.0080093
0.9940015 0.9995621 1.0331084 1.0328037 1.0041329 1.0604559 1.0611821 1.0129541
1.02344 1.0413105 0.9999703 1.0742546 1.031684 1.0437994 1.0281126 0.9864886
1.0700724 1.0269432 1.022306 1.0562693 1.0194016 1.0513847 1.0275745 1.0402219
1.0598179 1.0480257 0.99735266 0.9781282 1.0048244 1.060645 1.0550883 1.0141015
1.0489053 1.00408 1.0098746 1.0327677 1.0348536 1.0110737 1.012656 1.0371823
1.0327148 1.0195436 1.0563828 1.0477002 1.017362 1.0396203 1.0526575 1.0347687
1.019134 1.0395952 1.0737035 0.985346 1.050434 1.0304518 1.0562779 1.0253562

net.5.bias f4 [64]
00000000: 8df7 113d 8874 9939 667d 303d 0daa e43c
00000010: 65e0 803c 59b1 863c 6684 d63c 82f5 5d3c
00000020: 606e 6e3c 70dc acbb d402 623c 7c48 f23c
00000030: ff38 543c f856 3e3d 4cea 653d 3f68 16bc
00000040: 9895 983c ceb6 933c 0c8b 803c 96bc 6c3d
00000050: fd4a 323c 7ec2 bb3c 6c99 b0bb 9a4b 5cbc
00000060: 82f7 403d 6e07 d93c 3899 b13c dd63 3c3d
00000070: cd03 be3c 47b0 333d 9452 ca3b 10f6 513d
00000080: 3461 5d3d 7861 1b3d 5b34 20ba 646e 01bd
00000090: 96a4 88ba 211c 3e3d 072d 463d c710 013b
000000a0: e0d1 653d 7f1e 7abc 40ca a13a f698 d63c
000000b0: d288 1a3d 6320 a43c 8d90 faba ddfc dc3c
000000c0: 9037 5f3c b5a9 c13c e189 e13c d17f 0f3d
000000d0: 5c7d b23b 7898 d63c 6d0c 283d 5817 2a3d
000000e0: bd4e de3c 65d4 8d3d b7f3 843d f049 a4bc
000000f0: f63b 4f3d 9fa1 2d3d f455 7e3d c434 0e3d
0.035636473 0.00029269257 0.04308834 0.027913118 0.015732 0.016441988 0.02618618 0.013547303
0.014552683 -0.0052753016 0.01379462 0.029575579 0.012953042 0.04646966 0.056131646 -0.009180128
0.01862602 0.018031504 0.015691303 0.057797037 0.010882136 0.02291989 -0.005389383 -0.013445759
0.04711104 0.0264928 0.021679506 0.045993675 0.023195172 0.043869283 0.006174395 0.051260054
0.05404778 0.03793475 -0.0006111317 -0.031599417 -0.0010425027 0.046413545 0.048382785 0.0019693838
0.056108356 -0.01526606 0.00123436 0.026195984 0.03772814 0.020034974 -0.0019116566 0.026976043
0.013624087 0.023640493 0.027531566 0.035034005 0.005447073 0.02619575 0.041027475 0.04152617
0.027137155 0.06925277 0.064917974 -0.020054787 0.050594293 0.042390462 0.06209369 0.03471829

net.5.running_mean f4 [64]
00000000: f5a6 d1be 5c73 373f 1e28 d3be 395f 933d
00000010: 2463 73bc 7fad 6d3e 31ed 743d b27f 1b3d
00000020: 013a 913e 4893 763e 1971 acbb ebde 35be
00000030: b225 5c3d 38d2 1fbd 5cd7 babd 02f9 66bd
00000040: 2eef eabe 7e5f 953d c240 123f 7fb4 dcbe
00000050: 321a f8be d34b 673e ec24 4dbe 820a 98bd
00000060: db73 59be aa06 50be 4295 833b 18c5 9f3d
00000070: eb1a b5be 4889 353d 0a75 0dbd f7a4 303e
00000080: b741 84be b8ce 0a3f 0ac1 3ebe 5d1f c83d
00000090: dfa4 773e 331f 5dbd 0bcc 02be c9ef 16be
000000a0: d63b 823d c362 42be f045 50be a221 4b3d
000000b0: 50d9 b53d c6db 82be ab2f 283f e020 193e
000000c0: abc5 d9bd fb9b ba3c fb74 aabe 84e4 813e
000000d0: 22a7 15bf dc8d f5bd bbbe 813e cf19 a5be
000000e0: d18b 8f3e c2a2 fb3d 0f38 12be 47d9 a5be
000000f0: 3508 2a3d c410 633e fba0 953d 91af 433e
-0.4094769 0.716604 -0.41241544 0.07195897 -0.01485518 0.23210715 0.059796516 0.037963577
0.28364566 0.24079621 -0.0052625057 -0.17760818 0.053746887 -0.03901884 -0.09123108 -0.056389816
-0.45885605 0.07293604 0.5713006 -0.43106458 -0.48457485 0.22587518 -0.20033616 -0.07423879
-0.21235602 -0.20315042 0.0040155957 0.078012645 -0.353721 0.044320375 -0.034535445 0.17250429
-0.25831386 0.5422168 -0.18628326 0.09771607 0.24183987 -0.053984832 -0.12773149 -0.14739908
0.06359069 -0.18982987 -0.20339179 0.04959262 0.0887934 -0.255583 0.65697736 0.14953947
-0.10633405 0.022779455 -0.33292374 0.25369656 -0.5845815 -0.11989948 0.25340828 -0.32246253
0.2803636 0.12286903 -0.14279197 -0.32392332 0.041511733 0.22174364 0.07306095 0.19109942

net.5.running_var f4 [64]
00000000: 670d 503e df3e 3d3e 7e1c 923e 04cb 823e
00000010: 99fe 333e a602 233e eba7 6d3e cf6e 273e
00000020: de91 5c3e 44c8 0f3e 4093 4c3e 0b62 733e
00000030: 76bc 313e ded1 853e 4f54 973e 82ec 133e
00000040: 4d0f 763e 2df3 463e cf0f 6e3e 6205 3f3e
00000050: c96a 3e3e 408a eb3d a43d 723e 68c4 bc3d
00000060: a77c b53e db47 953e 44f3 363e 2ad3 ce3e
00000070: 01df 333e 7644 833e 6ce9 223e 55dc 683e
00000080: afae 913e b046 433e 1e6a 373e 4005 c93d
00000090: deda e83d d045 803e 12d2 a93e ba3a 3b3e
000000a0: 0313 8b3e ed0c 273e b94e 953e 41ed 4e3e
000000b0: 7617 823e 3f81 6e3e e19f a23e f427 433e
000000c0: 702a 133e d8e8 7b3e bfd6 753e cc4b 633e
000000d0: 718f 2d3e de31 4f3e 62ac b33e a74b 863e
000000e0: 636a 223e 98c3 a03e 8005 853e fbc1 373e
000000f0: 0a31 743e 3970 3f3e 2c59 a53e fc8f 3c3e
0.20317613 0.18481015 0.28537363 0.25545514 0.1757759 0.15918979 0.23208587 0.16350864
0.21540019 0.14041239 0.19978046 0.23767869 0.17357048 0.26136678 0.2955651 0.1444569
0.24029274 0.19428702 0.23248218 0.18654397 0.18595423 0.115009785 0.23656327 0.09217149
0.35446665 0.29156384 0.17866236 0.4039548 0.17565538 0.2563817 0.15909356 0.227403
0.28453586 0.19069934 0.17911574 0.098154545 0.113698706 0.25053263 0.33168083 0.18284121
0.27162942 0.16313525 0.29161623 0.20207693 0.25408524 0.23291491 0.31762603 0.1905821
0.14371657 0.24600542 0.240077 0.22196883 0.1694925 0.20233867 0.35092455 0.26229593
0.15860896 0.31399226 0.2598076 0.17945091 0.23846832 0.18695153 0.32294595 0.184143

net.8.weight f4 [2, 64]
00000000: bff4 933d 5dff 3c3c 667f 25be 88fd 0dbd
00000010: c884 eebc ce3e 1c3c 8e58 e73d 30fb c13d
00000020: d4ba 8238 8d0a 83bd efcd c63d ebff 0c3e
00000030: f189 66bd 25b0 78bd 23ba 2fbe 1ac2 c53c
00000040: 169b 023d 65c4 173e 9ffa cbbd 641e f33d
00000050: 143c ea3d d667 b6bc 6425 acbd 3fa9 a9bb
00000060: f823 10be b320 9fbd 880a 12be 4327 0ebe
00000070: f439 9d3d a549 153e 9d2c bd3c 7247 ef3d
00000080: 06f9 13be 3cc3 05be c929 89bd 6667 94bc
00000090: e0dc 8bbd 57df e13d dcdc a63d 7fc2 b4bd
000000a0: d883 c43c e7a5 e5bb 7c23 033e 78c7 0bbe
000000b0: 8dc5 12be 25d4 1ebc 6883 02bc 095d 1fbd
000000c0: 2772 923d 0199 cd3d 1212 993d e53e 833d
000000d0: 136e 8abd 3ac8 8ebd bc40 213c 8c1a 113d
000000e0: c55e e3bd 63cc dfbd 5eb3 05be 2233 b9bc
000000f0: 5409 263e b600 f7bb 1b7b 87bd ab37 c53d
00000100: aff6 6fbd daaa 5b3d d483 14bd 148d b6bd
00000110: b427 ec3d 69d6 c53d d5ce 773c 28f7 b3bd
00000120: 8ca0 d43d e107 be3d 35b2 82bc 24c4 57bd
00000130: 75ac 9e3d 36f8 15be f4bd 52bd 2818 d0bd
00000140: a408 b7bc e059 363c 1fb2 19bd 7f61 97bc
00000150: 5fad 34bd 714f fc3d b6dc 643d 2a7a 26bc
00000160: 4f1a 03bd c9e0 d83d 7de9 d9bc 8c90 e63d
00000170: 8888 c6bd 9a87 e1bd 73f6 153e 33dc 83bd
00000180: e126 b63c 2e4f 08bd 6375 873c b52e 1b3d
00000190: 0d4f 15bd 07bb f2bc 9e40 c2bd 3879 983a
000001a0: 948d f0bd 1d05 e8bd 8689 9a3b 40d9 82bd
000001b0: 7059 743d d2f1 9fbd c93e 32bd 3f32 17be
000001c0: 9c07 ffbc 9bc8 c2bd a1de f8bb 323c 1d3e
000001d0: 539e 083e 1106 7e3d 7a55 90bd 68b8 f2bd
000001e0: ff23 b53c a5b9 b93d 3795 eaba 798a 19bd
000001f0: c7f3 623d f563 19be 5718 543d ddc6 06be
0.07224416 0.011535493 -0.1616188 -0.034665614 -0.02911605 0.009536458 0.11296187 0.09471738
6.2336825e-05 -0.06398497 0.097072475 0.137695 -0.056283895 -0.06071486 -0.1716085 0.024140406
0.031886183 0.14821012 -0.099599116 0.11871031 0.1143724 -0.02226631 -0.08405569 -0.0051776464
-0.14076221 -0.07769909 -0.1426183 -0.13882165 0.07677069 0.14578874 0.023092562 0.11683549
-0.14450464 -0.13062757 -0.06697423 -0.01811571 -0.06829238 0.11028927 0.08147594 -0.0882616
0.02398865 -0.0070083025 0.12806505 -0.1365031 -0.14333172 -0.009694134 -0.0079659 -0.038907085
0.07150679 0.10038949 0.0747415 0.064084806 -0.06759276 -0.06971784 0.009842094 0.035425708
-0.1110206 -0.109276555 -0.13056704 -0.02260739 0.16214496 -0.0075379265 -0.066152774 0.096297584
-0.058584865 0.053629734 -0.036258534 -0.08913627 0.1153101 0.09660036 0.015124996 -0.08787376
0.103821844 0.092788465 -0.015954116 -0.05267729 0.07747737 -0.14645466 -0.051450685 -0.101608574
-0.022342987 0.011129826 -0.037523385 -0.018479107 -0.044110652 0.1231984 0.05587455 -0.010160962
-0.03200751 0.10589749 -0.026600594 0.11258039 -0.0969401 -0.11012192 0.14644794 -0.06438484
0.022235336 -0.033278637 0.016535467 0.03788634 -0.03645234 -0.029630197 -0.09484981 0.0011632806
-0.11745754 -0.113291 0.004716101 -0.063890934 0.059655607 -0.078097954 -0.043516908 -0.14765261
-0.031131558 -0.09510919 -0.007594899 0.15354994 0.13341646 0.062017504 -0.07047553 -0.11851579
0.02211189 0.09068612 -0.0017897253 -0.037485573 0.055408265 -0.14979537 0.051781025 -0.13161798

net.8.bias f4 [2]
00000000: b464 53bc 3d27 653d
-0.012902427 0.055945624
