data/weights/feature_mlp_pipeline.pth (torch, 38289 bytes, 14 tensors)

net.0.weight f4 [64, 50]
00000000: 662c c33c 2467 173d ba04 0abd f01c 483d
00000010: 5c84 63bd 2563 bbbc b663 4bbd dd1d 96bc
00000020: 8cd3 49bd fd39 453c 39f5 06be d820 e2bd
00000030: 4fc2 17bc d2d9 643c 84b5 aebd c1d4 76bc
00000040: cb8b c63d 7ef0 e8bd edb0 b63d 5ae6 23bd
00000050: 82ae 853d 9cf2 b63d bce9 0b3d e26d 31bd
00000060: 89ce 303d 7cd9 d73c 3147 3abd 6148 66bd
00000070: ecfc e1bd 79be 703d 1bb6 dbbc 8355 8d3d
00000080: 41f1 e33d 3f80 90bb c2ae 70bd 2494 b13d
00000090: ae6f fc3d 1b0a df3c fd77 e7bd 8b11 6dbd
000000a0: b4a8 00be 9260 febd bd05 133d fee9 64bc
000000b0: 77ed c3bb b54a 01be eb2a b0bd 0d88 05bd
000000c0: 982e e43d b78e e63a f1b5 b13d 8ede 8c3d
000000d0: 9387 913c c21d 37bc 66b6 63bd d190 843d
000000e0: a871 703c c78f 0a3e c6c6 f2bd a22c 71bd
000000f0: 6f78 c2bd 3065 493d a833 773d 53e5 033e
00000100: 4a31 06bd c8d9 fc3d 4340 893d c02b c83d
00000110: b8b7 c3bc 8990 0fbe 7434 c1bc 030c d6bd
00000120: 899a 033e ac1f 043e bcbe debd 0720 a23c
00000130: 79e2 26bc 926b 2abd 3859 f5bd 601c afbd
00000140: 6577 97bd 4620 ee3c 6bce 2f3d d8cf 063c
00000150: 0fe2 9dbd fa73 7ebd 795f 2dbb 353f be3d
00000160: d81b 4cbc 0a17 fbbc 5aef 09bd 35c9 063e
00000170: 5225 a0bd eeaa c63d 5315 e53d cc76 5fbd
00000180: 20dc e2bd d7c4 97bd 9fcc 06be e724 9ebc
00000190: b462 b5bd 4733 e33c 1414 b1bb edca 17be
000001a0: 6f06 9b3d 8418 edbd 4ca8 d03d 36f3 983c
000001b0: a158 77bc ea89 77bd 0be7 b03d 7cd2 0c3e
000001c0: f629 bdba b701 adbd 5f3f 00bd fa98 a1bd
000001d0: cb3b 813d 4562 0f3e 0f61 c8bd 50e2 1c3d
000001e0: 56aa acbd 69bf debd d91d c6bc 9cfb 9abd
000001f0: dfc5 bcbc 1ef8 0a3e 8eb2 6b3c 7f1e babd
00000200: e98f 87bd 35b1 4d3d 92ec 08be 305d 113e
00000210: bf76 04be 1aff ba3d f788 07be db67 edbd
00000220: 5080 ab3d f577 8c3c 6410 6abd 3c5c 7f3d
00000230: 7091 063e 9f36 eb3d 1606 d7bd 3fc9 8f3a
00000240: 6ae8 62bd a635 34bd ae9b fd3d 3978 f33d
00000250: b917 c8bd 62f4 c9bd 2d76 b43d 4fc6 fd3d
00000260: a4f3 e53d 26e8 a03d 10e5 7dbd 93f3 863c
00000270: 5167 b33d b187 5ebd 5b6a a3bd 9697 553d
00000280: 2d8d 99bd 6a07 a33d 1451 8dbd c51f f63d
00000290: 4ca7 2eba 89d6 973d 908c 803d 565d 0b3e
000002a0: 2bd9 0fbc d444 b73c 7ab0 7f3d 4108 d3bd
000002b0: ea93 133e 5567 013e ae78 d53d a037 0bbe
000002c0: 97b7 74bd d0bb aebd f616 00be 8049 0dbe
000002d0: 6cc9 fabd 67c4 e53c df24 8c3c f5c6 a8bd
000002e0: 804d 92bb 787f f83b 7bbd 8ebd 677a 3f3b
000002f0: a2fa f9bd fd1e eabd 7d93 f93d db12 153d
00000300: da21 debb 942f f4b9 4b5d 10be ae75 da3d
00000310: 188e b83d dcd0 06bb 267f 99bd 455f 0fbe
00000320: 8773 90bc c672 f43d ad10 25bd 59a9 9fbc
00000330: 12b7 0e3c 34ae 623c ad41 bc3b 8f79 b1bd
00000340: ae90 0c3e 6dc5 df3c 9427 16bd a8e0 0ebd
00000350: 482c babd 53a5 013e 223f c43c b103 9d3d
00000360: e535 00be c2ae c6bd 5028 c73c a267 2c3c
00000370: 89ed 16bd 8a3d 243d 2ff5 8ebd 4929 ddbd
00000380: 3f48 fbbd 1fb9 c63c 7511 16bc 22e8 a23c
00000390: 347b 5ebd 36c6 9fbd 5d52 a3bd 8f3f 26bd
000003a0: 05e9 fb3d 6d8e c5bd 5980 df3d f987 dd3d
000003b0: 0992 223d f047 f33c f47c 283c 2de5 bfbd
000003c0: e3dd 71bb 418b 063e 23cb ffbd 26e8 a8bd
000003d0: 255b adbc 44a1 613c 0ddf 03be 3987 0f3d
000003e0: ea39 c33d 782b c2bd b0dc ad3d 45ef 09be
000003f0: bc6a f43d 4d5a 853d c480 0abe 1303 d1bd
0.023824882 0.036963597 -0.033695914 0.048855722 -0.05554615 -0.022874424 -0.04965564 -0.018324787
-0.049274012 0.012037751 -0.13179483 -0.11041421 -0.009262635 0.013967948 -0.08530715 -0.015065373
0.09694632 -0.11373995 0.08920465 -0.040014602 0.06527425 0.08932993 0.034158453 -0.043317683
0.043165717 0.026348822 -0.04547805 -0.05622137 -0.11034569 0.0587754 -0.026820233 0.06901076
0.1113 -0.0044098194 -0.058760412 0.08670834 0.12325989 0.027226498 -0.11302183 -0.05787806
-0.12564355 -0.12420763 0.035894144 -0.013971804 -0.0059792357 -0.12626155 -0.08601936 -0.03260045
0.111416996 0.001759014 0.08677281 0.068783864 0.017764842 -0.011176528 -0.05559387 0.06472934
0.014675535 0.13531409 -0.11854319 -0.058880456 -0.09495627 0.049168766 0.060351998 0.12880449
-0.03276185 0.12346226 0.0670171 0.0977397 -0.023891315 -0.1401998 -0.023584582 -0.1045151
0.12851919 0.12902707 -0.108762234 0.019790662 -0.010185831 -0.041606493 -0.11979908 -0.08550334
-0.073958196 0.029068124 0.042921465 0.008228265 -0.07709133 -0.062122323 -0.0026454611 0.092893995
-0.01245781 -0.030650634 -0.03367553 0.13162692 -0.07819618 0.09700571 0.11185708 -0.054556653
-0.11077142 -0.07410591 -0.13163994 -0.019304706 -0.08856717 0.027734412 -0.005404005 -0.14823504
0.075695865 -0.115769416 0.1018835 0.01867066 -0.015096814 -0.06043426 0.08637818 0.13752168
-0.0014432061 -0.08447593 -0.031310435 -0.07890506 0.06310233 0.1400233 -0.097841375 0.038301766
-0.084309265 -0.10876352 -0.024184154 -0.07567522 -0.023043571 0.13571212 0.0143858325 -0.09087848
-0.066192456 0.050217826 -0.13371494 0.14195704 -0.12935923 0.09130688 -0.13235842 -0.115920745
0.08374083 0.017147044 -0.057144538 0.06234382 0.13141418 0.114850275 -0.10499208 0.001097001
-0.05539743 -0.043996476 0.12383209 0.11888165 -0.0977015 -0.098610654 0.08811603 0.1239134
0.112281114 0.07856779 -0.06198603 0.016473567 0.087599404 -0.054328624 -0.0797927 0.052146517
-0.0749763 0.079603985 -0.0690023 0.12017778 -0.00066625024 0.07413966 0.0627681 0.13609824
-0.008779804 0.022371687 0.06242416 -0.10304309 0.14411893 0.12637074 0.104234084 -0.13595438
-0.059745397 -0.08531916 -0.12508759 -0.1379757 -0.122454494 0.028047753 0.017107425 -0.08241073
-0.004464805 0.007583555 -0.06969734 0.0029217245 -0.122060075 -0.11431692 0.12186334 0.036394935
-0.0067789378 -0.00046574755 -0.14098088 0.10666977 0.09011477 -0.0020571267 -0.07494955 -0.14001186
-0.017633213 0.11935954 -0.040299106 -0.019489931 0.00871064 0.013835479 0.005745134 -0.086657636
0.13727066 0.02731582 -0.03665884 -0.034882218 -0.09090477 0.12660722 0.023955885 0.0766672
-0.12520559 -0.09701301 0.024311215 0.010522755 -0.036847625 0.04009775 -0.06980359 -0.1079889
-0.12269639 0.024258194 -0.0091594355 0.01988608 -0.054316714 -0.078014776 -0.07974694 -0.040587958
0.12300304 -0.09646306 0.10913152 0.1081695 0.03969005 0.029697388 0.010283697 -0.09369884
-0.0036905936 0.13139059 -0.12489917 -0.08247404 -0.021161625 0.013771359 -0.12878056 0.035041068
0.095325306 -0.09480947 0.084893584 -0.1347018 0.119344205 0.06511364 -0.13525683 -0.102056645

net.0.bias f4 [64]
00000000: 49d4 0bbe c20f e3bd 0977 953c 9d1b 823d
00000010: bfd9 f2bd d784 0c3d 1edf 0abd 9d4b cdbd
00000020: af9b ddbd 4a08 933b 0d68 f1bd e4e0 9b3d
00000030: 5e2d 00bc 339f ab3d 0c85 9d3d 8ba8 453c
00000040: 75d1 dd3c 1973 39bd 0869 433d 7ebe 653b
00000050: ed88 623d f97c 8dbd ee1d f1bd 7045 febc
00000060: 145c 8cbd 50e0 ca3d 4749 6b3d 36e3 973d
00000070: 0abc 46bd fb05 df3d f291 a03c 7e27 823d
00000080: 4929 d43d 8b26 e73c d1f0 a2bb 16cf 913d
00000090: 1580 fcbc 43e5 b83d def8 60bc 2299 d9bd
000000a0: 8503 81bd 865e 04bd 4eaf 7f3c b69f 803c
000000b0: fdf6 d6bd 3291 6ebd 23ff 0ebe 25b7 6f3d
000000c0: c23e 933d 13d4 283d 0aa6 bebd cf8f 08be
000000d0: 98cd f0bd 5e69 ee3d bd4d e4bd 7283 90bd
000000e0: 84d5 e13d 1422 3dbd ad41 c23d 41f6 453c
000000f0: 02c7 0c3e 6881 28bd 536a 5dbd 31d4 5abd
-0.13655199 -0.1108699 0.018245237 0.06352923 -0.11857938 0.034306373 -0.033904187 -0.10024188
-0.1082071 0.004487072 -0.11787424 0.07611254 -0.007823316 0.08379974 0.07691392 0.01206411
0.027077416 -0.04527578 0.047707587 0.003505617 0.055306364 -0.06908602 -0.11773287 -0.03103897
-0.068535 0.099060655 0.05744293 0.07416384 -0.04851917 0.108898126 0.019600842 0.06355189
0.10359437 0.02821662 -0.004972555 0.07119577 -0.030822793 0.09028103 -0.01373121 -0.10624911
-0.062994994 -0.032316707 0.015605761 0.015701156 -0.10496328 -0.058243938 -0.13964514 0.05852427
0.071897045 0.041217875 -0.09309013 -0.13336109 -0.11757964 0.11641191 -0.1114764 -0.07056321
0.11027053 -0.046175078 0.09485183 0.012082637 0.1374779 -0.041139036 -0.054056477 -0.053425018

net.1.weight f4 [64]
00000000: 5ae3 7e3f e6c5 813f c91d 803f c63a 7f3f
00000010: 8856 7e3f f6bd 7f3f 8435 7d3f 9265 803f
00000020: 6a0c 7d3f f3d3 7d3f 5cd8 7a3f 0b29 7c3f
00000030: 97fd 7d3f ff59 833f fcdd 7c3f 12b1 793f
00000040: eb5f 813f cac4 7d3f b1ae 7b3f a6e4 803f
00000050: 55fd 833f 896e 813f 4b17 803f 3e29 803f
00000060: a3c6 803f bcf4 7c3f 7958 813f 3709 7d3f
00000070: 6c49 7f3f b58d 7b3f 6789 7f3f 5252 803f
00000080: fb8e 7f3f 2cec 7c3f e5fe 7a3f a6e7 7e3f
00000090: bcf2 7b3f 4506 803f b22f 843f e457 803f
000000a0: aab3 833f 7426 803f 3417 7b3f 0325 7c3f
000000b0: 3856 7f3f 95a6 803f e342 7c3f 03eb 7c3f
000000c0: b254 7b3f 19cb 7c3f df13 7b3f 7124 813f
000000d0: 7b38 7f3f e481 823f 001a 823f ccc2 7d3f
000000e0: 5aa0 803f b1cd 7f3f 0594 7d3f 5c2b 7b3f
000000f0: 5b20 803f fbf8 803f 0998 7c3f 0720 7b3f
0.9956566 1.0138519 1.000909 0.99699056 0.99350786 0.9989923 0.98909783 1.0030997
0.9884707 0.99151534 0.9798639 0.98500127 0.9921507 1.026184 0.9877622 0.9753581
1.0107397 0.991284 0.9831343 1.0069778 1.0311686 1.0111858 1.0007108 1.0012586
1.0060619 0.98810935 1.0105125 0.98842186 0.9972141 0.982631 0.99819034 1.0025122
0.99827546 0.9879787 0.9804519 0.9957222 0.9841726 1.0001913 1.0327055 1.0026822
1.0289204 1.0011735 0.9808228 0.98493975 0.99740934 1.0050837 0.9853956 0.987961
0.9817611 0.987474 0.98077196 1.0089246 0.9969556 1.019589 1.0164185 0.9912536
1.0048935 0.99923235 0.99053985 0.98113036 1.0009874 1.0075983 0.9866949 0.98095745

net.1.bias f4 [64]
00000000: afbc 8cbb 9273 53ba 6c22 a8b9 d0d7 aaba
00000010: f046 8fb8 309b 50bb f28b 3ebc 997b 05bc
00000020: 5eec 62bc 3ead 26bc 45fd 22bc 27bf 6bbb
00000030: 830e 1bbc 24d0 bb3c ac98 16bc 60c4 b6bc
00000040: f72e 8c3c 889c 8abb aa89 043b fecc 4c3c
00000050: 60a7 dc3c 66f6 093c e6d6 c1ba 203b 0abc
00000060: c612 293c 6fb1 6bba 18bf 643c a539 4cbc
00000070: b63c baba 826e 67bc cf4a febb ba46 3cb9
00000080: 8d3e 973b 0363 0ebc bcd1 3cbc fc39 973c
00000090: feff 87bc 4ab5 cebb f1d5 f03c 4800 813c
000000a0: 0303 a63c 9efa 3dbb 134c aebc ecca 26bc
000000b0: b1f6 483a c980 e43b 4e72 6abc 9a26 e1bb
000000c0: 36c5 58bc cdc9 7fbc b67e c4bc 72d1 4f3b
000000d0: 702e 253c 4ead 55ba 8ad7 933c 430d 32bc
000000e0: d3fa 573b bfd2 d53a 1848 87bc 8c61 52bc
000000f0: 9c1d 4bbc 786a 9c3a efc1 45bb e2f5 79bc
-0.004294954 -0.00080662325 -0.00032069103 -0.0013034288 -6.8319845e-05 -0.003183078 -0.011630045 -0.008147144
-0.0138503 -0.01017314 -0.0099480795 -0.003597209 -0.009463909 0.022926398 -0.009191673 -0.022310436
0.017112238 -0.0042300858 0.0020223656 0.012500046 0.02693528 0.008420562 -0.0014788776 -0.008436948
0.010319417 -0.0008990978 0.013961576 -0.012464915 -0.0014208767 -0.014125468 -0.0077603827 -0.00017955425
0.004615611 -0.008690598 -0.011524614 0.018460266 -0.016601559 -0.0063082324 0.02939889 0.015747204
0.020265108 -0.002898849 -0.02127651 -0.010180216 0.00076661544 0.00697336 -0.014309479 -0.0068710567
-0.0132306125 -0.015612078 -0.023986202 0.0031710532 0.010081872 -0.00081511296 0.018047113 -0.01086742
0.00329559 0.0016313418 -0.01651387 -0.01284064 -0.012397196 0.0011933586 -0.0030175408 -0.015256377

net.1.running_mean f4 [64]
00000000: d58f 0abe 313f d7bd 4248 873c 568f 773d
00000010: e04a f4bd ffff eb3c 046d f1bc 8eaf e1bd
00000020: 183e d0bd 5c9b e23b 7802 00be 141e 903d
00000030: d047 8f39 dece aa3d 681a 9c3d 3b18 713c
00000040: fb7e da3c 8981 50bd 25ad 473d f22c 8e3b
00000050: d02e 6e3d ebfc 7abd ab25 e1bd c456 fdbc
00000060: 16e3 8abd cbf2 d13d a16e 7b3d 1e8b 8e3d
00000070: 40d5 21bd 6d5d e93d 5f14 093c e061 853d
00000080: bec4 d63d ffc4 f23c 38a7 91b9 d222 963d
00000090: f815 b7bc 53f9 b53d 111a 3fbc c6e8 cdbd
000000a0: 25b4 7cbd eb51 25bd 9dcc fe3b 510b b73c
000000b0: 3dcd dbbd d6eb 76bd 1dc9 12be 2bb0 843d
000000c0: eb45 963d d672 3f3d 4702 afbd 7b95 02be
000000d0: 2f18 f0bd ea04 d93d bb71 e8bd e3d7 8bbd
000000e0: ed58 d73d 5fd3 3dbd b9de d53d 485b 6d3c
000000f0: b88a 0a3e 1d68 42bd 79fe 49bd 5b27 5fbd
-0.1353143 -0.105101 0.016513947 0.06043943 -0.11928344 0.028808592 -0.029470928 -0.110198125
-0.101680934 0.006915493 -0.12500942 0.07036987 0.0002732859 0.08340238 0.07622224 0.01471525
0.026671877 -0.050904784 0.048749108 0.004338854 0.058150113 -0.061276358 -0.10993513 -0.030925162
-0.067815945 0.10251387 0.0613848 0.06960128 -0.03951001 0.11394773 0.008366673 0.06512809
0.10486744 0.02963495 -0.00027781143 0.0733086 -0.022349343 0.088854454 -0.01166393 -0.10054164
-0.061695237 -0.040361326 0.0077758566 0.022344263 -0.107325055 -0.060283504 -0.14334531 0.06478914
0.073375545 0.046740375 -0.08545356 -0.12752335 -0.11723363 0.105966404 -0.11349817 -0.068282865
0.10515008 -0.046344157 0.104428716 0.014487095 0.1352948 -0.04746257 -0.04931495 -0.05448089

net.1.running_var f4 [64]
00000000: 2da8 ba3e 7402 ac3e bc5b 403e af2a 4d3f
00000010: 26fe 4f3e df07 a03e 75c5 263f 313b f43e
00000020: 94be 9c3e 74a6 a93e e60c 5c3f 26e2 673e
00000030: 47a9 ad3e ce17 fa3d 15c9 823e 7372 053f
00000040: 27aa 8c3e ad13 703e f3a1 8c3e 30e6 3c3e
00000050: 0b47 073e 053d 903e 9a80 f93e 4fe5 bb3e
00000060: 94a6 b23e 293e 523e 0a6f 423e b91c 1b3f
00000070: 059c 113f bacc 3a3f 5525 263f d5ae ce3e
00000080: 602d 1e3f 5b4b 813e 56d1 883f 4a30 773e
00000090: 14e7 863e a051 173e a004 183e 5319 843e
000000a0: b6c6 e53d d10a b63e 0264 013f 901d 033f
000000b0: dc6a 923e 399d 8c3e 3f5a 413e 5933 e33e
000000c0: f3b4 cb3e 0441 f23e e1b9 393e 776e ad3e
000000d0: 1ef2 593e 0cf9 953e 1b3b 073e d29d 1e3e
000000e0: 3b17 a33e 162e 093f 3ce0 153f 5859 323e
000000f0: 9db5 bd3e e24a db3e 9de5 133f f4b8 973e
0.36456433 0.33595622 0.18784994 0.80143255 0.20311794 0.31256005 0.65145046 0.4770141
0.3061415 0.33134806 0.8595718 0.22644863 0.3391821 0.12211572 0.25544038 0.5212776
0.27473566 0.23445006 0.27467307 0.18447185 0.13210694 0.28171554 0.48730928 0.36698386
0.34892714 0.20531525 0.1898767 0.605907 0.5687869 0.7296864 0.64900714 0.4036776
0.61787987 0.25252804 1.0688884 0.24139515 0.26348174 0.14777231 0.14845514 0.2580057
0.11219542 0.35555127 0.50543225 0.51216984 0.28597152 0.274637 0.18882082 0.44375113
0.3978649 0.47315228 0.18137313 0.3387334 0.21283767 0.2929157 0.1320614 0.15489891
0.3185366 0.53585947 0.5854528 0.17416894 0.37052622 0.4283057 0.5777224 0.29633296

net.4.weight f4 [64, 64]
00000000: 51e8 dfbd 5be5 bd3d d6be 6f3d 92e3 5c3c
00000010: 0628 8ebd d9d8 5f3c 2cab 5fbd 86c7 b83d
00000020: 42fb b4bb 5f8d c63d cacc fa3d 5914 293c
00000030: 1e2a 153d 2ced 223d ad30 f43d 07b1 f43d
00000040: c896 403d 9e22 453d d0e6 32bc fa4c 8d3d
00000050: d926 12be 62e6 433d dbf5 d13d e6ec df3d
00000060: 6c45 9b3d fe44 7bbd 53c9 dabc ed5b 1fbd
00000070: eeb0 e13d 6dd1 70bd edbe 93bd a892 0d3e
00000080: 4502 2a3d 23ba f1bb e48d 66bd 7772 d4bd
00000090: 01db 983d 40a3 fd3c c249 d23c e2d8 d8bd
000000a0: 00b9 82bd 3b60 873d d080 083e c777 763a
000000b0: 9433 bebd 04b6 af3d 1621 13bb b6da 103d
000000c0: 05e4 00be fb0d ec3d 678c f0bd 89ef 5bbd
000000d0: 4189 d03d e0a1 9b3c c2fc 2d3d 95c2 d1bd
000000e0: 4838 00bb f7ab 80bc f971 d0bd 2784 893d
000000f0: ec7e c63d 3f5e 3ebd 56fc 953c d865 8b3d
00000100: 6b0a 2b3d efc3 c5bd 71d0 88bc 33d1 cdbd
00000110: af15 5ebd 54b6 943b 90ab f4bd f814 36bb
00000120: 3f0b 2f3d 9fee 86bd 1bee 5bbd 6307 9bbd
00000130: 09d5 813d 2d53 8cbd d0fa 2abd 5142 4fbd
00000140: efbb 363d 38f2 883d fdc7 3f3d b913 9abd
00000150: 9dc2 80bc 2bb4 0bbe 6905 b53d 010a 8dbd
00000160: 74aa 9f3d dec6 11bc b231 25bc a744 c7bd
00000170: 5ed5 9abd 34e3 eb3d ab36 383c ffc8 023e
00000180: a9df 673d 96b1 563d d2f6 ad3d 00a9 54bd
00000190: 44a2 923d 8bd9 bfbb 0e6f f8bd 5aa7 44bc
000001a0: 9acc 3cbd 4d55 bdbc 9f17 9e3d c2ad c6bc
000001b0: 37d0 a13d fb2a 963d 276c 96bd 1c62 ddbd
000001c0: 3cbb e53d 5fc0 3b3d d346 a93d 40fc 00bc
000001d0: 7e20 babd 19e3 bd3d f8b4 d53d 0909 ca3d
000001e0: fda5 bb3d e9c8 743c 0e5a bbbd a268 b23d
000001f0: c9df d6bd 7dbd 943d 6a2d b03d 948f cf3d
00000200: 155d e8bd 3209 c6bd af6c c53d 0a47 1ebd
00000210: ac50 3ebd b115 83bd f735 dbbd d724 9ebd
00000220: 5d93 623d f99c d63d 8ee6 6d3d 6201 18bd
00000230: 223b 063d 54b5 abbd 9163 b53d 4235 c9bd
00000240: 8b7a 7e3d 14a3 d43d 5997 f8bd 8e44 443c
00000250: 1525 013e 1f21 233d a3d7 03be d318 273d
00000260: 0776 21bd 3366 043d 507d c33d 80f3 f2bc
00000270: 5bfb 6cbd 2e76 ddbd 3e75 f83d 2a97 abbd
00000280: a984 a13d 7447 793d f91f 1dbd ae3c d23d
00000290: b2b7 42bd 0235 c4bd b4a4 9a3c 5785 3fbc
000002a0: b945 ba3d f335 533d 67e9 6e3c 2034 083c
000002b0: 1085 693d e76e e7bd 45c4 453d d2bc 373d
000002c0: f1db 023d 84ec 9e3d 7b68 f1bb 3de7 673d
000002d0: a9af eebc a9e1 083d e696 23bd 99b9 b2bd
000002e0: f04f 22bd e604 8f3d ad7d 1a3d 8351 2b3d
000002f0: d8ce 9c3d ddf3 213c adf7 debd 2451 503d
00000300: f15a abbd b06c d13d 118b adbc 43fd d33d
00000310: 442c 1c3d 0b51 3e3d bb7a f93d 13fd 663d
00000320: 6abf 0e3b 69ce 0d3c 7361 293c 3a06 963d
00000330: 0670 c33d dd3a 0b3e 0f4a 48bd de53 143a
00000340: d852 80bd 9502 543c 076e 5dbc e99a b33d
00000350: be1d 5b3d 73ff 40bd b2e4 e33c 600a 38bd
00000360: 9929 963d d50c 0abd 6fbe a2bc 6004 e5bc
00000370: 0b83 3b3d d8ec f13c 308d 37bd f00f 94bd
00000380: 8a2a d8bd 981c fa3c 73ae b33d da6e 87bd
00000390: 30b1 95bd bb29 abbc 9f10 f5bc b63e ce3d
000003a0: de44 a7bd 9da0 8fbd ddd9 d63d faa3 cfbd
000003b0: 26cc 433d e36d cd3d 161a c1bc 645b e83d
000003c0: bc06 183c 03f2 89bd d248 1d3b b259 dd3c
000003d0: c91f 9cbc 940b 51bd bb55 5fbd 930f 7abd
000003e0: 41e9 a33c cde6 e1bd fe99 45bd a857 863d
000003f0: d2ca ca3c e37d 65bd db40 063d a2ba 823d
-0.10932983 0.09272262 0.058531605 0.013481991 -0.069412276 0.01366254 -0.0546066 0.09022431
-0.0055231163 0.09694933 0.12246092 0.010319793 0.03641712 0.039776966 0.11923347 0.11947828
0.047018796 0.048128717 -0.010919288 0.06899448 -0.14272632 0.047827132 0.10251971 0.10933857
0.075816005 -0.061345093 -0.026707327 -0.038906027 0.11020075 -0.058793474 -0.072141506 0.13825476
0.04150607 -0.0073769256 -0.05628766 -0.10373395 0.07463647 0.030961633 0.025669936 -0.10588242
-0.06382942 0.066101514 0.13330388 0.00094020035 -0.092871815 0.085796386 -0.002245014 0.03536483
-0.12586983 0.11526104 -0.117455296 -0.053695235 0.10182429 0.018998086 0.042477377 -0.10242192
-0.0019564796 -0.015707 -0.101779886 0.06714659 0.09692177 -0.0464766 0.0183088 0.068065345
0.041757982 -0.09656512 -0.016700955 -0.10049667 -0.054219898 0.004538337 -0.119467854 -0.0027783494
0.042735334 -0.06588482 -0.053693872 -0.07569768 0.06339461 -0.06851802 -0.0417431 -0.050600354
0.04461282 0.066868246 0.046821583 -0.07523293 -0.015717799 -0.13642947 0.088389225 -0.06886674
0.07796183 -0.008897511 -0.010082649 -0.09729891 -0.07560228 0.11517945 0.011243503 0.12771986
0.056609783 0.052415453 0.08494343 -0.051918983 0.07159856 -0.0058547906 -0.12130557 -0.01200279
-0.04609356 -0.023111964 0.07719349 -0.024252776 0.07901042 0.073324166 -0.07344847 -0.108097285
0.11217353 0.045837756 0.08265462 -0.007872641 -0.09088229 0.09271831 0.10434908 0.098650046
0.09162519 0.014940479 -0.09148036 0.087113634 -0.104919024 0.072627045 0.08602412 0.10134807
-0.11345879 -0.096697226 0.096398704 -0.038641967 -0.046463653 -0.06400622 -0.10703652 -0.077218704
0.055316318 0.10479159 0.058081202 -0.037110694 0.032771237 -0.08384195 0.088568814 -0.09824611
0.062128585 0.10382667 -0.12138242 0.011979235 0.12611802 0.03982651 -0.12875228 0.04079516
-0.0394192 0.032324027 0.09545386 -0.029657125 -0.0578569 -0.108135566 0.12131737 -0.08378442
0.07886631 0.06085916 -0.03836057 0.1026548 -0.047538467 -0.09580423 0.018877365 -0.011689506
0.0909533 0.05156512 0.014582015 0.008313209 0.057011664 -0.1130045 0.04828288 0.044857807
0.031948034 0.077599555 -0.0073671914 0.05661701 -0.029136496 0.03341833 -0.03993883 -0.08726806
-0.039627016 0.06983356 0.03771751 0.041825783 0.0765664 0.009884802 -0.10887084 0.05085863
-0.08366955 0.102258086 -0.021184476 0.1035104 0.038128152 0.046464007 0.12181612 0.056393694
0.0021781572 0.008655169 0.010338175 0.073254064 0.09542851 0.13596673 -0.048898753 0.0005658249
-0.06265801 0.012940069 -0.013515002 0.08769781 0.05349516 -0.047118615 0.027819011 -0.04493177
0.07332153 -0.033703644 -0.019866196 -0.027956188 0.04577927 0.029531881 -0.04481238 -0.07229602
-0.10554989 0.030531213 0.08773508 -0.0661294 -0.073091865 -0.020893922 -0.029915152 0.10070555
-0.08167432 -0.070130564 0.10490773 -0.10138698 0.047802113 0.10030725 -0.023572009 0.113455564
0.009278949 -0.06735613 0.0023999703 0.02702031 -0.019058125 -0.051036432 -0.05452512 -0.06105001
0.020008685 -0.1103035 -0.04824256 0.06559688 0.024754915 -0.056028258 0.032776695 0.06383254

net.4.bias f4 [64]
00000000: 89ef 86bd ae09 803d 7a10 8bbd 25f1 4f3d
00000010: 9c40 e238 3e8c 823d 4e2f d7bd aaaa d63d
00000020: ae33 fcbd d79d 2bbc 2447 a23d e2b3 5cbd
00000030: 02dd 3fbc ca60 333d 16b0 1bbc 6b93 ca3d
00000040: e947 9cbd 55c6 ffbd f86c 1bbd c26e 72bd
00000050: 0a9f dc3c 9216 e1bd 151f adbd ac7d 9fbd
00000060: aede 40bd 5077 83bd fb92 debb 7e38 32bd
00000070: ddca abbd f13a f83d 7d57 6d3c 4712 bdbc
00000080: a7c0 3abb d842 ebbd 93f0 e8bd cf9c 403d
00000090: 9000 18bc 2c52 af3d 0328 bebd 29f5 4f3c
000000a0: b739 a6bd 2ca2 063b 14a8 f6bd 1c1b e03d
000000b0: ed33 5b3d 9947 98bc 804f 343d ada9 803d
000000c0: f08d 3f3d 6ed7 d3bd 343b c9bb d5cc bb3d
000000d0: 8875 e9bd 4fad e2bd 51e3 2cbd 701e 863d
000000e0: ba80 94bd 4531 b53d 2c6a 91bd 02fe 373d
000000f0: ed5a e13d b1e1 dbbc de6d 84bd 59bb 84bc
-0.065886565 0.06251846 -0.06790252 0.050767083 0.00010788554 0.06374405 -0.105070695 0.1048177
-0.123145446 -0.010474644 0.07923725 -0.053882487 -0.011710407 0.043793477 -0.009502431 0.09891399
-0.07630903 -0.12489001 -0.037945718 -0.059187658 0.026931304 -0.10990633 -0.08453194 -0.07787642
-0.047087364 -0.064192414 -0.006792424 -0.043510906 -0.083883025 0.12120617 0.014486191 -0.023080004
-0.0028496177 -0.11487359 -0.11374011 0.047024544 -0.009277478 0.08560595 -0.092849754 0.012692728
-0.08116477 0.002054344 -0.12043777 0.10942671 0.053516317 -0.018588828 0.04402113 0.06282363
0.04676622 -0.10343824 -0.0061410908 0.09169928 -0.113993704 -0.11068212 -0.042208973 0.06548774
-0.07251115 0.08847288 -0.07100329 0.044919975 0.11003671 -0.026841016 -0.06466268 -0.016202616

net.5.weight f4 [64]
00000000: 436b 7d3f d128 813f 753d 7e3f 64ca 833f
00000010: 6f52 823f 07e2 813f f2df 7a3f 6347 813f
00000020: d972 823f 5a3e 833f 932e 803f dc2b 833f
00000030: c691 7c3f f320 833f 3e34 803f 96ad 823f
00000040: e105 7b3f 1058 823f 0e0c 823f dfe0 7f3f
00000050: 945b 803f ceed 7e3f d2b9 803f 28d5 7f3f
00000060: 41fb 803f 64eb 823f c29e 823f a0db 823f
00000070: 4509 7f3f 8d64 823f 1b0a 823f 2ff6 7d3f
00000080: 3f81 7f3f ecd4 823f 6f4d 7e3f a64b 823f
00000090: c010 813f fda9 813f f551 803f c67f 813f
000000a0: f8cd 803f 850b 813f 42a6 813f 53aa 813f
000000b0: 282c 833f 9731 823f 87ce 7e3f 9e8e 813f
000000c0: 8fa7 7f3f f713 833f 319f 7c3f 4085 7d3f
000000d0: d9fe 7b3f edb2 7d3f 8eed 7f3f 07a0 7e3f
000000e0: 5a98 7e3f bf90 7b3f ba20 833f 813e 803f
000000f0: acc0 7f3f ac3a 833f bde7 813f 720a 7f3f
0.98991793 1.0090581 0.99312526 1.029614 1.0181407 1.0147103 0.97997963 1.009991
1.0191299 1.0253403 1.0014213 1.024776 0.9865993 1.024443 1.0015943 1.0209224
0.98055845 1.0183125 1.0159929 0.999525 1.0027947 0.9958161 1.0056708 0.99934626
1.0076677 1.0228086 1.0204699 1.0223274 0.9962352 1.0186936 1.0159334 0.9920377
0.9980659 1.0221229 0.99336904 1.0179336 1.0083237 1.0130001 1.0025011 1.0117118
1.0062857 1.008164 1.0128863 1.0130104 1.024785 1.0171384 0.99533886 1.0121648
0.9986505 1.0240468 0.98680407 0.9903145 0.9843574 0.99101144 0.99971855 0.9946293
0.9945122 0.9826774 1.0244362 1.0019075 0.9990337 1.025228 1.0148846 0.99625313

net.5.bias f4 [64]
00000000: 32e1 423b d6c1 6f3c 010c 9ebb 9bb5 783c
00000010: 2790 a13c e06b d43c 1dd0 97bc f534 a4b9
00000020: 042c 8d3c f30b 933c e285 3abc d72f c33c
00000030: cadc 0abc 7977 423c 6c5f 1dbc 8f24 2b3c
00000040: 5751 83bc 68c0 a03c 093a 5b3b fda7 07ba
00000050: dcbd df3b 969b b6bb 34af b7bb e3df c8ba
00000060: 467c 193c e0ff 613c aff1 423c 9748 6e3c
00000070: ddf3 a3bb 573e bc3c b349 533c 1dc2 26bb
00000080: c8dd f6ba b593 843c b396 c5bb d393 41ba
00000090: f9f3 833c 637b 443c 8fa8 c83b f627 d33b
000000a0: ccb8 033c a4de 453c d048 3ab8 b20e 003c
000000b0: 484e a03c c60a 2a3c 7c1c a43a aefc 32bb
000000c0: b5ba 273c f111 7a3c f85d 19bc ba1d b6bb
000000d0: c744 84bc 9ebf ebba f846 8abb 17d8 8bbb
000000e0: 9514 c0bb b854 89bc 7c8d b03c 3d5c 7d3b
000000f0: c50f 25bc b763 5f3c fa36 653c 4ec8 0ebc
0.0029736278 0.014633616 -0.0048232083 0.015180017 0.019722058 0.025930345 -0.018531853 -0.00031319974
0.017232902 0.017950034 -0.011384459 0.023826523 -0.008475492 0.011869305 -0.00960527 0.010445728
-0.016029997 0.019622996 0.003345134 -0.00051748735 0.006828053 -0.0055727465 -0.0056056026 -0.0015325513
0.009368008 0.0137939155 0.011898442 0.014543674 -0.005003436 0.022978945 0.012895989 -0.002544529
-0.0018834407 0.016183713 -0.0060299276 -0.0007384393 0.016107546 0.011992308 0.0061236094 0.0064439727
0.0080396645 0.012077007 -4.4413668e-05 0.007816004 0.019568577 0.010378545 0.0012520696 -0.0027311253
0.0102373855 0.015263067 -0.009360783 -0.005557743 -0.016146077 -0.0017986184 -0.004219886 -0.0042677033
-0.0058618286 -0.01676403 0.02155184 0.0038659715 -0.0100745605 0.013634614 0.013990158 -0.008714749

net.5.running_mean f4 [64]
00000000: 647d 953e 42b0 123e 3467 8b39 84f8 573e
00000010: c45f aabc 8395 c53d 3ad0 ca3d 0418 5d3c
00000020: 8855 4c3d 3531 6c3e b0b4 fa3d 7250 41bd
00000030: 5615 0bbe 5674 1bbe 9bbd 94be f0de b9be
00000040: c322 903d acc7 77be d1fd 3a3d a30c 3dbe
00000050: 89f5 623d d85f 1e3e 29a9 0fbf ff48 ae3d
00000060: bb9b 7c3e 71c0 90be 1f82 6fbd 602e 53bd
00000070: 9f0d e0be 9e9c 253f 426f 18bd f756 fc3d
00000080: de9e 9b3d eb39 a73c ba73 86be 1adf 5cbe
00000090: 53ca eb3d a1ab 7abe 3360 e4be dbe9 cbbe
000000a0: 0a51 533e 5aea 58bd 36d1 923c 0693 6b3e
000000b0: b9e1 8f3d 9a04 d33c b464 993e cbd4 99bd
000000c0: 3576 1d3e 5e3c 03bf 5860 2dbe b450 7abc
000000d0: 7242 f83d 3345 c93c df27 8ebe c9b8 64be
000000e0: 999b 713e 2eea 0c3e 3664 e4be a621 e13d
000000f0: 8199 7bbd 0a2b f8bc b322 ce3e f187 f3bc
0.29197228 0.1432505 0.00026589038 0.21090895 -0.020797618 0.09647658 0.09902997 0.013494495
0.049886256 0.23065646 0.12241495 -0.04719586 -0.13582358 -0.15181097 -0.29050907 -0.363029
0.0703788 -0.24197263 0.045652214 -0.18461852 0.05540994 0.15466249 -0.5611749 0.08510017
0.24668781 -0.2827182 -0.058473703 -0.0515579 -0.43760392 0.64692104 -0.03721548 0.12321275
0.07598661 0.02041336 -0.26260167 -0.21569481 0.115132 -0.24479534 -0.44604644 -0.39826855
0.20636383 -0.05295787 0.017922025 0.23005304 0.07025475 0.02575903 0.29959643 -0.0751129
0.15377124 -0.5126399 -0.16931283 -0.01527803 0.121220484 0.02456913 -0.27764794 -0.22336115
0.23594512 0.13761207 -0.44607705 0.10992746 -0.06142569 -0.03029396 0.40260848 -0.029727908

net.5.running_var f4 [64]
00000000: 237f 043e 4ff9 493e 5004 133e 83e1 223e
00000010: dde1 043e 40df 223e e054 573e b62a 383e
00000020: e4b2 543e 808c 123e d5d3 4a3e fc41 303e
00000030: 87dd 123e 59d6 7d3e ce72 a73e 21d5 3f3e
00000040: 29fd 733e d0eb 393e 82e2 003e 5a9a 7a3e
00000050: b9cc 3c3e eee1 5c3e b18c 7e3e f75a 1b3e
00000060: 3bef 3c3e 8597 143e 27ab 243e 4adb 4c3e
00000070: 1eae 4b3e 9364 4a3e 3d06 173e 53de 6e3e
00000080: 8467 143e 00eb 233e d9ea 553e b499 123e
00000090: 8ca4 093e 5795 173e 902c 343e b0fb 213e
000000a0: 6ceb 1f3e 2a3c 973e 56dc 743e f556 213e
000000b0: c6e1 1d3e 9082 483e c819 2f3e 4c69 643e
000000c0: bd64 153e 0346 8e3e 4b69 fa3d a263 a23e
000000d0: ab8e bb3e ab21 413e 6833 863e 8cf7 283e
000000e0: d20e f93d 6d42 793e d090 303e 1723 503e
000000f0: e48d 283e 1567 1e3e e3ff 3e3e 50b7 3d3e
0.12939124 0.1972401 0.14357114 0.15906338 0.12976785 0.15905476 0.21028471 0.17985043
0.20771366 0.14311409 0.1980737 0.17212671 0.14342318 0.24788798 0.32704777 0.18733646
0.23827042 0.18156362 0.12586406 0.24472943 0.1843747 0.2157056 0.24858357 0.15171419
0.18450634 0.14510925 0.16080914 0.20005527 0.19890639 0.19764929 0.14748473 0.23326997
0.14492613 0.16007614 0.20890369 0.14316446 0.13441676 0.14803062 0.17595124 0.15818667
0.1561715 0.2953809 0.23912176 0.15755828 0.15418157 0.19581056 0.17099679 0.22305793
0.1458921 0.2778779 0.12227114 0.3171664 0.36632285 0.188605 0.26211095 0.16500682
0.1216103 0.24341746 0.17242742 0.20325886 0.16460377 0.1546901 0.186523 0.1852696

net.8.weight f4 [2, 64]
00000000: 8813 30bd bbdc e8bd bf02 8d3c feca ae3d
00000010: 317f 24bc 6aa2 fe3d c153 003d 6e94 d1bd
00000020: c4c6 053d e634 8a3c 955e 9f3c 8dbe efbd
00000030: 8cb8 83bd 260c 923d f10b 323d 21d1 04be
00000040: 8b5f e93c 104e ea3d 54fe 113d 4c94 5dbd
00000050: 1a40 643d 29df bc3d acc7 b1bd ee8c fd39
00000060: 906e cfbd 64e7 7cbd 8c47 46bd 2d51 80bd
00000070: 5432 ca3d 6277 623d 552e 993d f92a 673d
00000080: 42f4 1dbd c991 dabc 962d 663d af0d cbbd
00000090: 0d2e acbd 38b3 b53d 8051 f5bc ec48 a8bd
000000a0: 9865 9bbd f534 063c 346a 9b3d 6f92 5dbc
000000b0: 5788 ec3d 2343 c4bd 1de5 b23d ea09 843c
000000c0: 963a 853d 4f27 143e dea5 22bd f6d3 cb3d
000000d0: db25 b6bd 1964 acbd 716f 243d 79c2 55bd
000000e0: bfbe dd3d 86d0 e03c 96aa ef3a 6757 a5bc
000000f0: 698a 53bd 27dd 133e 6b87 e23d 9025 e8bd
00000100: 929e 06bd 91dd e43d 3425 59bd 3bef 70bd
00000110: 2994 06be b26d 84bd d328 423d b9de 4f3d
00000120: 2421 b4bd 7ee8 ce3d c277 6cbd 7a62 3fbd
00000130: 767d e4bd 8f77 0e3e 060b b83d 9820 983d
00000140: 793f 303d 093f a43c b2e9 8e3d 3a4f 1cbd
00000150: ff36 c03d 535e 3a3d 9e82 9bbc 1fa2 4abd
00000160: 37b9 ea3d d4dd 893d 80ea 0cbe 7330 2b3d
00000170: 9b6e 42bd 6134 dcbc 0d2a 133c e873 c73c
00000180: 2471 0b3d 7403 abbd c251 7ebc ca8c bc3d
00000190: 8bcb 013d 2e92 f9bc 5a1d a43d 2c29 e13d
000001a0: 3036 eabd 372d d3bd 392d e1bb 6e28 583d
000001b0: 1279 a2bd 6a4d 6abd 4ae7 e33c 8afa ff3d
000001c0: defa f73d 935f 1bbd 9465 a73d e55c c93c
000001d0: ce6c abbd 0302 88bd 6f7d a03d 54c4 fd3c
000001e0: d791 ad3d ac29 c83c 7358 d5bd 7e46 8bbd
000001f0: 4a09 603d e39d 373d 6b57 b9bd a6a0 ff3c
-0.042987376 -0.11370226 0.017213224 0.085348114 -0.01004009 0.12433322 0.031329874 -0.10233389
0.03266026 0.016870927 0.01945428 -0.117062666 -0.06431684 0.071312234 0.04346842 -0.12970401
0.028487941 0.114406705 0.035642937 -0.054096505 0.055725195 0.09222252 -0.086806625 0.0004836092
-0.1012851 -0.06174411 -0.048408076 -0.06265483 0.098728806 0.055289634 0.0747954 0.056437466
-0.03856302 -0.026680844 0.056195818 -0.09914719 -0.08407221 0.08872074 -0.029946089 -0.08217034
-0.07587737 0.008191337 0.07588616 -0.013523682 0.11549442 -0.09583118 0.08735106 0.016118009
0.06505315 0.1446812 -0.039708965 0.09952538 -0.08893939 -0.084175296 0.04014534 -0.052187417
0.108273976 0.027443182 0.0018285092 -0.020183278 -0.05164567 0.14439832 0.11060985 -0.113352895
-0.03286607 0.11175073 -0.053013995 -0.058821898 -0.13142456 -0.06466235 0.047402214 0.050749514
-0.087953836 0.10102938 -0.057731397 -0.046724774 -0.11156742 0.13912795 0.089864776 0.07428092
0.043029282 0.020049589 0.069781676 -0.038161494 0.0938549 0.04550011 -0.018983182 -0.049471017
0.11461108 0.067317635 -0.1376133 0.04179425 -0.047468763 -0.026880445 0.008982194 0.02434726
0.034043446 -0.08350268 -0.015522422 0.09206541 0.031688254 -0.030465212 0.08013411 0.10994181
-0.11436117 -0.103113584 -0.006871846 0.05277293 -0.079332486 -0.057202734 0.027820248 0.124989584
0.12108396 -0.037932944 0.08173671 0.024580428 -0.08370362 -0.06641009 0.078364246 0.030977406
0.08475082 0.024433933 -0.10417261 -0.06800555 0.05469636 0.044828307 -0.09049877 0.031204533

net.8.bias f4 [2]
00000000: 05a1 cf3d 6502 493d
0.10138134 0.04907455
