data/weights/feature_mlp.pth (torch, 38091 bytes, 14 tensors)

net.0.weight f4 [64, 50]
00000000: 8a9d 0f3e 12be 1f3e 13c4 92bd 4f23 b43d
00000010: 38b9 dabc e2a4 163d 41d3 87bd ba7c a33d
00000020: cd79 f43d 4844 cbbd c786 f93d 7094 fd3c
00000030: 6e61 ce3d c607 643c b501 853d 1b18 74bc
00000040: 7e74 023e 92d2 fd3c aa77 90bd e95d f73c
00000050: 45f5 84bd ef22 8bbc d55a 61bd 40be b43d
00000060: 115b f8bd f5fe 79bd a9f2 30bd ae20 a6bd
00000070: f09b 753c 3214 0fbe 124c fa3d f6e1 ebbd
00000080: 124a cd3d 21f5 0a3d d284 2bbd 04f6 ae3d
00000090: 8f4c 0a3c d14f de3d f5ca 813c 4298 16bd
000000a0: a1b9 203d 05c4 2ebd e40d 263d bf9c cc3d
000000b0: a85a a23d 76fb 9ebd ad0b 513d b6c8 463c
000000c0: 5d77 7b3d bfea c5bd e763 22be 9118 babd
000000d0: d1d1 a4bd a94e 193e e955 093d 9428 473d
000000e0: fcf6 163d 54f7 cabb dbc1 e43d 839a cabd
000000f0: ef0e ebbb faa3 d5bd 525e 223d 22c5 46bd
00000100: 8dc0 373d f73d d7bc d7d1 f53d c435 b7bd
00000110: b3cb a9bd bab0 9ebd 11a7 093e d27a 5b3d
00000120: 318d 0a3e 9141 d3bd 9fa6 ffbd 07f2 c2bd
00000130: c0d1 c5bd 1948 2b3d 7992 203d 0f31 e53d
00000140: 3e02 9bbd 0197 d0bd 0389 6f3d 8b38 93bd
00000150: 5e82 973d 4ba4 18bd 9756 a33d 12ae e5bd
00000160: 9690 afbd 27f5 143d 8de1 de3c 9b1e 05bd
00000170: ec04 ba3d d1f9 d83d ce1a c4bd 0a23 81bd
00000180: cd2c 163e 3ad1 debc 66e7 1fbd 14db dabd
00000190: f4ec 43bd 17e1 883d cc1c 36bd 8ec4 10be
000001a0: 082f 0a3d 9912 94bd c45b c0bd 3246 64bd
000001b0: d094 e2bd f89e a4bd 637f 243e a9a0 3a3d
000001c0: cd09 5f3d 3a1c 05be 4271 95bd f9a0 a6bc
000001d0: 6c2b 403d dab7 c2bd 27b0 37bd 5fa9 89bd
000001e0: e87a 1d3d 04e0 8dbc 4a84 a63c aa7f 95bd
000001f0: bc9b a4bd 7994 88bd fb27 11bd 466d d0bd
00000200: d447 093e 82af 17bc 2290 093e caad 6b3d
00000210: 8c89 f8bd 5508 d23d cd4f debc d980 3bbd
00000220: 9966 e4bd 8e05 07be 0291 503d 7bcb f6bc
00000230: 821f 6e3d 9226 f0bd 77bc c93d 9cc9 e7bd
00000240: d0fc c1bc b3fb b43c a648 6e3d a147 e43d
00000250: b778 0d3e 330e e6bd 0c7c 693d e5c6 27bd
00000260: 643e ffbc 6374 01be b075 f83d 4f6e d4bd
00000270: f488 943d 6bbc 1f3d 894c 1e3d 51f5 b0bd
00000280: 0beb 013e 4bb9 f93c e91c 473c cada 0abe
00000290: 3c38 5c3d 1c76 dfbc 3854 8dbd b7f8 f93d
000002a0: 71f8 e53c cfdc a7bd 5435 97bd 6113 36bc
000002b0: 614e 9a3d d55d 10bd e6bf abbd 1fdf 43bd
000002c0: 4aed f3bd 9980 153d 09fb c13d e563 15be
000002d0: 5b36 e73c 8f6c 983d 6a7d 993c c298 69bd
000002e0: 44d5 873d dd7d 873d a2c4 433d cb81 c0bc
000002f0: caf8 16bd 2ba4 513c 5afe 00bd 736d 47bd
00000300: 0a06 a83d 2c11 e93d f02a 87bc 8ac1 21bd
00000310: 3a87 38bc 7268 b2bc 92cf ea3c a7aa 273d
00000320: 196e 07be 15f8 53bd 71ae f23d 2256 803d
00000330: d8a1 88bb cf11 93bd 584d 9cbd 1528 f8bd
00000340: 606b 3cbd c0ea 423d 06b2 dc3d 6e9f af3d
00000350: 6a2d e2bd a3f9 8abd 77bb aabc 6c46 053e
00000360: 038d ce3b 5fe0 8fbc 0f05 9d3d bfcb 31bd
00000370: 47c6 abbd 2b6c ce3d f16a 64bd 304f b8bc
00000380: c4f4 0bbe 057a c43d 277c c63d b116 343d
00000390: 8a86 ddbd 43e2 18be 08ea fdbd 2e7d c73d
000003a0: 064c 753d 772a e03d 94f3 803d e0ab e03c
000003b0: 583a 0abc 0d8e eabd 45f8 05be 9c77 11be
000003c0: 8df1 463d af38 a1bd f8ac 09bd 1445 aabd
000003d0: 31ff ffbc b136 d7bd f74e c3bd b418 503d
000003e0: d3ec 78bd 1d4c ac3d 0d82 00bd 81e4 b6bd
000003f0: 1cdc 39bb b75e 5fbd 514a 00bd aba0 f8bd
0.1402494 0.1559985 -0.071663044 0.08795797 -0.026699647 0.03677834 -0.0663209 0.07982774
0.11937294 -0.09925133 0.1218391 0.03095457 0.10077177 0.013917869 0.06494466 -0.014898325
0.1273975 0.030984197 -0.07054074 0.030196147 -0.06492094 -0.016984431 -0.055018265 0.0882535
-0.121267445 -0.06103416 -0.04320017 -0.08111702 0.014990792 -0.13972548 0.122215405 -0.11517708
0.100238934 0.03392518 -0.041874714 0.085430175 0.008441105 0.108550675 0.015843848 -0.036766298
0.03923953 -0.042667408 0.04054059 0.099908344 0.079274476 -0.07762806 0.051036526 0.012132814
0.06139313 -0.09663915 -0.15858422 -0.09086717 -0.08047832 0.14971413 0.033529196 0.048622683
0.036856636 -0.0061940346 0.111697875 -0.09892752 -0.007173411 -0.10431667 0.039640732 -0.048527844
0.044861365 -0.026274664 0.120029144 -0.08945802 -0.08290806 -0.07748552 0.13442637 0.053583927
0.13530423 -0.1031524 -0.12482952 -0.09518819 -0.09659147 0.041816805 0.039202187 0.11190998
-0.07568787 -0.10185052 0.058480274 -0.07188519 0.073979124 -0.037266057 0.079755 -0.11214842
-0.085724995 0.036366608 0.02720716 -0.03249989 0.0908297 0.10594524 -0.09575425 -0.06305511
0.14665528 -0.027199376 -0.039039038 -0.10686317 -0.047833398 0.066835575 -0.044461057 -0.1413748
0.03373626 -0.0723011 -0.09392503 -0.055731006 -0.1106354 -0.080381334 0.16064219 0.045563374
0.054452706 -0.12999049 -0.07296993 -0.02034043 0.04691641 -0.09507723 -0.044845726 -0.06721758
0.03844729 -0.017318733 0.020326752 -0.072997406 -0.080375165 -0.06668944 -0.03543852 -0.10177092
0.13406307 -0.009258153 0.13433889 0.057538785 -0.1213561 0.102554955 -0.027137661 -0.045777176
-0.111523814 -0.13185713 0.05091954 -0.030126324 0.058135517 -0.11726107 0.098504 -0.11317751
-0.02368012 0.022092676 0.05817475 0.11146475 0.1381558 -0.11233177 0.057003066 -0.040961165
-0.03115768 -0.12642054 0.12131822 -0.10372602 0.07252684 0.03899805 0.03864721 -0.086405404
0.12687318 0.030483862 0.012152889 -0.13560024 0.053764567 -0.027277999 -0.06900829 0.12205642
0.028072568 -0.08196413 -0.073832184 -0.011113019 0.07534481 -0.035245735 -0.08386211 -0.047820207
-0.11910494 0.036499593 0.09471709 -0.14588888 0.02822416 0.07442581 0.01873656 -0.057030447
0.06632474 0.066158034 0.047794946 -0.02349939 -0.036858357 0.012795488 -0.03149257 -0.048688363
0.08204277 0.113802284 -0.016499966 -0.039491214 -0.011262709 -0.021778319 0.02866343 0.04093423
-0.13225593 -0.05175026 0.11849678 0.062664285 -0.004169684 -0.07181131 -0.0763194 -0.1211702
-0.04600084 0.047587156 0.10776143 0.08575331 -0.11043818 -0.06785896 -0.020841343 0.13015145
0.006303431 -0.017563043 0.076669805 -0.043407198 -0.08387428 0.10079225 -0.05576605 -0.022498697
-0.1366759 0.09593586 0.09691649 0.043966953 -0.10816677 -0.14930062 -0.123981535 0.09740673
0.059886955 0.109455995 0.06296459 0.027425706 -0.008436762 -0.11452875 -0.13082989 -0.14205784
0.048570205 -0.0787214 -0.03361222 -0.08313957 -0.031249614 -0.105084784 -0.09536546 0.05080481
-0.06077273 0.08412955 -0.031374026 -0.089303024 -0.0028359955 -0.054533686 -0.031320874 -0.1214002

net.0.bias f4 [64]
00000000: cfc5 dcbd 32e4 713d 4bfe a23d 3aba fd3d
00000010: 89b7 0abe bd94 023e 0288 db3d f8c9 0e3e
00000020: 76f0 9d3d d7d6 8fbd 24c2 dc3d 1420 063e
00000030: d91a 65bd 118e bdbc 9186 e23d 6361 e93d
00000040: 1603 c13d d5fb dc3d 0c62 95bd 952f d7bc
00000050: 87f2 6abd b7d3 963d a52b 123d eb51 debd
00000060: ec92 95bc 2961 edbd 9ae7 08be 97b6 043e
00000070: 34a9 96bd 7082 833d ea3e febc 1df1 edbc
00000080: f03e 19ba cc8a e23d c1d5 9cbc c5c1 ef3d
00000090: 578b ac3d 6954 c63d 1a7e 03be 7db3 85bd
000000a0: 0cb8 edbd b438 f9bc 1029 eebc b67b f03c
000000b0: f4e1 013e 389e 813d 7942 c8bd c51d b6bd
000000c0: 0556 dd3d 7085 613c a110 233d 8b23 97bd
000000d0: 8608 9bbc 344a 273d 492e bfbd dcd8 bc3d
000000e0: 2ea1 933d 04a4 a8bd 247d 68bd 4882 07bd
000000f0: a43c ae3c 8bdd 53bd 9f2d 0a3e c4bd 0abe
-0.107799165 0.059055515 0.07958659 0.123890355 -0.13546576 0.12752052 0.10719301 0.13944232
0.0771188 -0.07023399 0.10779217 0.13098174 -0.055933807 -0.023139032 0.11060823 0.11395528
0.09424417 0.10790221 -0.072940916 -0.026267806 -0.0573602 0.073646 0.035686154 -0.10855468
-0.018258534 -0.115907975 -0.13369599 0.12960277 -0.07356492 0.06421363 -0.03103586 -0.029045636
-0.0005845865 0.1106163 -0.019144895 0.117068805 0.084250145 0.09684069 -0.12841073 -0.06528375
-0.1160737 -0.030422546 -0.029072315 0.029355865 0.1268385 0.06329006 -0.09778304 -0.08892397
0.108074225 0.013764724 0.03981078 -0.07379826 -0.018924963 0.04084225 -0.09335 0.0922105
0.07208477 -0.082344085 -0.05675997 -0.03308323 0.02126915 -0.05172495 0.13493966 -0.13548952

net.1.weight f4 [64]
00000000: ad84 813f a7bd 803f a49a 7b3f ef06 813f
00000010: 44d9 7b3f d22f 7b3f 7ea3 7c3f 8b36 7d3f
00000020: 83a4 7e3f fe15 7b3f 277e 7a3f 09e5 803f
00000030: a3ed 7b3f 2e40 7a3f 5333 7f3f 9c54 7b3f
00000040: a4ca 7a3f 13e4 7a3f a510 7b3f f1de 813f
00000050: 91ff 783f 9704 813f b11f 7e3f 78c4 7b3f
00000060: 95ac 7d3f ad28 813f 9e1e 7d3f b5ce 833f
00000070: 3d29 813f ed2f 843f 4251 7b3f 7f45 833f
00000080: 1fee 813f 7a0c 823f f958 7d3f f987 803f
00000090: 489e 7b3f a985 803f 7600 7c3f 2b8b 783f
000000a0: 202c 813f f224 803f 3274 803f c39c 7b3f
000000b0: 7ba9 833f 5c90 7e3f 9b87 7e3f 4241 803f
000000c0: 406d 823f ee70 803f d419 7a3f 2a02 803f
000000d0: c615 813f 3f9b 7c3f 5c9b 823f 2ba7 7d3f
000000e0: 511f 803f 92ae 7d3f fe39 7d3f ff71 7f3f
000000f0: d25e 843f dfd0 803f a6a7 843f 794c 833f
1.0118614 1.0057877 0.9828284 1.0080241 0.98378396 0.98119843 0.9868697 0.9891135
0.99469775 0.9808043 0.97848743 1.0069896 0.9840948 0.9775418 0.9968769 0.9817598
0.97965455 0.98004264 0.9807227 1.0146161 0.97264963 1.0079526 0.9926711 0.9834666
0.99091464 1.0090538 0.98874843 1.0297457 1.009071 1.0327126 0.98170865 1.0255584
1.0150794 1.0160058 0.98963886 1.0041496 0.98288393 1.004079 0.98438203 0.97087353
1.0091591 1.0011275 1.003546 0.98286074 1.0286096 0.99439025 0.9942567 1.0019915
1.018959 1.0034463 0.9769566 1.000066 1.008477 0.98674387 1.0203662 0.99083203
1.0009557 0.990945 0.98916614 0.9978332 1.0341437 1.0063742 1.0363662 1.0257713

net.1.bias f4 [64]
00000000: a019 0a3c aa4d 323b a3e3 7139 fc2c 483c
00000010: 3186 fabc 7bab b3bc c7ed 90bb d27e 15bc
00000020: 99f2 9d3b 0b41 70bc 19dc b1bc c019 0c3c
00000030: 3938 45bc f5dc c0bc ba59 dd3b 4e1d 50bc
00000040: d15b 39bc 5814 7cbc 16ad 31bc 1ec4 103c
00000050: 0e1b d6bc b595 5b3a 5a10 49bc de85 f9bb
00000060: 1983 c03a 69bc 1e3c 8f61 15bc b520 1b3d
00000070: fb43 5c3c 82f3 f63c 603a 2dbb 7c20 ea3c
00000080: 3575 ae3c d692 eb3c 8181 2dbc df2a 823b
00000090: c6c1 01bc 44de 943c af16 35bc 3cf7 84bc
000000a0: 3c55 813c 68ed dabb f22d 1b3c 3e81 c5bb
000000b0: 923d a03c 1b15 c33a f4cc 3bbb e7da aa3c
000000c0: af38 fc3c 4ab4 523c 684e 40bc e34d a33a
000000d0: ca6b 663c 5c59 bbbc c506 2a3c 6969 bebc
000000e0: 910a 4c3c 8bca 623b 9b08 54bc 2c70 11bc
000000f0: 6eb6 053d ad03 413c e1b8 293d 038b 963c
0.008428961 0.0027206936 0.00023068352 0.012217756 -0.030581566 -0.021932354 -0.0044228765 -0.009124475
0.0048201797 -0.014663945 -0.021711396 0.008551061 -0.01203733 -0.02354286 0.006755081 -0.012702299
-0.011313395 -0.01538571 -0.01084449 0.0088358205 -0.026135948 0.0008376495 -0.012271965 -0.007614835
0.0014687508 0.009688475 -0.009117498 0.03787299 0.013443942 0.03014541 -0.00264325 0.028579943
0.021296123 0.02875654 -0.010589958 0.003972396 -0.007919734 0.01817239 -0.0110527715 -0.016231172
0.015787713 -0.006681133 0.009471403 -0.0060273698 0.019560609 0.0014883609 -0.0028656097 0.020856334
0.030788748 0.012860367 -0.0117374435 0.0012459125 0.014063785 -0.022869758 0.010377591 -0.023243623
0.012453691 0.0034605588 -0.012941505 -0.0088768415 0.03264468 0.0117806615 0.04143608 0.018376833

net.1.running_mean f4 [64]
00000000: eaf2 d4bd 1cd0 6d3d b121 863d ccc5 0b3e
00000010: fb11 00be 3970 113e c0e1 053e a5a0 f03d
00000020: 0a54 843d 9977 9ebd c130 ab3d 1bc0 0d3e
00000030: 4617 33bd 1e2c 29bd 0b1b cd3d bb87 e83d
00000040: f46e f13d 47c3 df3d 1f14 5abd 38cc 09bd
00000050: f9d3 83bd 8d36 b13d f336 623d 2406 b1bd
00000060: 2921 91bc 8971 debd 2f8b 05be b4a6 043e
00000070: 44c6 98bd 60cb 823d 3cfb fdbc 0a51 9bbc
00000080: ea93 0f3c 696b e73d 5cc0 d4bc a521 0e3e
00000090: 4484 a13d 89fd b43d 2ca0 09be b55f 5fbd
000000a0: f806 0dbe 3695 29bd a22a 8cbc 03e7 863d
000000b0: 87f4 0e3e 629a 823d f618 e4bd d982 adbd
000000c0: a7d0 cc3d 30a1 b03c 0bcd af3c 79df aebd
000000d0: ade1 adbb b07a ee3c edcb d2bd 34ef e73d
000000e0: eedd 8a3d 0bad adbd 4e6a 7ebd e118 36bd
000000f0: 901e c53c cc0c 4dbd 9768 123e da32 09be
-0.10397895 0.058059797 0.06549395 0.13649672 -0.12506859 0.14202966 0.13074398 0.117493905
0.06461342 -0.07737655 0.083589084 0.13842814 -0.043723367 -0.04130184 0.10014924 0.113540135
0.11788741 0.10925918 -0.053241845 -0.033642024 -0.06436915 0.08652983 0.055228185 -0.08643749
-0.017716007 -0.10861499 -0.13041376 0.12954217 -0.07459691 0.06386447 -0.031003587 -0.01895954
0.008763293 0.11299784 -0.02597063 0.13880022 0.07886556 0.088374205 -0.13440007 -0.054534633
-0.1377219 -0.041402064 -0.017110173 0.06587031 0.13960467 0.063771024 -0.111375734 -0.08472223
0.10000735 0.021561235 0.021460077 -0.08538718 -0.0053064437 0.029111236 -0.10292802 0.11324921
0.06780611 -0.08480271 -0.0621131 -0.04445732 0.024062425 -0.050061032 0.1429771 -0.13398305

net.1.running_var f4 [64]
00000000: adda 933e 6792 373e 8d36 0d3f 018c e73d
00000010: f3a3 103f 2f4d 913f 6f71 633f a736 053f
00000020: 22b0 3a3e fcb0 ef3e 7eef a93e 6405 9a3e
00000030: babb 053f 77d8 ba3e 4429 cf3d 2211 a63e
00000040: 5ea5 3a3f 02f4 4f3f e4d7 1f3f 326a 883e
00000050: 44e6 953e 3fbe c43e 3666 633e 2d88 713e
00000060: b516 4c3e 1669 a43d d360 213e 5ca0 a83d
00000070: 7548 4d3e 5904 693e 5eb7 8a3f e8b0 d43d
00000080: d977 2f3e 6fce 983d 8719 223f 128a 493f
00000090: 7ddc 563e c6e8 8a3e 4a1f cc3e b0ec 153e
000000a0: 8c2e 813e d6f0 da3d 07fb 1c3f edb9 513f
000000b0: 67f0 0d3e 28bd 193f 5c87 3f3e dec1 843e
000000c0: 9713 1c3e 6c69 253e b044 ca3e 3fe0 b03e
000000d0: 500d f13d 5a96 293f faa0 653e 337d 273f
000000e0: e57f 0d3e dcbe 703e bec7 893e d0f4 043f
000000f0: deac 263e f22b 863e 0498 1d3e 24c8 743d
0.28877774 0.17926942 0.5516136 0.113060005 0.56500167 1.135168 0.8884496 0.5203652
0.18231252 0.46814716 0.3319053 0.30082238 0.52239573 0.36493275 0.10115293 0.32434946
0.7290858 0.812317 0.624388 0.2664352 0.2927724 0.38426396 0.22206959 0.23587103
0.19930537 0.08027856 0.15759592 0.08233711 0.20047171 0.22755565 1.0837209 0.10385305
0.17135562 0.07461249 0.633202 0.78726304 0.20982547 0.27130717 0.39867622 0.1464107
0.25230825 0.10690467 0.6132054 0.81924325 0.13861237 0.60054255 0.18703979 0.2592916
0.15241848 0.16153497 0.3950553 0.34546086 0.11770117 0.66245043 0.22424689 0.65425414
0.13818319 0.23510307 0.26910204 0.51936054 0.16276881 0.26205403 0.1539002 0.05976118

net.4.weight f4 [64, 64]
00000000: 3564 90bd b2a9 b4bd 7253 693c 17d0 e93c
00000010: 0159 4dbd ba9e f03d 15d0 d6bd 0a0e 0d3d
00000020: 4d16 6fbd 638c a5bc 019f 06be d0a5 a8bd
00000030: 7bb2 e7bd cabf 473d 6c50 10bd 8781 9e3d
00000040: a8e9 89bd 08d4 d9bc 69cd 693c 4dea c13d
00000050: 87d4 4cbd abd9 af3d 4c1b db3c 65c5 a23d
00000060: 18ee 963d 6fb4 633d a645 27bd 4417 47bd
00000070: c869 043d b21b 623d 1919 943b 20d2 4c3d
00000080: 3b02 8bbd c455 9f3d 8366 d5bc 9d91 99bd
00000090: 2c49 97bd 5cb9 c7bd 9908 993c 56bc afbd
000000a0: d105 20bd 75f2 1b39 72fa 7ebd 9135 923b
000000b0: 2e75 80bc 1848 3f3d eee1 d03d ff0c b0bd
000000c0: 33a4 943d b30f 1abb 7b82 5fbd fbaf 60bd
000000d0: 4bdd a63c c2c3 7c3c e638 4d3b becc 86bd
000000e0: c84b 853d 585d ff3c 84ac 02be c2a3 17bd
000000f0: 5e3d 99bc 2d29 7abd 8151 72bd 2190 bdbd
00000100: f478 033e 8fc1 ffbd 0a15 e93d b4e1 bdbd
00000110: 7f83 43bd 7ff6 6fbd 0c62 40bd 35b8 0a3d
00000120: 3b48 893d 8b4f b2bd 6d8b 7abd 69c5 7c3d
00000130: 6243 823a 6d8b 943c 4398 a73d 214b d6bc
00000140: d91e 77bd 5a2f 6c3d 0401 22bd 3fc3 cabd
00000150: 07e3 94bd 4c97 3cbd 54af fc3d c207 a93c
00000160: 6678 303d cde2 85bc b511 c7bd f011 5c3d
00000170: bf3a 13bd d940 77bd d27a c93d c6ac bdbd
00000180: 63b0 2a3d 8f48 f7bd 3629 483d 1808 903d
00000190: db49 02be ff96 5c3d f710 463c 5d4a 8dbd
000001a0: e99b c93d 84e1 923d 1d7f 2d3d 51ac 42bd
000001b0: ed0c 05bd 5c32 45bd ce56 523d aee2 ae3c
000001c0: 4774 b2bd 3003 dc3d 32ab a23d a048 6fbd
000001d0: 00e7 163d 4c38 88bd fa0f 553d a561 d13d
000001e0: ef8d c9bd 49e8 4dbd 5c6b eabc edb2 cf3a
000001f0: d66d aabd 2545 92bd 089b c13c 2e35 1bbd
00000200: c1d9 b23b 301e 6c3c 7a17 2e3a 5e91 2dbb
00000210: a168 ee3c 3521 a739 ec16 f73c ab33 b03d
00000220: 5773 5dbd b78b 87bd 320c 443d 2703 c0bd
00000230: e38c 803d 55a1 8d3d d55f 6e3c 757a 36bd
00000240: c158 1b3c 6599 02be d097 bdbd 6330 093e
00000250: 2370 e6bd f364 c7bd af25 63bd c280 9b3c
00000260: 1844 be3c d929 12bd 9997 2abb ee72 0d3c
00000270: ee78 df3d bc4b 133e 7bcb 4d3d 65fc a83c
00000280: c65c 963d c244 90bd d774 423d edeb 99bd
00000290: 62c5 cf3d acb8 ccbd 45f6 1a3d f6e7 dcbd
000002a0: 7cc5 9d3d c813 01bb 75c7 c93d 4911 95bd
000002b0: e6b4 6a3d 47ad b6bd db9a 8abd 42c0 223d
000002c0: 0749 d93b d40b dcbd f08d cdbd f740 d1bc
000002d0: b58a 373d b4bc e03d 78d5 963d c4c2 d33c
000002e0: c418 98bd 4bb9 04be d414 fe3d 7c82 7bbd
000002f0: ec16 0cbd 6008 f6bd aa45 e7bd 4b43 673d
00000300: 10c4 05bd 19c2 393c 518c d2bb 055c 1a3c
00000310: 1e31 f5bc bc2e dfbb 8c0c 563d 8cbb b33d
00000320: 61d1 e63d 845c d9bd 5414 e8bd 924d b3bc
00000330: e25b 86bc dcb4 843d 40d0 013e 67f6 253d
00000340: 5edd d5bd 351e 4fbc 3528 a23d 53ef 2f3d
00000350: cf5f c9bd b07a 8e3b 8c16 ffbd 4852 45bd
00000360: 8daf c33d f1b3 2ebd 685b b43d afc4 c8bd
00000370: c495 d73d eee3 573d e23c 9e3d c741 f53c
00000380: 6fce f93b 19d0 73bd c7dc a4bd c52f bcbd
00000390: 0ab0 bd3d 8deb 4ebd 9d46 04bc 6d3c fabd
000003a0: 1c4f 0c3d 8a7a f1bc a957 dabd 920d 5a3b
000003b0: 18b7 02be cec0 82bc 2575 c3bd 9d66 843d
000003c0: b078 acbd 1437 5f3c ec9b a53d bde4 dabd
000003d0: ae0a 973d a581 bb3d 15ce a0bd d354 463c
000003e0: 1a09 0c3d fd80 ee3d de16 bb3d 1966 ddbd
000003f0: 5504 d5bd 9900 ecbd 725c 69bd 0d13 00bc
-0.07050363 -0.08821429 0.014241086 0.028541608 -0.05013371 0.11749025 -0.10488907 0.034437217
-0.058370877 -0.020208543 -0.13146593 -0.08234751 -0.11313339 0.04876689 -0.035232946 0.07739549
-0.067340195 -0.026590362 0.014270165 0.094685175 -0.05000737 0.08586439 0.026746415 0.07947806
0.073696315 0.055591997 -0.040837906 -0.048606172 0.032327443 0.055202194 0.0045195934 0.05000508
-0.06787535 0.0778003 -0.026049858 -0.07498477 -0.07387003 -0.09752151 0.018680857 -0.08580844
-0.039068047 0.00014872274 -0.062250562 0.004461952 -0.015680876 0.046699613 0.10199343 -0.08596229
0.07257881 -0.0023507893 -0.054567795 -0.054855328 0.020369193 0.015427532 0.0031314432 -0.0658202
0.06508595 0.03117244 -0.12761122 -0.037021406 -0.01870602 -0.061074425 -0.05915976 -0.09256006
0.12839109 -0.1248809 0.11380966 -0.09271565 -0.047732826 -0.058584686 -0.046968505 0.03386708
0.0670323 -0.08706578 -0.061168123 0.061711702 0.0009938295 0.01813289 0.081833385 -0.026158871
-0.060332153 0.057662345 -0.03955175 -0.099005215 -0.072698645 -0.046042725 0.12338129 0.020633582
0.04308357 -0.016343499 -0.09720174 0.053728044 -0.035944697 -0.060364578 0.09837879 -0.092614695
0.04167212 -0.12074386 0.048867427 0.07032794 -0.12723486 0.05385494 0.012089006 -0.06898949
0.098441906 0.0717192 0.042357553 -0.047527615 -0.03248303 -0.04814373 0.051352315 0.021348324
-0.087135844 0.107427955 0.07942809 -0.05841887 0.036841393 -0.06651363 0.05201719 0.10223702
-0.09841525 -0.050270353 -0.028615646 0.0015846171 -0.08321731 -0.071420945 0.023633495 -0.037892513
0.005458087 0.014411494 0.00066410715 -0.002648435 0.029102625 0.00031877463 0.030162297 0.08603605
-0.054065075 -0.06618445 0.047863193 -0.09375601 0.06276872 0.06915537 0.014549215 -0.044550378
0.00948161 -0.12753828 -0.092574716 0.13397364 -0.11251857 -0.097360514 -0.05545586 0.018982295
0.023225829 -0.03568444 -0.00260303 0.008633358 0.109117374 0.14384359 0.050242882 0.020628164
0.07341914 -0.070443645 0.04747471 -0.075157024 0.1014507 -0.09996161 0.037832517 -0.107864305
0.07703683 -0.0019695628 0.098524965 -0.072786875 0.057301424 -0.08919769 -0.067678176 0.039734133
0.00663102 -0.107444435 -0.10036838 -0.025543673 0.044810016 0.10973492 0.07364935 0.025849707
-0.07426599 -0.12961309 0.124063164 -0.061403736 -0.034201548 -0.12013316 -0.11292584 0.05646066
-0.032657683 0.01133778 -0.0064254184 0.009421353 -0.029930647 -0.006810991 0.05225806 0.08776006
0.112704046 -0.10613349 -0.11332002 -0.021887574 -0.016401235 0.06479809 0.12677097 0.04051819
-0.10442613 -0.012641479 0.07917825 0.042952847 -0.09832727 0.0043481216 -0.12455472 -0.048174173
0.09554968 -0.042652074 0.08806497 -0.098031394 0.105266124 0.052707605 0.07726456 0.029938592
0.0076234858 -0.05952463 -0.080499224 -0.09188799 0.092620924 -0.050517607 -0.008073476 -0.122185566
0.034255132 -0.029477376 -0.10661251 0.0033272249 -0.12765157 -0.015961077 -0.09543828 0.064648844
-0.08421457 0.0136239715 0.0808638 -0.106881596 0.07375084 0.09155587 -0.07851807 0.012105185
0.034188367 0.11645696 0.09135221 -0.10810489 -0.10401217 -0.115235515 -0.05697293 -0.007817042

net.4.bias f4 [64]
00000000: ee31 9bbd 02b9 9f3b 5e4c c0bd 29c8 933d
00000010: 1034 a83d e63a ee3d ac7b 293d 5ab8 4cbc
00000020: 6765 b5bc 93f6 73bd 7238 b13d 4887 8e3d
00000030: ed04 b93d 048c c3bc c9ef b0bd 033c 2c3d
00000040: 9d95 dc3d 3350 a1bc aba9 cf3d 35d2 b43d
00000050: 74d9 333d 2440 10bd eca5 29bd de7c a8bc
00000060: 869b 1abc 5bf8 cfbc 338d f9bd 3a7e b0bd
00000070: 3a15 20bd e7d3 c43d 1b27 543d 798c e8bd
00000080: 1d1e b7bd 269b 95bd 8430 f53d 00f7 fc3c
00000090: 6f6a d13d ad23 cfbd 0504 ef3d 0c6e d03d
000000a0: 6e9a 043c 28ec 77bd 4afb 483d 36d8 89bd
000000b0: 32c9 4bbd 9a09 3d3d 67b1 c3bd 78db ef3c
000000c0: 0f97 efbb 9e0d 453b eea3 9e3b f648 f13c
000000d0: ebc6 98bd 6f56 533d c8fd ebbd d567 593d
000000e0: 1479 d0bd d5f7 f83d f564 fc3c 3b49 0e3d
000000f0: 939b 073d 009c b33c f4f2 44bd d7ee f6bd
-0.07577883 0.0048743496 -0.09389566 0.07215912 0.08213055 0.11632328 0.04137771 -0.012495125
-0.022143079 -0.059561323 0.08653344 0.069593966 0.09034143 -0.023870476 -0.086394854 0.04204942
0.10770724 -0.019691562 0.101397835 0.08829156 0.04390855 -0.03521742 -0.041418 -0.020567354
-0.009436494 -0.02538698 -0.12185135 -0.08617826 -0.039082743 0.0961073 0.051795106 -0.11354918
-0.089412905 -0.07304983 0.11972144 0.030879498 0.10225379 -0.101142265 0.116706885 0.1017724
0.0080934595 -0.06052795 0.049067773 -0.06730692 -0.04975242 0.046151735 -0.09555321 0.029279456
-0.0073117088 0.003006793 0.0048413193 0.029453736 -0.074598156 0.0515961 -0.11523014 0.053077538
-0.10179344 0.12156645 0.030809859 0.034737807 0.03310735 0.021924973 -0.04808326 -0.12057274

net.5.weight f4 [64]
00000000: 061e 7e3f 24e0 813f ea79 833f 03ba 7d3f
00000010: 3eee 803f 5289 833f 0053 813f 8bcd 803f
00000020: 3145 853f 3820 7b3f ca39 833f 4436 833f
00000030: d15d 7e3f 324e 813f 4151 843f 8cf4 803f
00000040: 6896 813f f06c 853f 95bf 803f e5c3 853f
00000050: d255 823f 2dfb 843f 08ae 843f 1143 803f
00000060: 105a 7f3f 86b5 823f 2915 7c3f 3851 7f3f
00000070: 943e 803f 2e60 7f3f aea6 803f d50b 803f
00000080: 8cf7 813f 8677 813f 3274 803f 22f7 7c3f
00000090: 13f6 823f ad53 803f c24d 833f c488 843f
000000a0: d69a 813f 86a7 7f3f 0d9a 7c3f c5c6 833f
000000b0: bde4 803f 1440 813f bc9f 843f 46b8 803f
000000c0: 8395 833f 93d7 803f d11d 7e3f 1663 813f
000000d0: ebae 823f 6b96 833f 56fa 843f 6d26 7d3f
000000e0: 5eec 833f 9405 853f 0bd0 7c3f 7186 7e3f
000000f0: 806e 7c3f 8c2c 7f3f f4dd 803f f432 833f
0.9926456 1.0146527 1.027158 0.99111956 1.0072706 1.0276282 1.0103455 1.0062727
1.041174 0.98096037 1.0252011 1.0250936 0.993619 1.0101988 1.0337297 1.007463
1.0124025 1.042387 1.0058466 1.0450407 1.018244 1.0389153 1.036561 1.0020467
0.997468 1.0211647 0.9846979 0.99733305 1.0019097 0.99756134 1.0050867 1.0003611
1.015367 1.0114601 1.003546 0.98814595 1.0231346 1.0025536 1.0258105 1.0354238
1.0125377 0.99864995 0.9867256 1.0295035 1.0069805 1.009768 1.0361247 1.0056236
1.0280002 1.0065788 0.99264246 1.0108364 1.0209631 1.0280279 1.0388896 0.9888676
1.0306509 1.0392327 0.9875495 0.9942389 0.9860611 0.9967735 1.0067735 1.0249925

net.5.bias f4 [64]
00000000: d821 bcbb e984 893c 9dbe bd3c 911b 87bb
00000010: 173f e13b 2bc5 d63c dbbe d13b a6ef 803c
00000020: caf4 023d 852e 84bc 0ffb e23c 38e6 e23c
00000030: 7932 84bc a4cb b63b fa41 c33c ad31 cc3b
00000040: e00a a43c c6c9 f43c fc76 a13b e81a ff3c
00000050: 6ad9 3d3a f63d 273d e89e d53c d4d8 723b
00000060: 0c85 16bc eadd 8d3c b966 fabb d909 3ebc
00000070: bc4b 35bc 88c7 6c3b 8d87 253c 69e7 ffbb
00000080: bc01 623c 1e0d a83a e93d 18b8 336d e63b
00000090: b5c2 e43c 43e1 7dbc 7ef1 8f3c f76e fd3c
000000a0: b701 fdba f648 ddbb 63ef b7bb dda9 c43c
000000b0: 834b 1f3b dbfe 093b c0ef cb3c 15d0 ceba
000000c0: 38e1 b43c f97c 0c3c 4d35 36bc 251e 213c
000000d0: 551f 9d3c 0e1c 763c 8e5f 1d3d b92a 0bbc
000000e0: 3408 033d fffb 173d ce6b 09bb 9f77 07bc
000000f0: 68ce fcbb 30d8 6f3a b583 523b bf39 583c
-0.005741339 0.01678701 0.02316218 -0.004123159 0.006873976 0.026217064 0.0064009256 0.015739273
0.03197173 -0.016135463 0.027707605 0.027697667 -0.016137348 0.005578475 0.023835171 0.0062315078
0.020024717 0.02988137 0.004927514 0.03114076 0.0007242175 0.040830575 0.026076749 0.003705551
-0.009186994 0.017317731 -0.00764164 -0.011599028 -0.01106542 0.0036129672 0.010103119 -0.0078095687
0.013794359 0.0012821292 -3.6297282e-05 0.0070320605 0.027924875 -0.015495601 0.017571207 0.030936701
-0.0019302879 -0.0067530824 -0.005613254 0.024006778 0.0024306483 0.0021056447 0.024894595 -0.0015778566
0.022080049 0.008574718 -0.011121106 0.009833847 0.01917998 0.015021337 0.038421206 -0.008494073
0.031990245 0.037105557 -0.0020968798 -0.008268266 -0.007715035 0.0009149341 0.003212196 0.0131973615

net.5.running_mean f4 [64]
00000000: a7a1 cbbe 5eca 0abe 2dd1 46be 0abb 03be
00000010: d07f 3dbb 4ad0 913d 7ba4 6abe 7f6a e93b
00000020: 7656 15bd 2ef5 49be 4ef9 723e a1e6 193e
00000030: a6ab 943e 1edb 03be 871a 993c a96f f33d
00000040: d17d 173e ad77 73be 54b2 e9be a750 17be
00000050: 9c2a 35bd d812 cc3d 1ebe 863e 6973 6dbe
00000060: a977 d53e 1566 f1bc 3292 bfbd c894 b63e
00000070: e8c5 473e 0e02 eb3e 6682 833d 19bb b93d
00000080: a7bc 9bbd 23c0 32be f1b0 933d 761b a83e
00000090: 350d d43e fb1d 33be b819 663e 3652 773d
000000a0: 66df 553e 5e7d 7fbe 5c20 88be f8cb 0cbe
000000b0: ad02 c0be 504c ab3d a167 0ebf b6d2 373e
000000c0: 3554 b1bd d115 d03c efa0 c93e 28c3 313e
000000d0: 519b cebc e3fa b33e 0e8b b53d 4402 d83d
000000e0: ea3d a6be eec1 b03e 71d3 cfbd 20ae 19be
000000f0: a422 283d 2eb4 b0be 50c2 3c3e 338e 91be
-0.39771768 -0.1355376 -0.19415732 -0.12864318 -0.0028915294 0.07119806 -0.22914307 0.007123291
-0.03645941 -0.19722435 0.23727915 0.15029384 0.29037207 -0.12876555 0.018689407 0.11886532
0.14794089 -0.23776121 -0.45643866 -0.1477686 -0.04423009 0.09964532 0.26316923 -0.23188557
0.41692856 -0.029467622 -0.093540564 0.35660386 0.19509089 0.45900005 0.06421356 0.09068889
-0.07604342 -0.17456107 0.07211483 0.3283345 0.41416326 -0.17491905 0.22470748 0.060381137
0.20886001 -0.24950168 -0.26587188 -0.13749683 -0.3750204 0.08364165 -0.55626875 0.17951474
-0.08658639 0.025401028 0.39380595 0.17359602 -0.025220545 0.3515235 0.08864413 0.10547307
-0.32469112 0.34522957 -0.10147751 -0.1500783 0.04104866 -0.34512466 0.184335 -0.28428802

net.5.running_var f4 [64]
00000000: 26dc 0c3e 0fee 2f3e 6657 3c3e 19de 373e
00000010: cb3a 5d3e bef6 343e 1e9f 203e 57f4 523e
00000020: f123 5c3e 77b3 713e b8c5 123e 2efb 773e
00000030: 9a21 313e 0cdc 1d3e f2d7 113e efa8 083e
00000040: 7c6a 1e3e e9a2 503e f69a 5d3e 8af2 793e
00000050: 5c5b 313e 6c67 933e c05a 1f3e 1877 323e
00000060: a287 873e e7fd 183e 00e5 7c3e aaba 3f3e
00000070: 5df1 2a3e 7a0f 403e 4826 373e 4fdc 243e
00000080: 19d7 363e 37a0 273e ec43 383e 28b4 9a3e
00000090: bb92 3f3e 7021 3f3e e8f7 4a3e f48a ae3e
000000a0: 00ea 2e3e a438 2f3e 42d4 143e 8b03 8f3e
000000b0: 3beb 423e 429d 843e d46d 643e 2db0 163e
000000c0: b74b 623e 0916 fa3d 8c40 503e 7434 2c3e
000000d0: 7787 f23d 64c4 273e bf7a 6c3e 6d12 113e
000000e0: 4911 673e a68e 953e 1266 2f3e a037 053e
000000f0: a653 1d3e 9631 333e 7926 1b3e b604 413e
0.13755855 0.17180656 0.18392715 0.17955817 0.21604459 0.1767225 0.15685698 0.20601021
0.21498086 0.23603617 0.14333236 0.24216911 0.17297974 0.15415972 0.14242533 0.13345693
0.15470308 0.20374645 0.21641144 0.24408928 0.17320007 0.28789842 0.15561962 0.17428243
0.26470667 0.14940606 0.24696732 0.1872355 0.16693635 0.18755904 0.17885697 0.16099666
0.1785549 0.16369711 0.1799466 0.30215573 0.18708317 0.18665099 0.19821131 0.34090388
0.17081451 0.1711145 0.14534095 0.2793239 0.19035046 0.25901228 0.22307521 0.14715643
0.22099195 0.12211234 0.20337123 0.16816884 0.11842244 0.16383511 0.23093699 0.14167185
0.22565188 0.29210395 0.1712878 0.130095 0.1536394 0.17499384 0.15151395 0.18849453

net.8.weight f4 [2, 64]
00000000: 7da0 863d 88ba b73d 8c4c 60bd 80ef a1bc
00000010: 69bb 7dbc c5bf 5dbd 99b9 c33d f114 a6bd
00000020: c53e a5bd b00e 23bd 312b c5bd 52cf d7bd
00000030: 0c8a 29bd 697f 73bc 345f e63d 014e 9f3d
00000040: cfcf e93d dc2f 083e 8ed3 013d f500 1b3d
00000050: c003 b5bc f80f 07be fa6e b7bc 42b8 00bd
00000060: ede8 12bd 3600 ff3d a981 083d 755e 9c3d
00000070: 7a83 a93d c08e 8fbd e9c2 f63c 117e 87bc
00000080: 0dad fa3c a578 ad3d 4c17 e1bc efc9 a73d
00000090: fded e03c 329f d9bc 34c7 d43d b02d 053e
000000a0: 29cc bebc 3633 913d 423f 82bc d02f ca3c
000000b0: 6e8c c4bd 8e19 81bd 9940 503d 0a0e 0ebd
000000c0: 4194 6a3c 59af 163d 67af 2fbd c08f 633d
000000d0: 6489 0f3e e150 9a3d bd43 173e 42f4 c4bc
000000e0: 0853 063d 8bae a1bd 7c00 47bd dc99 b8bc
000000f0: 48a9 773d b212 e9bd 44fb 95bd 9632 b53d
00000100: fff9 973d 2f4f 3cbd 207f 663b 7a91 0d3c
00000110: 74a0 c83d a50c ee3d fa95 8cbd a7d1 dd3c
00000120: 33e2 20be cdca 81bd cae7 433c ba7d 9bbc
00000130: 1828 5bbd d1f6 e63d e965 023d 7743 0f3b
00000140: 939b 49bd aef8 19bd 6525 de3d 88f1 7dbd
00000150: 8c55 e23c ad1d 9b3d addf dd3d 304c a13d
00000160: bbd0 69bd 7244 f33c c1e1 333d ba86 a43c
00000170: bcbf e0bd 623c e83d c4b6 7c3d 323a 7e3c
00000180: 6112 7a3d 5417 2dbd c5c9 bfbd 697f aabc
00000190: d955 09be 4319 e33d 72ff 003d 020d d8b9
000001a0: 3faf c5bd 48b7 a4bd b00f 733d 19e4 04be
000001b0: dc7b 003d 2278 d33d d3d0 12be 00b4 c03d
000001c0: 1202 05be cb1d febc bee8 a23d 8e55 d33d
000001d0: da6a c43d e4bc 023e 430d 22be c6ec 283c
000001e0: e4d8 0fbe 708a dd3d f94a ca3c 7b13 ba3d
000001f0: 0314 383d d12d a93d e7cf c43a 5854 ffbd
0.065735795 0.08971125 -0.0547605 -0.019767523 -0.015486577 -0.054137964 0.09556884 -0.08109463
-0.08068613 -0.03980893 -0.09627379 -0.1053759 -0.041391417 -0.01486192 0.11248627 0.0777855
0.114165895 0.13299507 0.031695895 0.03784271 -0.022096515 -0.13189685 -0.022391785 -0.031425722
-0.035866667 0.12451212 0.03332678 0.07635204 0.0827703 -0.07009649 0.030122237 -0.016539605
0.030600095 0.08470277 -0.02747693 0.08192813 0.027457232 -0.026565168 0.103895575 0.1300571
-0.02329071 0.07089846 -0.015899304 0.024681002 -0.09597097 -0.06303702 0.050842855 -0.034681357
0.014317573 0.03678832 -0.042891886 0.055557013 0.14017254 0.07534958 0.14771934 -0.024042252
0.03279403 -0.078946196 -0.048584446 -0.022534303 0.060464174 -0.11380519 -0.07323316 0.08847539
0.0742073 -0.045973953 0.0035170987 0.008640641 0.09796229 0.116235055 -0.06864543 0.02707751
-0.15711288 -0.06337509 0.011957118 -0.01898085 -0.053505033 0.11277545 0.03183547 0.002186028
-0.049220633 -0.037590675 0.10846976 -0.06199792 0.027628683 0.075740196 0.108336784 0.0787586
-0.057083827 0.029695723 0.043916468 0.020083774 -0.109740704 0.11339642 0.061697736 0.0155168045
0.061052684 -0.042258576 -0.09364656 -0.020812707 -0.13411655 0.11088803 0.03149361 -0.00041208422
-0.09652566 -0.080427706 0.059341133 -0.12977637 0.03136812 0.10325648 -0.14337473 0.09409332
-0.12989071 -0.031020066 0.07954548 0.10319053 0.09590693 0.12767369 -0.15825371 0.010310357
-0.14047581 0.108174205 0.024693953 0.09085747 0.04494096 0.08260692 0.0015015573 -0.12467259

net.8.bias f4 [2]
00000000: 798b aebd ef4a a43a
-0.08522696 0.0012534539
