data/weights/feature_mlp_pipeline_4ch.pth (torch, 32361 bytes, 14 tensors)

net.0.weight f4 [64, 26]
000000 75 fa 8c 3d c7 c5 66 3e 9e 09 35 be 89 92 a7 bd
       0.068837084 0.22536384 -0.1767945 -0.08182246
000010 cf 95 23 bd a6 96 5c 3e 41 39 1b 3e 51 e6 2c 3d
       -0.03993779 0.21541843 0.1515856 0.042211834
000020 11 6d 42 3e 26 3b 02 be a8 6d 57 3d a6 3c bd bc
       0.18986918 -0.12717876 0.05259481 -0.023100208
000030 02 54 2d bd 52 ba 83 3d 5c ee 97 bd 33 c3 80 bd
       -0.042316444 0.06432022 -0.0741851 -0.06287231
000040 28 4c f0 bd 99 c9 e3 bd 70 79 f5 3d d2 25 2f bb
       -0.11733276 -0.11122436 0.11986053 -0.0026725424
000050 71 28 c0 bd c1 84 a1 3d 8a 7d b2 3b 59 c7 d3 bd
       -0.093827136 0.07886649 0.0054470943 -0.10340757
000060 47 56 f0 bd 11 f1 83 bd 8a fa 4c be 2c 17 02 3e
       -0.11735206 -0.06442464 -0.20017448 0.12704152
000070 03 b7 33 be 8e 90 18 be 83 41 d9 bd e7 7d cd 3d
       -0.17550282 -0.14898893 -0.106081985 0.100337796
000080 30 30 d4 bd c9 4d 1e 3e 6b d0 88 bd 2e a9 e3 3d
       -0.103607535 0.1545936 -0.066803776 0.11116253
000090 af 4b 0e 3e 70 94 3a 3e ce 54 8a 3d aa 1f 6d 3d
       0.13896058 0.18220687 0.067544565 0.057891525
0000a0 5c cf 28 bc 3e b8 3e 3d 39 f4 c3 bd e2 a4 e2 b9
       -0.010303345 0.046562426 -0.09568066 -0.00043228926
0000b0 09 11 01 be f0 63 0c 3e b0 66 c4 3d ac e9 ec bd
       -0.12604155 0.13709998 0.095898986 -0.11568007
0000c0 47 26 a0 bc bd 61 4a 3c 5e 3d 4d 3d 9b 90 6e 3d
       -0.019549502 0.012352404 0.050107352 0.058243375
0000d0 f0 dd 9d bd 5a 45 ac bd 88 fb 02 be 86 7e 80 3b
       -0.07708347 -0.08411665 -0.12791264 0.003921333
0000e0 00 ad 27 3e e9 d1 11 3d b9 29 08 3e 29 de 51 3e
       0.16374588 0.035600577 0.13297166 0.20494904
0000f0 ea 6d 19 be 52 41 20 be da 54 5a 3c 37 f8 11 3e
       -0.14983335 -0.15649918 0.013325894 0.14254843
000100 0f 1b f5 bd b2 3e 11 bd a6 a8 9c 3d 95 b6 f7 3d
       -0.11968052 -0.03546018 0.07649355 0.12095372
000110 49 21 26 3e 4e 4c 79 3d 31 f4 bd bd 7c 0b 20 bd
       0.16223635 0.060863785 -0.092750914 -0.039073452
000120 c5 28 85 bd 0a 9e f8 3d ce ec f6 bb 28 13 6a bd
       -0.06501917 0.121395186 -0.0075355535 -0.057147175
000130 3c cd 2e bd d7 38 3f bd ce 32 1f be 63 2a 18 be
       -0.042676196 -0.046685066 -0.15546724 -0.14859919
000140 ca 48 3c be f6 89 2c 3e 45 f8 26 3e 47 f5 98 bd
       -0.18387142 0.16849503 0.16305645 -0.07468658
000150 e5 62 44 3d 66 ad 0d 3e d2 f0 71 3d ab 9f f5 3d
       0.047945876 0.13835678 0.059067555 0.11993345
000160 28 6d 1e 3e 2c dc 00 be d5 2a 14 be e5 62 69 bd
       0.15471327 -0.12583989 -0.14469464 -0.05697908
000170 39 34 20 bd 8c 49 83 bd 16 d8 ce 3c 3b de 1a 3e
       -0.039112303 -0.06410512 0.025249522 0.15123837
000180 1a 9d 65 3c 3e 51 81 3d 8f 0e 18 be 72 4c a5 3d
       0.014014507 0.06314324 -0.14849304 0.080712214
000190 73 b7 cd bd ea 49 c1 3d a8 af dd 3d d7 5a c3 3d
       -0.10044756 0.09437926 0.108245194 0.09538811
0001a0 b2 b4 93 bd 5a e2 19 be ae bf 06 be b0 6e f5 bc
       -0.07212199 -0.15027753 -0.13159057 -0.029960006
0001b0 39 4e e7 3c 05 39 2b 3d 6c 2d 0d be 94 86 06 3d
       0.028235542 0.041802425 -0.13786858 0.032843187
0001c0 fa 92 a6 bb f1 67 1a 3e 71 f4 22 be f7 5c 9a 3d
       -0.005083439 0.15078713 -0.1591356 0.07537263
0001d0 61 ff 4c be 4e 66 41 3d 05 c0 18 be ae b2 05 be
       -0.20019294 0.047216706 -0.14917 -0.13056442
0001e0 9c 42 a5 bb fa 64 46 3d 96 cd 8f 3d 7e 15 97 bc
       -0.005043341 0.048436143 0.07021634 -0.018442865
0001f0 00 fa 18 3e 70 25 3c bd 85 6e d8 bd 34 89 0a 3e
       0.14939117 -0.04593414 -0.10567955 0.13528901
000200 81 4c 13 bd 1d 07 db bd de 15 0b 3e a0 89 11 be
       -0.03596163 -0.10694716 0.1358256 -0.14212656
000210 24 15 9b bb ac dc 17 bd 14 04 8b 3c c7 28 13 3d
       -0.004732745 -0.037075683 0.016969718 0.03592756
000220 76 28 9d bc c8 19 73 be 7f 3b 90 3d 87 33 c4 3d
       -0.019184332 -0.23740304 0.07042598 0.095801406
000230 a3 c6 b5 bc cc 27 f8 bd 61 82 21 be 22 cd bd 3d
       -0.022189444 -0.12116966 -0.15772392 0.092676416
000240 85 b6 84 3d 46 06 cb bd b6 47 88 3d da 47 80 3d
       0.06480125 -0.09913306 0.06654303 0.062637046
000250 5f e9 0a be b6 c2 dc 3d c6 35 22 3e fd 1b 72 bd
       -0.13565587 0.10779326 0.15840825 -0.059108723
000260 5d 19 56 be b3 f2 2b bd 98 bc 4c be dc 38 29 3e
       -0.20908113 -0.041979503 -0.19993818 0.16525596
000270 ca 47 53 3e 87 8f ff 3d 7f b9 0a 3d 2d 15 03 3e
       0.20632854 0.124785475 0.03386831 0.12801047
000280 64 e1 52 bd b3 8b 88 3d 63 5c d1 3c d0 b4 cf 3d
       -0.05148448 0.066672705 0.025556749 0.10141909
000290 b1 9b 65 3c 0f cb fc bd af 7e c3 bd b6 67 d7 bc
       0.0140141705 -0.12343418 -0.09545647 -0.02629457
0002a0 3b f6 41 be ff fd 9a 3d 22 53 b3 3c 46 9a ed bd
       -0.18941586 0.07567977 0.021890227 -0.11601691
0002b0 9f c0 b3 3d f4 89 0b be 79 b0 90 3d 0f f8 bc bd
       0.08776974 -0.13626844 0.070649095 -0.09227001
0002c0 81 9d e5 3b b5 1e e0 bd a1 63 93 3d 18 4f 51 3e
       0.0070073013 -0.10943357 0.07196737 0.20440328
0002d0 06 c8 18 3d d3 8e 2f 3e a2 f5 17 be b1 f6 19 3e
       0.037300132 0.17144327 -0.14839795 0.15035512
0002e0 22 53 05 be 9a 43 10 3e 84 62 1c bd f0 4d cd 3d
       -0.13019994 0.14088288 -0.03817989 0.10024631
0002f0 45 b4 b9 bd 16 3d c7 bc 02 6b 30 be 3d 23 5e 3e
       -0.09067587 -0.02432112 -0.1722832 0.2169313
000300 9a b8 15 be 01 15 ea bd 3f 4a 61 bd 1d 51 ea 3c
       -0.14621201 -0.114297874 -0.055002447 0.028603131
000310 3b b6 c8 bd f1 e7 d3 3d 73 c9 cf 3d de ab 05 bc
       -0.09800383 0.10346974 0.10145845 -0.008158652
000320 52 99 c6 3d 10 31 59 3d 02 f3 52 bc 96 ac 20 3c
       0.09697212 0.053025305 -0.01287532 0.009806773
000330 c9 cb 60 bd a4 db 1d 3e 3b 7c de bd 97 8b 97 bd
       -0.054881845 0.15415817 -0.10863539 -0.073996715
000340 26 1a 5a be d9 5d 57 3e 90 f2 0b 3e 6b ef 6c bd
       -0.21299037 0.21031894 0.13666749 -0.057845514
000350 08 86 c5 3d 9f 8b 0a 3e 12 a1 4c 3d 22 bf 23 be
       0.09644705 0.13529824 0.049958296 -0.1599088
000360 d0 b3 27 be 56 9f 8e bd 57 62 e3 bd 56 6a 2c bd
       -0.16377187 -0.06963985 -0.11102741 -0.042093597
000370 32 0b 8e bd 72 a1 20 3e 54 20 28 be fe d8 88 3d
       -0.06935729 0.15686586 -0.16418582 0.06682013
000380 71 25 54 be cc 7a 27 3e 6a fb 40 be 22 17 22 3d
       -0.20717408 0.16355437 -0.18845907 0.039572842
000390 27 8c e3 3d df ad 38 3e 47 5a c9 bd 24 e5 6c 3d
       0.11110716 0.18035077 -0.09831672 0.057835713
0003a0 26 30 96 3c 08 d7 06 be c6 72 b0 3b b2 34 b1 bd
       0.018333506 -0.13167965 0.005384776 -0.08652629
0003b0 84 7a 1a 3e 7d bf 31 be 41 ca c3 3d 71 47 48 3e
       0.15085799 -0.17358203 0.09560061 0.19558503
0003c0 50 00 0e 3e 37 b0 d8 bc e5 8a 28 3e 16 90 0d be
       0.13867307 -0.026451213 0.16459234 -0.13824496
0003d0 1a eb 23 be 2a 83 7f 3d 49 07 18 bd 27 bb 5e be
       -0.16007653 0.062380947 -0.037116323 -0.2175108
0003e0 62 04 56 3c 77 74 09 3d ca be b1 3d f9 2d 0a 3e
       0.013062568 0.033558335 0.08678968 0.134941
0003f0 2a 1a 44 3d 9b 03 15 bb 2a d8 d8 3c a8 90 af bd
       0.047876514 -0.0022737745 0.026470263 -0.08572513

net.0.bias f4 [64]
000000 f0 ac 94 bd e7 f0 1c 3d e2 33 a7 3b 48 51 bd bd
       -0.07259548 0.03831568 0.0051026205 -0.09244019
000010 8d 41 1f be 58 e8 e6 3c c2 58 f8 3d 9c f9 8b bd
       -0.1555235 0.028186962 0.12126304 -0.068347186
000020 8f 71 4a be eb d6 c7 bd 18 b2 0c 3d d3 38 1e 3e
       -0.19769882 -0.09757789 0.03434953 0.15451364
000030 c8 19 40 3e 50 15 ae 3b 57 f8 d1 3d e6 ce 46 3e
       0.18759835 0.0053125992 0.10252445 0.19414863
000040 f8 26 20 be 64 90 91 bd f9 3d 83 bd 30 3b a4 bd
       -0.15639865 -0.071076185 -0.06408305 -0.080191016
000050 e7 ef 8e bb 24 61 90 3c c0 4a 43 be 3a fc 8b bd
       -0.0043620947 0.017624445 -0.19071484 -0.06835218
000060 cf 2f 1a be f5 47 34 ba cb db 23 3e b9 28 4b bd
       -0.150573 -0.00068771775 0.16001813 -0.049599383
000070 9b d4 be bc 8d f3 ea bd 38 fa b6 3d fa d0 78 3d
       -0.023294738 -0.11472235 0.08934444 0.06074617
000080 b5 02 27 3e 79 e0 91 3d 62 ad e7 bd a8 cb 81 bd
       0.16309626 0.07122893 -0.11312367 -0.063376725
000090 4c 22 36 be 76 a6 be 3d c1 14 31 be 51 d0 95 3d
       -0.1778652 0.09309094 -0.17293073 0.07315124
0000a0 f3 a4 07 3e 25 6a 43 3e 63 ee 3d be 63 5f fc 3d
       0.13246517 0.1908346 -0.18547969 0.12322881
0000b0 b3 48 ae bd 78 08 51 3d 81 71 46 3e e1 06 7e 3d
       -0.0850996 0.051033467 0.19379236 0.06201828
0000c0 bd b3 29 3e 97 b3 0c be 4a 2e 92 bd c7 9a c2 3d
       0.16572471 -0.13740383 -0.07137735 0.09502178
0000d0 a4 57 81 3d 49 83 0c 3d c4 e9 45 3e 26 42 b6 3d
       0.06315544 0.03430489 0.19327456 0.088993356
0000e0 87 b5 2c 3e 0e f4 dd 3d 5b fc 10 3e 09 fe b0 bd
       0.16866122 0.10837565 0.14158766 -0.08642203
0000f0 db c4 0d be d3 78 2b 3e dd 91 fb 3d 15 05 b5 3d
       -0.13844626 0.1674531 0.122836806 0.0883886

net.1.weight f4 [64]
000000 76 8d 7e 3f 41 84 85 3f ff e9 75 3f c8 ca 78 3f
       0.994346 1.0430986 0.96060175 0.9718442
000010 ab 96 82 3f 34 ee 7d 3f 12 0b 81 3f 03 57 84 3f
       1.020223 0.99191594 1.0081503 1.0339054
000020 fe 98 7c 3f 28 a2 77 3f 6f 9a 84 3f 06 60 73 3f
       0.9867095 0.96731806 1.0359629 0.95068395
000030 8f e1 7e 3f 44 13 82 3f 67 90 83 3f da 7b 82 3f
       0.99562925 1.0162129 1.0278443 1.0194046
000040 4b 29 84 3f 62 4e 85 3f 53 4d 79 3f 69 a9 81 3f
       1.0325102 1.0414546 0.9738361 1.0129825
000050 fd 5c 86 3f a7 a8 83 3f a9 6a 78 3f d0 9f 7e 3f
       1.0497128 1.0285844 0.9703775 0.99462605
000060 27 11 7a 3f 67 37 85 3f d1 d1 83 3f 35 93 85 3f
       0.9768242 1.0407532 1.0298406 1.0435549
000070 2c 15 80 3f ac 38 76 3f f2 72 7f 3f d4 be 82 3f
       1.0006461 0.96180224 0.9978477 1.0214486
000080 54 44 7d 3f 7e 1e 85 3f 6a 4f 7f 3f 3e ae 76 3f
       0.98932385 1.039993 0.9973055 0.9635962
000090 76 e5 76 3f 0f a6 81 3f 1a 5c 82 3f 4a 3f 7b 3f
       0.9644388 1.0128802 1.0184357 0.98143446
0000a0 4c 2f 7a 3f e7 68 77 3f b5 70 80 3f ea 97 76 3f
       0.9772842 0.96644443 1.0034395 0.9632555
0000b0 ae ea 77 3f fb cd 7c 3f 9e 9d 77 3f 53 15 7d 3f
       0.9684247 0.987518 0.9672488 0.98860663
0000c0 ea 22 7d 3f 55 d8 80 3f ac 06 82 3f ff 80 80 3f
       0.988814 1.0066019 1.0158286 1.0039366
0000d0 3e 40 86 3f 2e 45 7b 3f d6 9a 83 3f 52 fe 73 3f
       1.0488355 0.98152435 1.0281627 0.95309937
0000e0 53 6e 7b 3f e9 7f 85 3f 2e 04 7a 3f 3b 7d 77 3f
       0.98215216 1.042966 0.9766263 0.9667546
0000f0 0a 9b 7b 3f 06 8e 82 3f bf 61 7e 3f 1a 5c 84 3f
       0.98283446 1.0199592 0.993679 1.0340607

net.1.bias f4 [64]
000000 5d c5 0d bd 71 6a 42 3d 6a da f9 bc fe bf 48 bc
       -0.03461205 0.04746479 -0.030499656 -0.012252806
000010 d7 70 09 3d f9 a1 31 3d 2c d2 58 3c 00 cf d8 3c
       0.033554878 0.04336736 0.013233703 0.026465893
000020 6a 03 5f 3c ee 21 07 bd 8b ab 37 3d 34 32 42 bd
       0.013611654 -0.032991342 0.04484133 -0.04741116
000030 6a 2e 89 bc a6 08 71 3c ea 0d b8 3c 3d 69 a6 3c
       -0.016745765 0.014711535 0.022467572 0.020313853
000040 40 b1 57 3c 70 b2 ec 3c d4 f3 de bc 84 ca af 3b
       0.013164818 0.02889368 -0.027215876 0.005364718
000050 59 1e 57 3d bc ba 17 3d 7a fc 3a bd 1a e8 68 3c
       0.052519176 0.03704332 -0.045650937 0.014215494
000060 26 2a 05 bd 7c d3 1b 3d 63 dd c3 bc ca 0c d6 3c
       -0.0325109 0.038043484 -0.023909276 0.026129145
000070 37 00 2f 3c a7 10 04 bd df 41 ae 3c 77 a3 15 3d
       0.010681204 -0.032242443 0.021271644 0.036532845
000080 47 fb 82 bb ee 8b 4c 3c 00 4d 8b 39 0d 44 37 bc
       -0.0039972397 0.012484534 0.00026569515 -0.011185658
000090 ab 65 31 bc f0 de 83 3c eb 70 ff 3c 66 41 51 bc
       -0.010827462 0.016097516 0.031181773 -0.01277194
0000a0 ac d9 e5 bc 86 54 ec bc 90 6e 20 3d c8 5d 70 bb
       -0.028057896 -0.028848898 0.03916794 -0.0036676992
0000b0 74 d2 df bc f3 f1 2f 3c a9 c9 e7 bc 0e da 05 bd
       -0.027322032 0.0107388375 -0.028294401 -0.032678656
0000c0 b8 d0 03 3b d8 50 53 bc ca 00 bf 3c 9a 98 97 3c
       0.002011342 -0.012897693 0.023315806 0.018505383
0000d0 c3 6d 32 3d 72 46 db bb f7 3a 46 3c b6 ff 51 bd
       0.04356171 -0.0066917473 0.012099019 -0.051269256
0000e0 f4 30 06 bd a6 54 ab 3c ae d0 14 bd b3 f3 da bc
       -0.03276153 0.020914387 -0.036331825 -0.026727533
0000f0 22 13 97 bc dd 5c a0 3c 08 fd 98 3b bc 35 0a 3d
       -0.01844174 0.01957553 0.0046688356 0.03374265

net.1.running_mean f4 [64]
000000 0c 10 7e bd c4 4a 05 3d cf 79 84 3b 42 fa a0 bd
       -0.062027022 0.032542005 0.004042841 -0.07860233
000010 36 83 07 be 82 79 c1 3c 55 cd d2 3d 9a 86 6c bd
       -0.13233647 0.02361751 0.1029307 -0.057745554
000020 79 f9 2b be da 53 aa bd e1 ad ed 3c 0d 6a 06 3e
       -0.16794385 -0.08316775 0.029013576 0.13126393
000030 74 d1 22 3e 1d 0f 8f 3b 01 f6 b1 3d a6 08 29 3e
       0.15900213 0.0043658153 0.086895 0.16507205
000040 42 f7 07 be e7 61 7b bd ff c2 60 bd 86 76 8a bd
       -0.13277915 -0.061372664 -0.054873463 -0.06760888
000050 64 45 6a bb 36 14 81 3c 55 d3 25 be 85 25 6e bd
       -0.0035746926 0.015756708 -0.16193898 -0.05814125
000060 4c 1e 03 be 81 2f dc b8 e5 eb 0b 3e 40 d1 2d bd
       -0.12804526 -0.00010499266 0.13664205 -0.042435884
000070 1b cf a2 bc a3 58 c7 bd 69 b4 9b 3d dd c8 53 3d
       -0.019874146 -0.09733703 0.0760277 0.05170523
000080 af 0c 0e 3e 9a cd 77 3d 40 f6 c4 bd f1 a3 5c bd
       0.13872026 0.06049881 -0.09617281 -0.053867284
000090 a7 13 1b be 46 c4 a2 3d 2d 79 16 be e4 43 7f 3d
       -0.15144216 0.079475924 -0.14694662 0.062320605
0000a0 cf ef e5 3d 51 49 26 3e 38 6c 21 be 2b 69 d6 3d
       0.112273805 0.16238905 -0.15763938 0.10469278
0000b0 6d 66 95 bd fa bc 31 3d 18 f6 28 3e 60 fc 56 3d
       -0.07294927 0.043393113 0.16500127 0.052486777
0000c0 6b 76 10 3e cd 45 f0 bd 5c b2 76 bd cb 12 a5 3d
       0.14107673 -0.117320634 -0.06022869 0.08060225
0000d0 65 62 59 3d 18 1f ed 3c 67 a7 28 3e d9 f6 9a 3d
       0.053072352 0.02894549 0.16470109 0.07566614
0000e0 93 ff 12 3e 97 ca bb 3d 88 0a f6 3d ce 3d 96 bd
       0.14355306 0.091695 0.120137274 -0.07336007
0000f0 f2 8d f0 bd be 07 11 3e 14 7a d5 3d fe 41 9a 3d
       -0.11745824 0.1416311 0.10423675 0.07532118

net.1.running_var f4 [64]
000000 dd a5 ef 3e 3d 69 14 3f a5 b3 e3 3e 42 cd 9e 3e
       0.4680623 0.5797308 0.44472995 0.31015974
000010 29 5a d3 3e 9f 11 e4 3e d9 0c c6 3e 39 54 df 3e
       0.41279724 0.44544694 0.38681677 0.43618944
000020 fe 42 a2 3e 4c 96 d9 3e 69 6a 8a 3e 26 ee 0d 3f
       0.31691736 0.4249748 0.2703431 0.5544151
000030 cb 77 e0 3e 41 1d 02 3f aa 03 04 3f 22 6a d6 3e
       0.43841395 0.5082589 0.5156809 0.41877848
000040 15 41 f2 3e 8c 08 b1 3e e4 a5 c1 3e 40 ec b5 3e
       0.4731528 0.34576833 0.37821877 0.35531807
000050 59 b5 1d 3f a4 d9 e2 3e 3c ba 13 3f 52 32 96 3e
       0.6160484 0.44306672 0.57706046 0.29335266
000060 e3 ff 04 3f 0e 33 8f 3e 78 37 d1 3e 89 b6 bb 3e
       0.5195295 0.2796864 0.40862632 0.366627
000070 09 a1 c6 3e 08 bb 97 3e 44 d9 b2 3e b8 35 01 3f
       0.38794735 0.2963488 0.34931386 0.50472593
000080 28 77 c8 3e 94 92 a6 3e 6f 67 0e 3f ef 8b de 3e
       0.3915341 0.32533705 0.5562658 0.43466136
000090 c4 de f2 3e 4c 4b ec 3e a8 9c 06 3f 0d c0 15 3f
       0.47435582 0.46151197 0.5258279 0.5849617
0000a0 08 05 ed 3e cc 5d fd 3e 99 ed 09 3f 95 c6 22 3f
       0.462929 0.49485624 0.5387817 0.6358426
0000b0 e4 02 c3 3e 01 20 c8 3e 62 f0 1f 3f cf cb 11 3f
       0.38088143 0.39086917 0.6247617 0.5695161
0000c0 31 bd e2 3e f8 ad ce 3e 1f 55 e8 3e 3d 38 c8 3e
       0.44284967 0.40367103 0.45377442 0.39105406
0000d0 b9 ee 03 3f 00 58 dd 3e c9 3c c2 3e 40 9b dc 3e
       0.51536137 0.432312 0.37937 0.43087196
0000e0 15 1a c4 3e a8 8b ca 3e 66 87 a8 3e 17 04 23 3f
       0.3830115 0.39559674 0.329158 0.63678116
0000f0 65 38 a8 3e a0 07 af 3e 4b 29 b0 3e 62 87 d1 3e
       0.32855526 0.34185505 0.34406504 0.409236

net.4.weight f4 [64, 64]
000000 b7 97 c8 3b 83 30 a3 bd ae 5d ff bb 86 a0 fe bc
       0.0061216014 -0.07968237 -0.00779315 -0.031082403
000010 c2 e3 79 3c 80 2f 40 bd 6c b8 b9 3d 25 83 ae 3c
       0.015252056 -0.0469203 0.09068379 0.021302769
000020 4f 87 6e bd dd 05 81 3c be fa 1b 3e 9b 4e bf bd
       -0.05823451 0.015749866 0.1523237 -0.09341165
000030 36 a6 aa bd be 46 58 bd 7e f6 ce bc f7 29 92 3d
       -0.083324835 -0.05280184 -0.025264021 0.071369104
000040 70 79 81 3d d6 e4 ba 3c dc 67 df bc 2d 6d 96 bd
       0.063219905 0.022814196 -0.027271204 -0.073450424
000050 26 f5 1f 3b e7 33 a6 3c d7 75 62 3d e1 63 66 3d
       0.0024407594 0.02028842 0.055288162 0.056247596
000060 cd 07 15 3e 3f 72 b0 3c 7a b2 74 3b df 0b 0d bd
       0.14553757 0.021538852 0.0037337826 -0.03443515
000070 bc 40 fe 3d 3f 2c cd 3d 34 2b b6 3d 6c ac 6c 3d
       0.12414691 0.10018205 0.08894959 0.05778162
000080 be 0f 94 bd ff 3b b0 3c 4c fc ea 3d 74 80 b0 3d
       -0.07229565 0.021512983 0.11473903 0.086182505
000090 55 01 a4 3d 76 a8 98 3d 3d b9 98 bd 72 10 f5 bd
       0.080080666 0.074540064 -0.074572064 -0.11966027
0000a0 3c ba b1 3d 03 75 17 bd c6 83 a0 3d 8d 34 40 bd
       0.086780995 -0.036976825 0.07837634 -0.046925116
0000b0 ce 8f cd 3d 33 4e f6 3d 08 64 04 bd 43 8e c6 bc
       0.10037194 0.12026634 -0.03232196 -0.024237758
0000c0 13 24 9d bd dd 55 8a 3d a3 c1 92 3d 8c 8f 8a 3c
       -0.07672896 0.06754658 0.071658395 0.016914152
0000d0 04 ff d1 3d 08 6e 2d bb d1 ef aa bd 9a 1c ba bb
       0.102537185 -0.0026463289 -0.083465226 -0.005679679
0000e0 1c d8 c0 bb df 42 3c bd 44 dd d5 bc 1c 2d 3b 3d
       -0.0058851372 -0.04596221 -0.026106484 0.045697317
0000f0 38 67 14 3e cf 16 ff bd 89 dc b7 bd b8 9f 61 3d
       0.144925 -0.12455522 -0.089776106 0.05508396
000100 67 a4 90 bd 38 d6 f1 3d 25 2d 86 bd 14 c6 97 3d
       -0.07062607 0.11808437 -0.065515794 0.07410827
000110 89 ff da 3c 0f b4 e2 3c 62 1c 54 bd 81 f7 0f 3e
       0.026733177 0.02767375 -0.05178488 0.14059259
000120 6a 08 f5 bc 90 f1 2b 3d fa 8b f8 3d 31 ac c2 3c
       -0.029911239 0.04197842 0.121360734 0.023763748
000130 9d c1 a3 3d 0d b0 bd 3d bf 39 e8 3c 9d 42 02 3e
       0.07995913 0.09262095 0.028347848 0.12720723
000140 1e df 8f bd ec c8 2a bd 51 8b 0f 3d 89 6c f7 3c
       -0.07024978 -0.04169552 0.03504497 0.03020312
000150 3c bf ac 3d 2a 1e c8 bd 1b c6 0a be 9a a0 4b bd
       0.084349126 -0.09771378 -0.13552134 -0.04971371
000160 04 18 00 bd 19 29 ac 3d b4 5b 31 bb 0d 5a 12 bd
       -0.031272903 0.08406276 -0.0027062716 -0.03573041
000170 52 33 56 3d 77 c8 b7 3d da 4c 4a bd 60 8f 25 bd
       0.052295037 0.089737825 -0.049389698 -0.040419936
000180 7d 17 5e bd 6d e5 47 bd 2e 22 d2 3b 80 2a d9 bd
       -0.05422162 -0.04880278 0.006412766 -0.10603809
000190 98 de 53 3c 96 11 9f bc 04 30 02 be 3a f9 ab bd
       0.012931488 -0.019417565 -0.12713629 -0.083971456
0001a0 fe d4 01 be fe c1 13 be 5f 32 ab bd 96 a5 1a 3d
       -0.12678906 -0.14429471 -0.08359217 0.03775557
0001b0 00 be 93 3c 9d f9 db bd b4 c4 e5 3a 8e 52 c6 3d
       0.018034935 -0.10740969 0.0017529936 0.09683715
0001c0 1d 9d 0e 3d 2a 5e b3 bd 73 fc 3d bd 94 bf 3d bd
       0.034817804 -0.08758195 -0.046383332 -0.04632528
0001d0 d5 90 92 bc a2 a7 b8 3d bf 2b 02 3d d7 eb 2f bd
       -0.017891327 0.090163484 0.03178 -0.042949524
0001e0 8a 57 68 bd 07 9e a2 bd f7 9e 2b 3b c1 b6 d4 3d
       -0.05672411 -0.079402976 0.002618728 0.1038642
0001f0 0d 03 b4 bd a7 ed a1 3b e7 87 b5 bd 71 1a c6 bd
       -0.087896444 0.0049416604 -0.08863812 -0.09673012
000200 6d 13 04 3e 3a c0 18 3e d2 07 de bd 70 2a b5 3c
       0.12898035 0.14917079 -0.10841335 0.022114962
000210 64 e9 0d bd f9 3f 14 3c 7a 93 75 3d 49 a9 c3 ba
       -0.034646407 0.009048455 0.059955098 -0.001492777
000220 43 e9 1a 3e 9f 3a 9b 3d 38 d5 53 3d 84 8a 4e 3d
       0.15128045 0.075795405 0.051717013 0.050425068
000230 66 f2 c9 3b 2c c3 8b bd 85 83 20 3e b9 cc 7d bd
       0.0061629293 -0.068243355 0.1567517 -0.061962817
000240 5d 91 22 bd 5e 87 35 bd 2e 51 2f bd b1 13 c9 3d
       -0.03968941 -0.04431855 -0.04280203 0.09818209
000250 c8 4f 87 3d 3e 23 82 3d 8e ac 1c 3c 65 86 74 3d
       0.06607014 0.06354378 0.009562625 0.05969848
000260 9c 5d e6 3d e7 40 fe bd c4 4d 1d 3d 4a 48 eb 3c
       0.11248323 -0.12414723 0.03840424 0.028720994
000270 0a 4b fd 3d 11 0e b2 3d ad c1 07 be e3 d4 59 bd
       0.12367828 0.08694089 -0.13257475 -0.05318154
000280 3b 6b 49 bd 2b a6 8e 3d 5a 9e 53 bd 56 f8 83 bd
       -0.04917453 0.06965288 -0.051664688 -0.06443851
000290 60 c4 0d 3d c3 71 7c 3d de 5b 9f 3d 19 5f 5c 3d
       0.034611106 0.06163193 0.07781194 0.05380163
0002a0 ca a9 6e 3b 1b 7d 20 bc 4e 72 0d 3e c7 08 c0 bd
       0.003641712 -0.0097954525 0.13813135 -0.09376674
0002b0 6a cd e4 bd 70 c3 a6 bd c6 9b 27 3c 98 18 c5 bd
       -0.11171992 -0.081427455 0.01023001 -0.096238315
0002c0 b8 80 96 3d b9 da 5d 3d 75 4c b0 bc fd 4d e8 3d
       0.0734877 0.05416367 -0.021520833 0.11343
0002d0 de 47 b1 3c 56 47 ff 3c 28 31 a5 bc e1 69 88 bd
       0.021640714 0.031161945 -0.020165041 -0.0666082
0002e0 2b 1d 1c 3d c4 83 be bb 19 af ed bd bb 6b 0b bd
       0.038113754 -0.0058140475 -0.11605663 -0.034038287
0002f0 1a df 92 bd 1f c8 72 bd cd 5a d7 bd 84 87 11 bb
       -0.071714595 -0.05927288 -0.10515366 -0.0022206018
000300 e1 85 3d 3d ce 36 59 3d e8 c8 c8 3c 90 57 a6 bd
       0.046270255 0.05303078 0.024509862 -0.0812217
000310 c9 fd ba bc 3e e0 80 3d 2f 3e c7 3d e5 6b 05 be
       -0.022826092 0.06292771 0.097286575 -0.1302944
000320 db 84 4e bc 1e 8b 6c 3d 3b 73 08 be e0 df aa bc
       -0.012604917 0.05774986 -0.13325207 -0.020858705
000330 10 1c a5 3d 9b 1e f8 bc 7e 90 5c 3d 58 a3 c3 3d
       0.08061993 -0.030288031 0.053848736 0.0955264
000340 d3 71 cd bd 86 63 c7 bd 04 ba d4 bd 97 c1 1c 3d
       -0.10031476 -0.097357795 -0.10387042 0.03827056
000350 9a 58 1b 3d 48 c0 d2 3d 08 8a 6e 3d 7b 3e a5 bd
       0.037926294 0.10290581 0.058237106 -0.08068558
000360 97 d4 8a bd e8 38 e8 3d 45 71 b5 3c 54 ed 8b 3a
       -0.067788295 0.11338979 0.022148738 0.0010675588
000370 78 e3 8e bd 2a 2e 06 be aa 45 e3 bc db cf f8 3d
       -0.0697698 -0.13103548 -0.02774318 0.1214902
000380 e9 a0 0f bd 3a f0 96 bd cc 4c 87 bd fd 75 ba bd
       -0.035065565 -0.07370038 -0.06606445 -0.09104536
000390 a6 9c 10 3e 5c c2 87 3c d3 d8 bf 3c 20 e2 a3 bc
       0.14122257 0.01657217 0.02341882 -0.020005286
0003a0 60 4a 9b bd b6 6c 5a 3d 9e b4 a1 bc 59 3d af bd
       -0.07582545 0.05332633 -0.019739445 -0.08556623
0003b0 da 30 0c be 1c 3b eb bc da b9 a2 b9 4c 44 cb 3d
       -0.1369051 -0.028714709 -0.00031037518 0.09925136
0003c0 fc 6d 46 bc dc 12 ce 3c dc 8c db bb 62 2f 24 3c
       -0.012111183 0.025155477 -0.0067001414 0.010021063
0003d0 43 9a f9 bd b2 5a b5 bd 23 f2 dd bb d4 e4 98 bd
       -0.12187626 -0.088551894 -0.0067732497 -0.074655205
0003e0 1c 25 ae bd 69 bd cc 3d b4 0f 84 bc c6 72 dc bd
       -0.08503172 0.099970646 -0.01612077 -0.10764079
0003f0 93 0e 49 bb b9 bb 97 3c 4d 7b d3 3d 44 c8 fa 3d
       -0.0030678853 0.01852213 0.10326252 0.12245229

net.4.bias f4 [64]
000000 d0 ee 64 3d 00 9b ab 3c 98 57 30 3c 90 21 c6 3d
       0.05589181 0.020947933 0.0107630715 0.0967437
000010 66 f7 a2 bd 71 af 6f bc f7 e1 90 bd 2e 0a a5 bd
       -0.07957344 -0.014629231 -0.070743494 -0.08058582
000020 83 d9 d9 bd f7 49 dd bd 16 15 49 3d 1a d9 db bc
       -0.1063719 -0.10805123 0.049092375 -0.02683692
000030 d3 f9 2d 3c e6 93 f9 bd f1 15 a5 3a a7 93 51 bd
       0.010618645 -0.121864125 0.001259504 -0.051166203
000040 9b 61 da bd fc 02 10 bd 0e 7f 48 bd b3 4d 88 bd
       -0.10663148 -0.035159096 -0.048949294 -0.06655445
000050 33 cc 16 bd 3e 3e bd 3d b0 a0 a4 bd 04 4c ad bc
       -0.036815833 0.092403874 -0.08038461 -0.021154411
000060 5e e1 b7 3d cd 60 ea bd af 31 3c 3d 54 49 a3 3d
       0.08978532 -0.114442445 0.04594582 0.079729706
000070 4b 13 d6 3d bb 9c cd bd c1 3a a6 bc ef 67 b3 3d
       0.104528986 -0.100396596 -0.020291688 0.08760058
000080 4d e7 2f 3c 61 ad 9d 3d 13 28 bc 3d d3 3e eb 3d
       0.010736299 0.07699085 0.09187331 0.11486592
000090 f9 2b f8 3d 54 24 4f 3d 0c 14 24 3d 38 0e 92 3d
       0.12117762 0.050571755 0.04005818 0.07131618
0000a0 70 5e e0 bd 58 d1 e4 bd 0b 8e 55 3d 7e 33 e3 bd
       -0.109555125 -0.11172742 0.052137416 -0.11093806
0000b0 d6 3b 78 bd 74 e6 e7 3d 42 d6 ea 3d cd 1a 8c bd
       -0.06060394 0.11323252 0.11466648 -0.06841049
0000c0 82 2c fa bc 1e fc f5 3d 84 41 a2 bc c6 99 4e 3d
       -0.030538801 0.12010978 -0.01980663 0.05043962
0000d0 d6 cb ed bd 3b 34 da bc 1d 95 cc 3d 0a 32 98 bd
       -0.11611144 -0.026636234 0.099893786 -0.07431419
0000e0 12 e8 f8 bb d7 5b 0e bd a3 08 f3 3d a9 68 69 3d
       -0.0075960243 -0.034755554 0.11866882 0.056984577
0000f0 6b d1 eb bd be 15 1d 3c 27 52 e2 3d 2f 74 bf 3d
       -0.11514553 0.009587703 0.110508256 0.09348332

net.5.weight f4 [64]
000000 26 df 78 3f 80 e3 79 3f 43 8f 7d 3f 6b bc 7a 3f
       0.972155 0.9761276 0.99046725 0.97943753
000010 89 4e 7a 3f 3e ab 7c 3f f6 30 7a 3f 94 75 7a 3f
       0.97776085 0.98698795 0.9773096 0.9783566
000020 3f c7 7c 3f ae 38 85 3f 47 24 86 3f 30 81 82 3f
       0.98741525 1.0407922 1.0479821 1.0195675
000030 89 df 82 3f 32 44 86 3f 1f ee 7b 3f 1a 34 86 3f
       1.0224468 1.0489562 0.9841022 1.048465
000040 fa bf 85 3f 97 21 7c 3f f6 1d 84 3f ce 7b 80 3f
       1.0449212 0.98488754 1.0321643 1.0037782
000050 95 db 7d 3f a0 6b 86 3f 57 b6 83 3f f7 11 81 3f
       0.9916318 1.0501595 1.0290021 1.0083607
000060 71 e2 85 3f 93 3d 85 3f 1d 70 84 3f 6b fb 80 3f
       1.045973 1.0409416 1.0346714 1.0076727
000070 81 db 85 3f 50 95 80 3f bc 35 79 3f 63 0c 86 3f
       1.0457612 1.0045567 0.9734762 1.047253
000080 08 7e 79 3f c3 b8 7a 3f d5 a2 84 3f 95 c0 7c 3f
       0.97457933 0.97938174 1.0362192 0.98731357
000090 b0 69 86 3f 61 a4 84 3f aa 58 80 3f b8 4d 82 3f
       1.0501003 1.0362664 1.0027058 1.0179968
0000a0 e7 cc 7d 3f 95 f6 84 3f cc 39 79 3f 44 d0 7e 3f
       0.9914078 1.0387751 0.97353816 0.9953654
0000b0 97 d0 86 3f f8 b1 82 3f d4 de 7e 3f 70 12 7b 3f
       1.0532407 1.0210562 0.9955876 0.9807501
0000c0 d8 4c 86 3f 9b 00 7c 3f 62 63 85 3f 53 8b 84 3f
       1.0492201 0.98438424 1.0420954 1.0355018
0000d0 49 b5 83 3f c8 a3 7a 3f a8 a8 86 3f 38 3f 7a 3f
       1.0289699 0.9790616 1.052022 0.97752714
0000e0 82 a4 83 3f ed 7c 83 3f e4 df 7f 3f ec 51 86 3f
       1.0284579 1.0272499 0.99951005 1.049375
0000f0 6a 7f 7e 3f 22 9d 85 3f f6 a4 85 3f 99 bd 7f 3f
       0.9941317 1.0438578 1.0440967 0.9989868

net.5.bias f4 [64]
000000 26 3c df bc ae 00 a7 bc 19 ac a5 bc 59 0c 82 bb
       -0.02725036 -0.020386066 -0.020223664 -0.003968757
000010 b5 f2 f9 bc 33 74 46 bc 6f e5 b7 bc 38 f1 90 bc
       -0.03051124 -0.012112665 -0.02244827 -0.017693147
000020 78 e2 99 bb 84 7b 47 3d d6 4f 33 3d 52 6d a5 3b
       -0.0046961866 0.048701778 0.04377731 0.0050484324
000030 f7 0c 83 3c 21 3a 02 3d 6a c8 b6 bc 38 57 2f 3d
       0.015997393 0.031793717 -0.022312362 0.042807788
000040 00 85 34 3d c0 ab 27 bc 93 0e a1 3c 72 07 17 bc
       0.04407215 -0.0102338195 0.01966027 -0.009218084
000050 5d a2 0a 3d 32 c8 2c 3d 92 6d a5 3c 6c 25 6b 3b
       0.033846248 0.04218311 0.020193849 0.003588046
000060 ae 44 17 3d 54 be 01 3d 37 b4 03 3d 62 d8 d3 ba
       0.036930732 0.03167565 0.03215429 -0.001616251
000070 41 88 36 3d ca 92 de bb d2 3a b6 bc fc 84 0c 3d
       0.044563536 -0.006792401 -0.022244845 0.03430651
000080 b2 b5 df bc 51 fe d5 bc 9e 1d d2 3c 95 e2 d7 bc
       -0.027308319 -0.026122244 0.025648888 -0.02635316
000090 19 a0 3d 3d ad e3 13 3d cc b7 8e 3c d0 fe 83 3b
       0.04629526 0.0361058 0.017421626 0.0040281788
0000a0 f5 19 a5 bb 25 c3 07 3d 70 0a 52 bb a4 45 73 bc
       -0.0050384947 0.03314509 -0.0032049678 -0.014848147
0000b0 6f f2 4a 3d 06 77 19 3c 04 ba c8 bb ec fb 9a bc
       0.04954761 0.009366756 -0.0061256904 -0.018918954
0000c0 27 75 40 3d 60 c5 61 bc 02 2a 36 3d 7d a9 3f 3d
       0.046986725 -0.013779968 0.044473656 0.046792496
0000d0 79 7c 27 3d 6b 2d ea bb a6 8b ec 3c 4d 8f a1 bc
       0.04089019 -0.0071465275 0.028875183 -0.019721651
0000e0 38 65 7c 3c a8 c1 0b 3d db 27 b5 bb 03 42 33 3d
       0.015404992 0.034120232 -0.005528433 0.043764126
0000f0 b0 51 9f bc 8d cb 19 3d 28 d4 12 3d d9 3b ef 3a
       -0.019448131 0.037547637 0.03584686 0.0018252089

net.5.running_mean f4 [64]
000000 4d f1 ab 3e 63 8c 2e be 06 a0 2c 3e e5 d9 9e bd
       0.33582535 -0.17045741 0.16857919 -0.07756404
000010 4c 05 07 be cc 1b 1a 3e 33 d5 35 3e e8 c7 76 bd
       -0.13185614 0.15049666 0.1775711 -0.06024924
000020 c9 d1 d8 3d 91 1f 8f bd 81 81 2b 3e 0b 60 1f be
       0.10586888 -0.06988443 0.1674862 -0.15563981
000030 a0 6f 04 be 2f 19 56 bd 0c 6b 71 3e 27 4d 58 3c
       -0.12933207 -0.05227011 0.23575991 0.013201988
000040 20 42 2a 3c 2c b1 ec 3d 54 e0 c9 be cc 2c d1 3e
       0.010391742 0.1155723 -0.3942896 0.4085449
000050 6a 4c a7 be 73 87 25 3e 5c 3f ee 3d ab 5a 44 be
       -0.32675487 0.16164951 0.116331786 -0.19175212
000060 5c 40 9e 3e 45 63 b3 bd 9c 70 44 3e e6 0d 29 3e
       0.30908477 -0.087591685 0.19183582 0.16509208
000070 e0 ef dd 3d ca 77 73 be 09 1a b9 bd 46 96 a0 3e
       0.10836768 -0.23776165 -0.09038169 0.3136465
000080 90 12 f0 bd 4f 8b 5d be 72 62 a2 3e a5 24 8e 3e
       -0.117222905 -0.21635173 0.31715733 0.27762333
000090 54 c7 b6 bd 25 cc df 3d f0 58 c9 be 7f 48 f6 3e
       -0.089247376 0.10927609 -0.39325666 0.48102185
0000a0 c2 4e 84 be 72 a0 20 3e 0a f8 73 bc d4 2b 20 3e
       -0.25841337 0.15686205 -0.01489068 0.15641719
0000b0 bf 7f 87 be 6c 10 3f 3d 5f e0 56 bc 58 e9 76 be
       -0.2646465 0.04664652 -0.013115018 -0.24112451
0000c0 97 9d 31 3d 9e c0 da 3d a9 c5 82 3e ae 28 23 3e
       0.04336318 0.1068127 0.25541428 0.15933487
0000d0 7e 43 a1 be 3b a6 70 bd bd 17 a5 bd 88 6f 85 3e
       -0.31496805 -0.05875228 -0.08061168 0.26061654
0000e0 0f 4e b2 bc fe 50 09 be c0 7f 06 3d 43 c9 56 be
       -0.021765737 -0.13409802 0.032836676 -0.20975213
0000f0 2f 48 93 bd 2c e5 0f 3e 31 f4 9c 3e b7 3b 98 bd
       -0.07191502 0.14052266 0.30655053 -0.07433265

net.5.running_var f4 [64]
000000 13 47 96 3e d4 ec a3 3e a7 c6 dd 3e f8 00 93 3e
       0.293511 0.32016623 0.43315622 0.28711677
000010 46 50 da 3e 89 6f bd 3e 7c 96 a1 3e 61 c4 a7 3e
       0.4263937 0.36999157 0.31560123 0.32767013
000020 dc bf a7 3e 0d 54 ac 3e 9f 65 d5 3e 68 0e a4 3e
       0.32763565 0.33657876 0.41679093 0.3204224
000030 43 3a a6 3e ac 4f 99 3e 64 49 b0 3e 38 1c 9f 3e
       0.32466325 0.29943597 0.34430993 0.31076217
000040 f5 94 c5 3e 06 d6 94 3e 96 01 a1 3e 3b f8 bb 3e
       0.38590208 0.29069537 0.31446522 0.36712822
000050 34 37 9b 3e 76 40 d0 3e 50 78 9d 3e 4d 5d b0 3e
       0.30315554 0.4067418 0.30755854 0.34446183
000060 aa 6a b8 3e 20 ad af 3e 76 ab 9c 3e 63 a9 8f 3e
       0.36018878 0.3431177 0.30599564 0.2805892
000070 42 76 a9 3e 5c 98 a6 3e 15 14 8d 3e 02 2f eb 3e
       0.33098036 0.32538116 0.27554384 0.45934302
000080 78 9c 8a 3e 48 14 d5 3e 20 e9 a1 3e 23 d4 aa 3e
       0.270725 0.41617036 0.31623173 0.33364972
000090 72 39 8c 3e c0 36 a8 3e 82 fd a6 3e ef 8f c0 3e
       0.27387577 0.3285427 0.32615286 0.37609813
0000a0 f2 44 b1 3e d0 2b a1 3e b9 34 b0 3e 99 8a 8c 3e
       0.34622914 0.3147874 0.34415224 0.27449492
0000b0 d9 0b b6 3e e4 63 a5 3e 2b 24 ab 3e b9 be 95 3e
       0.35555914 0.32302773 0.3342603 0.29247072
0000c0 fb bd c5 3e e8 54 a9 3e 49 0a c4 3e 9d 12 fb 3e
       0.38621506 0.3307259 0.38289097 0.49037638
0000d0 42 75 af 3e d6 23 8d 3e b3 c9 94 3e a6 ee a3 3e
       0.34269148 0.27566403 0.29060134 0.32018012
0000e0 7a 43 9c 3e e1 6c a8 3e 4e 9e 88 3e d2 42 ad 3e
       0.3052023 0.32895568 0.26683277 0.33840042
0000f0 ce fd a4 3e fc 9b b1 3e f1 43 95 3e 74 bf 99 3e
       0.32224888 0.3468932 0.29153398 0.3002888

net.8.weight f4 [2, 64]
000000 1b 4b 47 3d 13 6d 40 3d 53 94 23 bd 34 cc 90 3d
       0.04865561 0.04697902 -0.039936375 0.07070199
000010 55 76 5d 3d 8d 37 21 bd e3 88 bb bd a3 76 99 bd
       0.05406793 -0.039359618 -0.091569684 -0.07493331
000020 9f 8d 29 3d 8f 30 7a 3d d6 2c ec 3d 04 9c f1 bd
       0.041394826 0.061081465 0.11531989 -0.11797336
000030 8f e7 a7 bd 71 ed a7 bd 40 5a 81 39 2e 4c 89 3d
       -0.08198463 -0.08199585 0.0002467204 0.06703983
000040 bd 04 06 3e 88 1f cc 3d 71 6e 5d bd 52 d0 ef bd
       0.13087745 0.099669516 -0.054060403 -0.11709656
000050 3b 2d 39 3d 45 d9 33 3d c4 16 05 be cd eb 08 be
       0.04520915 0.043908376 -0.12996966 -0.13371201
000060 59 28 23 3e ee 8c 13 3e 4b 56 21 be af b9 0e bd
       0.1593336 0.14409229 -0.15755574 -0.03484505
000070 65 23 09 bd 6d 27 9e 3d 58 ea 5d 3a 5b dd 8e 3c
       -0.03348102 0.077223636 0.0008465401 0.017439535
000080 06 1a c8 bc 5e 36 c3 3d 00 b4 f8 b7 d4 29 14 bd
       -0.024426471 0.09531854 -2.9647723e-05 -0.036172703
000090 d8 6c 80 3c 03 99 75 3d 6f be 5c 3c 20 4d f8 bd
       0.0156769 0.059960376 0.013473137 -0.121240854
0000a0 77 ac ad 3d 3f 32 25 be a5 3b 5e bd e4 5f c5 bd
       0.08480161 -0.16132449 -0.0542561 -0.0963743
0000b0 cb 23 65 bd a4 7e 96 3d f5 3c e2 bd 28 14 f5 bc
       -0.055942338 0.073483735 -0.11046783 -0.029916838
0000c0 1a ab e9 bd 63 77 be 3d 1b 6c c7 3d fb 6c 4c bd
       -0.11409588 0.09300115 0.09737416 -0.04990862
0000d0 67 fe d3 3c cb 5c 50 bd 9d 6f 2b bd b2 ed 20 3d
       0.025878144 -0.050869744 -0.04185449 0.039289184
0000e0 b7 82 bf bd 22 c4 6e 3d 29 e4 ca bc 4c 5b 22 3e
       -0.09351104 0.058292516 -0.024766998 0.1585514
0000f0 36 68 31 3d a5 1a bd 3d 3b 71 aa 3d c5 38 fa 3d
       0.043312274 0.09233598 0.08322378 0.12217859
000100 27 a2 4d 3d 73 29 69 3d 3d de 8a 3d 0b af 7b 3d
       0.05020347 0.056924295 0.0678067 0.06144623
000110 ff e4 9b 3d f3 c8 71 3d fd e0 a9 bc 42 ea 88 3c
       0.07612037 0.05902953 -0.020737166 0.016713265
000120 4b 10 a0 3d 7e ca 26 be d3 64 a4 bd fc 82 10 3e
       0.07815608 -0.16288182 -0.08027043 0.14112467
000130 80 51 0b b8 7c 2f e9 3d 61 3c 8b 3d 9b dd 8b bd
       -3.3216085e-05 0.1138601 0.06798626 -0.06829377
000140 79 9e 2c be a0 1e 0b 3d 9b b4 53 3d a7 c4 09 bd
       -0.16857328 0.033964753 0.05168591 -0.033634808
000150 ba 62 eb b9 3b 17 0e be be b9 4e 3d 0f 7a e7 3d
       -0.0004489625 -0.13876049 0.050470106 0.11302578
000160 09 6b 69 bd 90 23 7f bd 8b 1d 20 3d 0f a9 0e 3d
       -0.056986842 -0.062289774 0.039090674 0.034829196
000170 f7 af 19 3e d4 e6 03 3e 4c 17 e7 3b 19 02 dd bd
       0.15008532 0.12881023 0.0070523378 -0.10791416
000180 cf ff b5 bc 36 8b 85 bd 68 2a e3 3d 85 18 27 3d
       -0.022216706 -0.06520693 0.11092073 0.040794868
000190 37 cd 15 be 4f 2d 15 3e 7b e7 b8 bd cd 76 35 3c
       -0.14629065 0.14568065 -0.090285264 0.011075688
0001a0 b8 3a e7 3d 77 a8 81 bd b0 b7 92 bd 41 9d 6b bd
       0.112904966 -0.0633096 -0.07163942 -0.057523016
0001b0 f8 c9 1f be 9b 87 11 bd 73 7f a4 3d 16 db 8f bd
       -0.15604389 -0.035529714 0.080321215 -0.07024209
0001c0 86 67 24 3e c0 af 91 bd 7d 8b a1 bd 52 46 07 3e
       0.16055116 -0.071136 -0.078879334 0.13210419
0001d0 31 ec 0d be 5a ea c9 bd 8e ac 16 3e a4 d6 c4 3d
       -0.13859631 -0.09859152 0.14714262 0.09611252
0001e0 8c e6 cc 3d a8 fe fc bd 7a 7c b0 bd 1e 6c 7b bd
       0.10004911 -0.12353259 -0.08617492 -0.061382405
0001f0 cb 11 51 bd a0 02 1d be f6 20 76 bd 40 fc e8 b8
       -0.05104236 -0.15333033 -0.060090028 -0.00011109607

net.8.bias f4 [2]
000000 de e5 7f bd 3a 6f 6c bc
       -0.062475078 -0.014430815
