data/weights/feature_mlp_4ch.pth (torch, 32035 bytes, 14 tensors)

net.0.weight f4 [64, 26]
0.13047016 0.1670027 -0.045306254 0.17104615 -0.07562996 0.040619865 -0.10814005 0.12023509
0.17722937 -0.12452491 0.1553666 0.010941954 0.13698392 0.025640948 0.10230066 -0.026922684
0.1418743 0.02632528 -0.107567124 0.036725357 -0.1070108 -0.04077549 -0.090793125 0.119801454
-0.17487215 -0.10084472 -0.015170978 -0.1466159 0.024989028 -0.15634683 0.22130479 -0.15186383
0.20620383 0.011217435 -0.06389095 0.08816156 0.029969987 0.1136126 0.040830128 -0.07864917
0.039463453 -0.057599083 0.081826985 0.167705 0.1272877 -0.07954348 0.13448375 0.07698647
0.09409081 -0.07629851 -0.19335502 -0.03574013 -0.122667074 0.117780484 0.07571454 0.08226757
0.09582132 -0.039609514 0.1881015 -0.17633164 -0.011787085 -0.17836025 0.060195588 -0.106423795
0.028686723 -0.0803751 0.1612546 -0.10969207 -0.12182596 -0.101214185 0.15969038 0.034278367
0.17221753 -0.15930483 -0.16701972 -0.12695031 -0.13121729 0.11427219 0.09341314 0.14415024
-0.095853634 -0.13568935 0.13036013 -0.07976236 0.14271894 -0.064736806 0.094078824 -0.18161683
-0.09859933 0.042534906 0.0376546 -0.047530357 0.10967833 0.12900028 -0.14065488 -0.0896659
0.18316694 -0.06794564 -0.076062255 -0.1795867 -0.08929119 0.05862556 -0.0036682924 -0.13895792
0.035758186 -0.15077132 -0.11938576 -0.11729878 -0.1475323 -0.10599112 0.23307501 0.006790444
0.05229873 -0.2019781 -0.11675758 -0.096166044 0.06234573 -0.19653845 -0.06626736 -0.10553917
0.020789443 -0.05612637 -0.0030154996 -0.13161777 -0.12904324 -0.089169934 -0.06975977 -0.13842177
0.17960687 -0.02496909 0.19402544 0.041112807 -0.16543406 0.14430116 -0.025758391 -0.08325725
-0.13286836 -0.19873248 0.05539812 -0.04155324 0.06998678 -0.18064345 0.13951245 -0.15479597
-0.026371397 0.052475374 0.109520696 0.17059952 0.18313761 -0.15375616 0.05079741 -0.06653623
-0.014123151 -0.12436851 0.18224731 -0.1357182 0.12149023 0.016081465 0.052086595 -0.0872324
0.212113 0.013560372 0.060152553 -0.21605891 0.054505695 -0.065025926 -0.10428044 0.11663271
0.045284115 -0.13060364 -0.09662035 -0.014483575 0.10453156 -0.05596887 -0.07653638 -0.051019803
-0.14070675 0.10068358 0.13672763 -0.17952208 0.030016 0.091769084 0.044832297 -0.06255535
0.09986885 0.10628917 0.07735734 -0.02948578 -0.05506544 0.027258974 -0.009531 -0.044876155
0.13226597 0.17065825 -0.021953825 -0.039377008 0.0057873754 -0.0012861221 0.060737625 0.06765905
-0.17668127 -0.066847354 0.16985382 0.08210296 0.0051144813 -0.11127419 -0.11223613 -0.17604834
-0.08544115 0.09571289 0.117324054 0.08754648 -0.1999788 -0.100060314 -0.050677765 0.2181267
0.026425092 -0.038136795 0.057045255 -0.03875255 -0.11375076 0.17042999 -0.09070878 -0.033077292
-0.18185622 0.13650234 0.16982338 0.09052709 -0.13153858 -0.1884915 -0.14625324 0.12267017
0.1090739 0.13500471 0.1312414 0.01724435 0.017068725 -0.14835346 -0.12560524 -0.17097947
0.119373634 -0.12780066 -0.07798768 -0.16216332 -0.033089753 -0.15263417 -0.09548903 0.020353002
-0.043234963 0.12332995 -0.06312991 -0.14291295 -0.032638628 -0.11630562 -0.081281 -0.17309888
00000000: f899 053e c102 2b3e 0d93 39bd b926 2f3e
00000010: e1e3 9abd 0461 263d 8878 ddbd d13d f63d
00000020: 9e7b 353e ea06 ffbd 6c18 1f3e e245 333c
00000030: 8345 0c3e f70c d23c 0283 d13d f68c dcbc
00000040: 7f47 113e 1da8 d73c 274c dcbd 546d 163d
00000050: 7a28 dbbd 3304 27bd bff1 b9bd 775a f53d
00000060: af11 33be ad87 cebd b28f 78bc 7a22 16be
00000070: cab5 cc3c 6219 20be b99d 623e 3182 1bbe
00000080: 1927 533e 55c9 373c 42d9 82bd 0c8e b43d
00000090: 9e83 f53c b9ad e83d 7e3d 273d d112 a1bd
000000a0: 6ea4 213d 04ed 6bbd e894 a73d dcba 2b3e
000000b0: b557 023e b1e7 a2bd 1cb6 093e 15ab 9d3d
000000c0: afb2 c03d 6542 9cbd dcfe 45be 3e64 12bd
000000d0: e038 fbbd e536 f13d 3a10 9b3d e67b a83d
000000e0: f83d c43d 963d 22bd ae9d 403e 4890 34be
000000f0: 9e1e 41bc 12a4 36be a68f 763d b8f4 d9bd
00000100: 6b00 eb3c b39b a4bd ed1f 253e 3ca6 e0bd
00000110: e47f f9bd 6249 cfbd e085 233e 7967 0c3d
00000120: cb59 303e ce20 23be 3807 2bbe 43ff 01be
00000130: d35d 06be 8a07 ea3d 634f bf3d 1f9c 133e
00000140: e94e c4bd 26f2 0abe 207d 053e 735a a3bd
00000150: ea24 123e bb94 84bd 66ac c03d c3f9 39be
00000160: 72ee c9bd 1539 2e3d b63b 1a3d 31af 42bd
00000170: 089f e03d a618 043e d507 10be c1a2 b7bd
00000180: 1d90 3b3e 1527 8bbd 87c6 9bbd 93e5 37be
00000190: 4dde b6bd 5b21 703d bc67 70bb fc4a 0ebe
000001a0: 2d77 123d cc63 1abe 8580 f4bd 583a f0bd
000001b0: b512 17be df11 d9bd 37ab 6e3e 5f82 de3b
000001c0: 3137 563d 59d3 4ebe 991e efbd b4f2 c4bd
000001d0: 3c5e 7f3d 6041 49be 2eb7 87bd ec24 d8bd
000001e0: 9f4e aa3c c4e4 65bd b09f 45bb cfc6 06be
000001f0: e923 04be ba9e b6bd 36de 8ebd 70be 0dbe
00000200: ddea 373e fa8b ccbc 9bae 463e e765 283d
00000210: 8c67 29be afc3 133e 4303 d3bc c782 aabd
00000220: a50e 08be 8780 4bbe 24e9 623d bb33 2abd
00000230: 3b55 8f3d 99fa 38be 5adc 0e3e d682 1ebe
00000240: d408 d8bc 6bf0 563d 634c e03d a4b1 2e3e
00000250: 6d88 3b3e 4172 1dbe f210 503d 2644 88bd
00000260: ca64 67bc ebb4 febd 0a9f 3a3e b6f9 0abe
00000270: dfcf f83d 47bd 833c c158 553d e7a6 b2bd
00000280: 2634 593e 532c 5e3c 8662 763d 8c3e 5dbe
00000290: 5d41 5f3d 502c 85bd fc90 d5bd 21dd ee3d
000002a0: d67b 393d f6bc 05be e4e0 c5bd 844c 6dbc
000002b0: a414 d63d 9d3f 65bd 1bbf 9cbd 24fa 50bd
000002c0: 6e15 10be 3133 ce3d 5402 0c3e a3d4 37be
000002d0: 1de4 f53c 6ef1 bb3d 12a2 373d 051d 80bd
000002e0: 0a88 cc3d 23ae d93d 866d 9e3d 2a8c f1bc
000002f0: 4c8c 61bd 364e df3c e927 1cbc 0fd0 37bd
00000300: bb70 073e 09c1 2e3e 82d8 b3bc c949 21bd
00000310: 06a4 bd3b 1993 a8ba 04c8 783d d490 8a3d
00000320: efeb 34be 44e7 88bd 29ee 2d3e 9925 a83d
00000330: 6197 a73b b9e3 e3bd 0edc e5bd 0446 34be
00000340: c5fb aebd 1f05 c43d 9847 f03d 924b b33d
00000350: 3ec7 4cbe 6cec ccbd 7d93 4fbd 9b5c 5f3e
00000360: 6f79 d83c 5435 1cbd 49a8 693d feba 1ebd
00000370: 29f6 e8bd 3385 2e3e 86c5 b9bd 0e7c 07bd
00000380: 8438 3abe 45c7 0b3e 2ee6 2d3e 4466 b93d
00000390: 0db2 06be ea03 41be 69c3 15be 803a fb3d
000003a0: 2362 df3d ad3e 0a3e 2564 063e 0644 8d3c
000003b0: b6d3 8b3c f8e9 17be a99e 00be 3e15 2fbe
000003c0: 2a7a f43d 2dde 02be 01b8 9fbd 240e 26be
000003d0: 1f89 07bd 224c 1cbe c18f c3bd 57bb a63c
000003e0: 2517 31bd 6a94 fc3d 414a 81bd c657 12be
000003f0: 15b0 05bd a431 eebd a776 a6bd d540 31be

net.0.bias f4 [64]
-0.17265435 0.018342258 -0.13420849 0.14701207 0.032774203 -0.05094993 -0.10224404 0.06778606
-0.11740271 0.09406646 0.10875008 0.119833596 0.05187392 -0.17468257 0.14012997 -0.06047359
-0.05780018 -0.020613365 0.14246878 0.15117137 0.029496852 0.09469195 -0.18280396 -0.0013076583
-0.17201036 0.06602268 -0.13978916 -0.069579735 0.13690674 0.18654905 -0.12059161 -0.109901644
0.025574166 0.07677818 -0.0341794 -0.06081519 -0.13052893 0.08367198 0.19070375 -0.09458342
0.09241696 0.095679455 0.15710707 -0.021109054 0.0066476706 0.14400677 0.124149196 0.19419293
-0.053188514 0.07787874 0.13669874 -0.13318169 0.04002485 -0.044683788 0.12592626 -0.08831234
0.013921002 0.116649054 -0.17936859 -0.16535342 -0.09888336 0.12737465 0.13211137 -0.13673045
00000000: 4dcc 30be 8142 963c f36d 09be 558a 163e
00000010: 3e3e 063d e0b0 50bd 5365 d1bd 6bd3 8a3d
00000020: d570 f0bd eba5 c03d 5db8 de3d 516b f53d
00000030: bf79 543d fddf 32be 3b7e 0f3e 28b3 77bd
00000040: e2bf 6cbd 5cdd a8bc 56e3 113e abcc 1a3e
00000050: 62a3 f13c daed c13d f630 3bbe bb65 abba
00000060: 7c23 30be e636 873d e424 0fbe d27f 8ebd
00000070: 4831 0c3e b706 3f3e bcf8 f6bd 1d14 e1bd
00000080: ea80 d13c e13d 9d3d b3ff 0bbd 5919 79bd
00000090: 60a9 05be 375c ab3d d847 433e f4b4 c1bd
000000a0: 1a45 bd3d 97f3 c33d ade0 203e e5ec acbc
000000b0: b4d4 d93b 8376 133e ef41 fe3d 83da 463e
000000c0: 33dc 59bd e47e 9f3d c1fa 0b3e c860 08be
000000d0: 19f1 233d 5906 37bd d0f2 003e 1add b4bd
000000e0: ea14 643c b3e5 ee3d 66ac 37be 6852 29be
000000f0: 5c83 cabd 806e 023e 3448 073e 1103 0cbe

net.1.weight f4 [64]
0.97526354 1.0302582 1.037023 1.0095918 1.0127895 1.0035408 1.0348339 0.977696
0.9920468 1.008226 0.9857664 1.0072281 1.0085211 0.9968303 0.97839385 1.0072014
1.0201814 0.99329156 0.98620176 0.9830513 0.99849534 1.0145178 0.9797751 0.99652153
0.9743125 0.968772 0.99816537 0.9961074 0.9717029 0.9990126 0.99876744 1.0402056
1.0184162 0.9615741 0.97806215 0.98295474 1.0346216 0.9839549 1.0355365 0.979333
1.0019137 0.97378314 1.033129 0.9903213 0.9700191 1.0293756 1.0022157 1.0295724
1.0203283 0.994176 1.0006628 0.96755856 0.96105397 1.0390295 0.98723125 0.99431276
0.9872331 0.97247845 0.98998994 0.9925527 0.9865143 0.98210806 1.0164999 1.028705
00000000: dfaa 793f 80df 833f 2bbd 843f 4e3a 813f
00000010: 16a3 813f 0674 803f 7075 843f 494a 7a3f
00000020: c7f6 7d3f 8d0d 813f 305b 7c3f daec 803f
00000030: 3817 813f 4530 7f3f 0578 7a3f faeb 803f
00000040: 4e95 823f 5b48 7e3f b877 7c3f 40a9 7b3f
00000050: 649d 7f3f b8db 813f 8ad2 7a3f 091c 7f3f
00000060: 8b6c 793f 7101 783f c487 7f3f e500 7f3f
00000070: 85c1 783f 4abf 7f3f 39af 7f3f 7525 853f
00000080: 765b 823f b829 763f 4862 7a3f eca2 7b3f
00000090: 7b6e 843f 78e4 7b3f 768c 843f 91b5 7a3f
000000a0: b53e 803f da49 793f 923d 843f b285 7d3f
000000b0: 2c53 783f 94c2 833f 9b48 803f 07c9 833f
000000c0: 1e9a 823f 5182 7e3f b815 803f ebb1 773f
000000d0: a207 763f ebfe 843f 30bb 7c3f 488b 7e3f
000000e0: 4fbb 7c3f 59f4 783f fb6f 7d3f ef17 7e3f
000000f0: 338c 7c3f 6f6b 7b3f ab1c 823f 9bac 833f

net.1.bias f4 [64]
-0.0030237935 0.025658859 0.038748924 0.0056721643 0.004540198 0.021318162 0.02895124 -0.0106199
0.0031435555 -0.012220459 0.003276595 0.019545648 -0.010959302 0.009558084 -0.027971702 -0.00883168
0.04181817 -0.01550505 -0.0036284467 -0.013320263 0.0037974827 0.036131226 -0.02096949 -0.0037983602
-0.022057837 -0.022830727 0.00191977 0.018063286 -0.034275845 0.0008754444 -0.026515612 0.015959851
0.006649347 -0.02677626 -0.006023003 -0.0024482447 0.0343171 -0.017519921 0.022749202 -0.0154461125
-0.0023735182 -0.015652249 0.032561906 -0.013490235 -0.02257578 0.02357575 0.01543624 0.041510887
0.020010708 -0.0014065544 0.0075664893 -0.02346621 -0.015560227 0.03280745 -0.018329188 -0.019269308
-0.014007007 -0.012826113 -0.009163658 -0.0037043472 -0.0018977423 -0.006677314 0.037306063 0.014918954
00000000: d62a 46bb 8732 d23c 31b7 1e3d 90dd b93b
00000010: f1c5 943b 6da3 ae3c 272b ed3c 17ff 2dbc
00000020: 1c04 4e3b 5238 48bc 24bc 563b 321e a03c
00000030: a58e 33bc 8399 1c3c e924 e5bc c0b2 10bc
00000040: 8849 2b3d e508 7ebc 3ccb 6dbb 3b3d 5abc
00000050: 30df 783b 56fe 133d 35c8 abbc e9ed 78bb
00000060: a3b2 b4bc 8107 bbbc cba0 fb3a 75f9 933c
00000070: d464 0cbd 147e 653a 4537 d9bc 3cbe 823c
00000080: c4e2 d93b e359 dbbc 9c5c c5bb bb72 20bb
00000090: 1690 0c3d f085 8fbc 895c ba3c b111 7dbc
000000a0: 078d 1bbb 2539 80bc a25f 053d 2606 5dbc
000000b0: d8f0 b8bc ee21 c13c 48e8 7c3c 5207 2a3d
000000c0: 7fed a33c 225c b8ba 50f0 f73b 363c c0bc
000000d0: 53f0 7ebc 1b61 063d 1827 96bc abda 9dbc
000000e0: a57d 65bc 9e24 52bc 2b23 16bc a2c4 72bb
000000f0: aabd f8ba 5fcd dabb 3ece 183d a16e 743c

net.1.running_mean f4 [64]
-0.18057346 0.015533799 -0.13355967 0.14263937 0.042722203 -0.060198613 -0.10376233 0.0593457
-0.11193461 0.10432488 0.09605018 0.13118331 0.040957104 -0.1659395 0.1335206 -0.057976454
-0.047355194 -0.029003043 0.14080563 0.14979927 0.024920939 0.072683305 -0.19848785 -0.00346986
-0.16674234 0.07255107 -0.13572003 -0.07534212 0.13456672 0.19099088 -0.11023817 -0.1168283
0.03914113 0.078483835 -0.04309447 -0.066094264 -0.12426596 0.082672805 0.19810219 -0.10130898
0.10376857 0.09195696 0.15652643 -0.033131804 -0.00022412604 0.13542552 0.12452452 0.1911756
-0.054393698 0.07372885 0.12930919 -0.14336039 0.036618896 -0.047681477 0.12876819 -0.083569214
0.006417821 0.11538453 -0.1914123 -0.16746952 -0.093817234 0.1316647 0.12958035 -0.13063191
00000000: 40e8 38be 7a81 7e3c dec3 08be 0e10 123e
00000010: 7afd 2e3d d292 76bd 5881 d4bd 7a14 733d
00000020: f93d e5bd 48a8 d53d f5b5 c43d eb54 063e
00000030: a3c2 273d 0bec 29be a0b9 083e b878 6dbd
00000040: 85f7 41bd ca97 edbc 5a2f 103e fb64 193e
00000050: ff26 cc3c fcda 943d 6640 4bbe 9766 63bb
00000060: 81be 2abe a895 943d 31fa 0abe f84c 9abd
00000070: dccb 093e 1d93 433e 8dc4 e1bd ad43 efbd
00000080: 7352 203d 22bc a03d d483 30bd 6e5c 87bd
00000090: 277f febd 5c50 a93d 4ddb 4a3e 157b cfbd
000000a0: 9e84 d43d ee53 bc3d 7748 203e 37b5 07bd
000000b0: 6003 6bb9 fdac 0a3e b606 ff3d 89c3 433e
000000c0: edcb 5ebd 27ff 963d a169 043e 11cd 12be
000000d0: b2fd 153d a74d 43bd cfdb 033e 5626 abbd
000000e0: 964c d23b b94e ec3d 9601 44be 217d 2bbe
000000f0: 4023 c0bd 1cd3 063e b6b0 043e 5fc4 05be

net.1.running_var f4 [64]
0.3522687 0.3546276 0.3543389 0.16991831 0.5805903 0.4157828 0.35410288 0.12219253
0.28577808 0.49248818 0.32940188 0.3388689 0.6005569 0.47145948 0.32173842 0.4256526
0.24317136 0.25528592 0.37461248 0.48075244 0.16219164 0.7180983 0.3400486 0.22535217
0.36448827 0.18292417 0.4269015 0.3299738 0.30252305 0.26353458 0.3831213 0.25666317
0.46404704 0.38548365 0.27937293 0.336404 0.47328758 0.39802176 0.33091068 0.22186233
0.26244158 0.4601282 0.57708305 0.43500742 0.39840436 0.2796721 0.28735384 0.36559278
0.21504503 0.5737707 0.21252932 0.2018737 0.29085356 0.49599734 0.2007454 0.41911277
0.23078345 0.32689157 0.4009495 0.40886107 0.1455533 0.1803277 0.2651189 0.16144441
00000000: 905c b43e c091 b53e e96b b53e 11ff 2d3e
00000010: 91a1 143f 7ce1 d43e f94c b53e 1440 fa3d
00000020: 8151 923e 6927 fc3e 5da7 a83e 3980 ad3e
00000030: 19be 193f 2363 f13e e6ba a43e 23ef d93e
00000040: ea01 793e d6b4 823e 35cd bf3e 2f25 f63e
00000050: 9115 263e 4ad5 373f da1a ae3e b8c2 663e
00000060: 359e ba3e 7950 3b3e d592 da3e 53f2 a83e
00000070: 4de4 9a3e 01ee 863e 7a28 c43e 5b69 833e
00000080: 9397 ed3e 1d5e c53e f809 8f3e 253d ac3e
00000090: c052 f23e 82c9 cb3e 206d a93e e12f 633e
000000a0: be5e 863e ec95 eb3e b7bb 133f 4bb9 de3e
000000b0: a8fb cb3e 2e31 8f3e 0b20 933e fa2e bb3e
000000c0: c434 5c3e a3e2 123f 49a1 593e fbb7 4e3e
000000d0: c2ea 943e 5df3 fd3e 3490 4d3e f395 d63e
000000e0: 7f52 6c3e 555e a73e 4149 cd3e 3d56 d13e
000000f0: ed0b 153e d3a7 383e aabd 873e af51 253e

net.4.weight f4 [64, 64]
0.044912457 -0.08596615 -0.091785036 0.08136199 0.043361176 -0.052259296 -0.009531844 0.0060996623
0.05217772 -0.054962505 -0.09734229 0.09202016 0.028110918 0.042158164 -0.039736934 0.07493308
0.12561883 0.063463405 0.01666966 0.10903735 -0.0021431705 0.032321908 0.13982387 0.119088836
-0.034912404 0.085076004 0.061912056 0.008101141 0.104354024 -0.08009583 0.08489104 0.14084858
-0.10376212 -0.07076653 -0.101298355 -0.010570443 -0.08175668 -0.040128022 0.0029222171 0.07668186
0.082159676 0.08385906 0.07482079 -0.08672395 -0.07936179 -0.017400792 0.12360855 -0.023648135
0.027294649 -0.08473876 -0.06303547 -0.07258031 0.070596516 -0.048843145 -0.0836647 0.005692882
0.005282276 -0.010005206 0.040597808 0.090134084 -0.10980335 -0.07979447 -0.04915987 -0.14937875
-0.10329873 0.084443726 -0.0448286 -0.083521426 -0.066823006 -0.11662627 0.072143145 -0.019044882
-0.059886392 -0.11963208 0.04653071 -0.0031342562 0.01628032 -0.032697678 -0.06326045 0.046361215
0.12177769 -0.059047107 0.0010646431 -0.07219661 -0.07803828 0.12886487 0.027408512 0.12891515
-0.0067663365 -0.08878542 -0.06871546 0.12444808 -0.083366506 0.06009183 0.037442163 0.06664655
0.03959859 -0.04222171 0.0915085 -0.07886319 -0.031827085 0.07163778 0.007899551 -0.003585495
-0.027323427 -0.057700418 0.11010389 3.011971e-05 0.0049138246 0.005159833 0.100980364 -0.07981692
-0.03574654 0.09161037 0.08890517 -0.04601873 -0.12561499 -0.006163264 0.08041113 0.039194275
0.088742696 -0.11035755 0.05711467 -0.05580921 0.08388566 0.075033315 0.0058659585 0.07215425
-0.054158714 -0.13403258 -0.15188031 0.045544155 0.025088726 -0.10162322 0.039001808 0.12112972
-0.116006106 0.069630474 -0.018492676 0.025969477 0.13520516 0.0899642 0.048231095 0.12853307
0.07183931 0.0031415934 -0.1040536 0.041820813 -0.081266455 0.05075513 0.046865255 0.024311999
-0.072746605 -0.09387336 0.09121967 0.075549945 0.07556236 -0.04427824 -0.0069380472 -0.0029776734
0.04735512 -0.056944013 0.08892095 0.098311014 -0.101231396 -0.019234728 -0.04734748 -0.055520914
0.05017577 -0.0024887722 0.12933648 -0.07141066 0.064688146 -0.093227215 -0.059224058 -0.009967324
0.11941834 0.06121886 -0.09287872 0.037565857 -0.06652683 -0.02804331 -0.084021255 -0.027532892
0.083174534 -0.12258771 -0.10456128 0.040831655 0.011533271 -0.024124391 0.0697905 -0.09853879
-0.09522001 -0.06519893 0.019862657 -0.0058338614 0.10665839 0.02151962 0.06951398 -0.031260237
0.07273087 0.11692022 -0.07756633 -0.0456592 -0.11594719 0.049994346 -0.100483425 -0.069293275
0.09304418 -0.11820332 0.0998875 0.0028026728 0.10872101 -0.07809215 0.048039693 -0.001381854
-0.0025893862 0.10455443 -0.121687874 -0.095907904 0.11230086 -0.07153763 -0.09446546 -0.040092483
-0.011169298 -0.016677959 -0.098080344 0.03489832 -0.11668644 0.026581045 0.10489446 0.0194404
-0.010095461 0.007521141 -0.06271276 -0.033111837 -0.070000894 -0.05940811 -0.06877392 0.14974517
-0.047431868 0.03716807 0.06507208 -0.0358332 -0.055090904 -0.043773722 -0.056351915 0.04642842
-0.09381373 0.0070420513 0.038645253 0.081474215 0.039660227 0.037728257 0.1191463 0.08648831
00000000: 20f6 373d 050f b0bd cbf9 bbbd 1da1 a63d
00000010: 7d9b 313d d80d 56bd 742b 1cbc addf c73b
00000020: 4eb8 553d 5d20 61bd 655b c7bd 1175 bc3d
00000030: de48 e63c 0aae 2c3d 32c3 22bd 8476 993d
00000040: 39a2 003e 1af9 813d d08e 883c f94e df3d
00000050: 6f74 0cbb fa63 043d fd2d 0f3e d9e4 f33d
00000060: 4f00 0fbd 543c ae3d 7f97 7d3d a6ba 043c
00000070: 90b7 d53d 4809 a4bd 5bdb ad3d 9c3a 103e
00000080: 3c81 d4bd 0bee 90bd 8375 cfbd a72f 2dbc
00000090: 0c70 a7bd 485d 24bd ab82 3f3b 610b 9d3d
000000a0: 5543 a83d 4dbe ab3d a43b 993d 549c b1bd
000000b0: 6f88 a2bd 1b8c 8ebc 7b26 fd3d bcb9 c1bc
000000c0: 0799 df3c 848b adbd be18 81bd fca4 94bd
000000d0: e894 903d c00f 48bd 6658 abbd 5b8b ba3b
000000e0: f116 ad3b e0ec 23bc e349 263d 3898 b83d
000000f0: 94e0 e0bd 486b a3bd dc5b 49bd bef6 18be
00000100: 498e d3bd d5f0 ac3d 329e 37bd 480d abbd
00000110: 80da 88bd c1d9 eebd c9bf 933d 0304 9cbc
00000120: 6f4b 75bd aa01 f5bd fc96 3e3d 1868 4dbb
00000130: 4e5e 853c 00ee 05bd b28e 81bd 42e5 3d3d
00000140: 9566 f93d 61db 71bd 7f8b 8b3a d1db 93bd
00000150: 89d2 9fbd 27f5 033e d187 e03c 5502 043e
00000160: 25b8 ddbb 21d5 b5bd b1ba 8cbd a3de fe3d
00000170: 0fbc aabd da22 763d f45c 193d fd7d 883d
00000180: 2232 223d acf0 2cbd cf68 bb3d 0683 a1bd
00000190: 1e5d 02bd d4b6 923d 1e6d 013c a0fa 6abb
000001a0: 61d5 dfbc 4657 6cbd 267e e13d 96a9 fc37
000001b0: 2604 a13b d113 a93b cbce ce3d 0e77 a3bd
000001c0: f76a 12bd 389e bb3d ea13 b63d 237e 3cbd
000001d0: 37a1 00be 35f5 c9bb 97ae a43d 2d8a 203d
000001e0: bbbe b53d 2403 e2bd 12f1 693d 3398 64bd
000001f0: 3fcc ab3d 11ab 993d 3a37 c03b 9cc5 933d
00000200: 87d5 5dbd d63f 09be 8386 1bbe 828c 3a3d
00000210: df86 cd3c d61f d0bd 5cc0 1f3d dc12 f83d
00000220: 9c94 edbd 6c9a 8e3d f47d 97bc f1bd d43c
00000230: 3973 0a3e 273f b83d f88d 453d 2c9e 033e
00000240: 7d20 933d 31e3 4d3b 0e1a d5bd 4d4c 2b3d
00000250: 076f a6bd 9ce4 4f3d c8f5 3f3d f529 c73c
00000260: 2cfc 94bd ad40 c0bd 61d1 ba3d eeb9 9a3d
00000270: 70c0 9a3d 1a5d 35bd 8f58 e3bb 1225 43bb
00000280: 71f7 413d 203e 69bd 301c b63d 4957 c93d
00000290: 6852 cfbd 2692 9dbc 6eef 41bd e669 63bd
000002a0: 1c85 4d3d ab1a 23bb c870 043e c13f 92bd
000002b0: 387b 843d e9ed bebd ed94 72bd fd4d 23bc
000002c0: 9a91 f43d a1c0 7a3d 3337 bebd a8de 193d
000002d0: 383f 88bd 15bb e5bc 5613 acbd a98c e1bc
000002e0: 6957 aa3d 440f fbbd 3924 d6bd 183f 273d
000002f0: 0bf6 3c3c 84a0 c5bc 52ee 8e3d b5ce c9bd
00000300: b502 c3bd 0487 85bd 03b7 a23c fa29 bfbb
00000310: b76f da3d ea49 b03c 585d 8e3d bc0a 00bd
00000320: ecf3 943d de73 ef3d 19db 9ebd 2405 3bbd
00000330: b875 edbd dfc6 4c3d 41ca cdbd a2e9 8dbd
00000340: f28d be3d 9514 f2bd d191 cc3d 0cad 373b
00000350: 1fa9 de3d c7ee 9fbd 45c5 443d 531f b5ba
00000360: b1b2 29bb a220 d63d 7e37 f9bd 5d6b c4bd
00000370: fefd e53d 5282 92bd 1b77 c1bd 0438 24bd
00000380: 6eff 36bc 37a0 88bc 59de c8bd 8af1 0e3d
00000390: 4df9 eebd 7ec0 d93c e8d2 d63d 7941 9f3c
000003a0: 6f67 25bc e773 f63b 8c6f 80bd 47a0 07bd
000003b0: a15c 8fbd eb55 73bd 57d9 8cbd cc56 193e
000003c0: eb47 42bd 8c3d 183d 8344 853d d5c5 12bd
000003d0: 00a7 61bd 134c 33bd 44d1 66bd ba2b 3e3d
000003e0: 6a21 c0bd 02c1 e63b 7c4a 1e3d f4db a63d
000003f0: c372 223d f288 1a3d fa02 f43d c820 b13d

net.4.bias f4 [64]
0.051708832 0.106247574 0.0044570365 -0.027828984 -0.021267414 -0.045563594 0.059646558 -0.12414883
0.108090855 -0.004553423 -0.07694617 -0.04515223 -0.07666627 -0.10797053 0.013056516 -0.028626788
-0.0561639 -0.021525616 -0.01739272 0.056613762 -0.10005516 -0.0044157254 -0.00071087317 -0.10225237
0.11711426 -0.060195953 0.09957458 0.09564028 0.0013076378 0.09301004 -0.09453334 -0.014105902
-0.10368269 -0.07610789 0.039437104 0.094511814 -0.07409729 -0.050379716 -0.07014844 -0.010405645
-0.10329111 -0.099386506 -0.027489843 0.11782367 0.021649167 -0.05260106 0.084560625 0.09136339
0.08524936 0.0007935594 -0.01666979 0.081328034 0.06744249 0.094265364 0.09083555 -0.03467534
0.10594525 0.02411579 0.12368023 0.12590863 0.103439555 0.08088438 0.09729543 -0.059402995
00000000: a4cc 533d 5498 d93d 550c 923b 9cf9 e3bc
00000010: 0039 aebc e4a0 3abd f34f 743d be41 febd
00000020: bd5e dd3d e134 95bb f495 9dbd 8bf1 38bd
00000030: 3503 9dbd a71f ddbd ffea 553c ba82 eabc
00000040: 1e0c 66bd 7d56 b0bc 2d7b 8ebc d5e3 673d
00000050: b8e9 ccbd cab1 90bb e459 3aba b169 d1bd
00000060: 9ad9 ef3d 0890 76bd c2ed cb3d 0ddf c33d
00000070: 0b65 ab3a 0c7c be3d b29a c1bd 711c 67bc
00000080: 9757 d4bd 74de 9bbd cd88 213d 698f c13d
00000090: 52c0 97bd f65a 4ebd fca9 8fbd 707c 2abc
000000a0: 4a8a d3bd 278b cbbd 6132 e1bc 894d f13d
000000b0: 9859 b13c 3674 57bd 1f2e ad3d bb1c bb3d
000000c0: 3797 ae3d df06 503a 158f 88bc 508f a63d
000000d0: 4a1f 8a3d 330e c13d fd07 ba3d bb07 0ebd
000000e0: d3f9 d83d 7a8e c53c 0f4c fd3d 31ee 003e
000000f0: 1ed8 d33d b6a6 a53d d442 c73d 8e50 73bd

net.5.weight f4 [64]
1.0425737 0.9927258 1.0318744 1.0073621 1.0315068 1.0241114 1.0067711 1.0303586
0.9905727 1.0069125 1.033062 0.995612 1.0238323 1.0101724 1.0138258 0.9985893
1.0269418 0.99888724 1.0180436 1.0457978 1.047931 1.0391115 0.98110783 1.0285336
1.0437559 0.9849898 1.0099428 0.9929598 1.0219716 1.0147692 0.9773022 0.9782089
1.0129261 1.0345105 0.9945183 1.0382364 0.9783183 1.0080065 1.042045 1.0092283
1.0757871 1.0522196 0.97795814 1.0193164 0.9854533 0.9759607 0.99298906 1.0297062
0.99140877 1.0172828 1.0146106 0.99484956 0.9784983 0.98472327 1.0125356 1.0388088
1.0215898 1.0096393 1.032556 1.00671 0.9790928 0.99233204 1.0293161 1.0391085
00000000: 0e73 853f 4723 7e3f 7614 843f 3ef1 803f
00000010: 6a08 843f 1516 833f e0dd 803f cae2 833f
00000020: 2c96 7d3f 82e2 803f 603b 843f 6ee0 7e3f
00000030: f00c 833f 544d 813f 0bc5 813f 8ca3 7f3f
00000040: d472 833f 13b7 7f3f 414f 823f b4dc 853f
00000050: 9a22 863f 9b01 853f e229 7b3f fda6 833f
00000060: cb99 853f 4b28 7c3f ce45 813f 9d32 7e3f
00000070: f7cf 823f f5e3 813f 7a30 7a3f e66b 7a3f
00000080: 90a7 813f d76a 843f c098 7e3f eee4 843f
00000090: 1173 7a3f 5b06 813f bb61 853f 652e 813f
000000a0: 64b3 893f 22af 863f 775b 7a3f f678 823f
000000b0: ab46 7c3f 8fd8 793f 8834 7e3f 6acd 833f
000000c0: f7cc 7d3f 5336 823f c3de 813f 76ae 7e3f
000000d0: dd7e 7a3f d316 7c3f c49a 813f b0f7 843f
000000e0: 74c3 823f dc3b 813f cc2a 843f e0db 803f
000000f0: d3a5 7a3f 7909 7e3f a1c0 833f 8201 853f

net.5.bias f4 [64]
0.04555285 -0.011367338 0.02637631 0.011519885 0.009837883 0.025904588 -0.010303304 0.03884334
-0.015935572 0.001568345 0.01975958 -0.0025851321 0.025307048 0.01578459 0.007301172 -0.005410845
0.030129913 -0.0021856488 0.027898941 0.02531598 0.03861433 0.040107924 -0.011340378 0.030106794
0.03382872 -0.015272679 0.01092909 0.00071382156 0.018282406 0.0037507513 -0.016671414 -0.015297457
0.009567544 0.022006663 -0.0062219696 0.028176961 -0.02549253 0.006573441 0.023990989 0.0064320476
0.061173063 0.036870662 -0.018747523 0.010744012 -0.008624147 -0.01595551 -0.009088725 0.012997574
-0.0035804035 0.014886828 0.026977204 0.013703111 -0.0117047075 -0.007999607 0.0048826095 0.045395106
0.017620271 0.017955018 0.023684403 0.018015398 -0.02678631 -0.005028207 0.028606884 0.049451217
00000000: a095 3a3d 123e 3abc 2213 d83c e6bd 3c3c
00000010: 122f 213c dc35 d43c 30cf 28bc 321a 1f3d
00000020: 518b 82bc ed90 cd3a d8de a13c 526b 29bb
00000030: ba50 cf3c af4e 813c ab3e ef3b 754d b1bb
00000040: 02d3 f63c 1a3d 0fbb 528c e43c 7563 cf3c
00000050: 0f2a 1e3d 3548 243d fecc 39bc 86a2 f63c
00000060: fc8f 0a3d 423a 7abc ed0f 333c c11f 3b3a
00000070: fcc4 953c 2acf 753b 7d92 88bc 2fa2 7abc
00000080: 30c1 1c3c 5147 b43c aae1 cbbb 5fd3 e63c
00000090: b6d5 d0bc 0566 d73b c088 c43c edc3 d23b
000000a0: 9b90 7a3d b105 173d 6894 99bc a707 303c
000000b0: 4b4c 0dbc 21b5 82bc e0e8 14bc c7f3 543c
000000c0: 34a5 6abb e2e7 733c 4cff dc3c 0383 603c
000000d0: 1ac5 3fbc c910 03bc 4cfe 9f3b 38f0 393d
000000e0: 6358 903c 6716 933c cb05 c23c 0795 933c
000000f0: f76e dbbc a8c3 a4bb fc58 ea3c 5c8d 4a3d

net.5.running_mean f4 [64]
0.1641959 0.21889964 -0.00490898 -0.10713459 -0.26306903 0.105508514 0.56501883 -0.34368917
-0.42904037 -0.007607938 -0.5230576 0.027987748 0.10778512 0.16038467 -0.19505125 0.5177365
-0.24378847 0.20899943 -0.13283613 0.08797508 0.124013215 -0.06373639 -0.061216515 0.10172866
-0.26223046 -0.18671186 -0.09541547 -0.114084885 -0.12512769 0.10345443 -0.3322515 0.03534616
-0.061120324 -0.24061587 0.2629119 0.25205243 0.1279616 -0.22241698 0.042169146 0.1493519
-0.10141666 -0.2894671 -0.74540675 -0.034697834 -0.07449299 0.06902972 0.38744047 -0.13560915
0.4965106 0.054433968 0.022488734 0.48162878 0.3019976 0.41845784 0.022231359 0.048924107
0.10701429 -0.16255683 0.018666996 0.42208505 0.658417 -0.07579201 0.20575276 -0.0210955
00000000: f822 283e 3a27 603e 82db a0bb 6169 dbbd
00000010: fcb0 86be d914 d83d 13a5 103f 07f8 afbe
00000020: 2eab dbbe 024c f9bb 1ae7 05bf 9046 e53c
00000030: 72be dc3d e13b 243e 84bb 47be 618a 043f
00000040: afa3 79be f203 563e 3206 08be 472c b43d
00000050: a4fa fd3d 3988 82bd 2bbe 7abd 1e57 d03d
00000060: 1243 86be 6531 3fbe 3069 c3bd 56a5 e9bd
00000070: 7921 00be ebdf d33d de1c aabe 23c7 103d
00000080: 4e59 7abd 0264 76be 639c 863e 040d 813e
00000090: 5e08 033e 47c1 63be 8eb9 2c3d b4ef 183e
000000a0: 8ab3 cfbd 0835 94be fad2 3ebf 511f 0ebd
000000b0: c88f 98bd 745f 8d3d 995e c63e 20dd 0abe
000000c0: a336 fe3e 27f6 5e3d 4b3a b83c 0c98 f63e
000000d0: 6e9f 9a3e 1b40 d63e 8a1e b63c a564 483d
000000e0: 4f2a db3d 4c75 26be 87eb 983c 881b d83e
000000f0: 048e 283f d738 9bbd dab0 523e 78d0 acbc

net.5.running_var f4 [64]
0.33359355 0.1772768 0.2958233 0.23208186 0.22859013 0.26102638 0.2077628 0.2250637
0.199976 0.17574364 0.26603186 0.19447732 0.25167292 0.20383203 0.30239588 0.23728979
0.19733159 0.14143169 0.16670404 0.30787084 0.29438972 0.20249842 0.25094032 0.31371886
0.18685481 0.25644514 0.19406055 0.16235085 0.2859336 0.22362803 0.23583044 0.18843547
0.3044022 0.3080164 0.15191491 0.20771295 0.23915826 0.19170173 0.24575031 0.23103277
0.337975 0.25231698 0.2193579 0.26599225 0.14143565 0.3417122 0.27157187 0.22581884
0.19201195 0.2389209 0.2786121 0.28712058 0.19901653 0.19019027 0.21088208 0.39377752
0.36460063 0.24663371 0.23779735 0.21351524 0.2370076 0.13861792 0.294756 0.41859058
00000000: c6cc aa3e 0d88 353e 2776 973e dea6 6d3e
00000010: 8813 6a3e 40a5 853e c5bf 543e 1977 663e
00000020: 82c6 4c3e 24f6 333e 5435 883e 1025 473e
00000030: 46db 803e 58b9 503e a2d3 9a3e 18fc 723e
00000040: 4b11 4a3e 78d3 103e 77b4 2a3e 3fa1 9d3e
00000050: 40ba 963e bf5b 4f3e 407b 803e c29f a03e
00000060: de56 3f3e c74c 833e cfb7 463e 4d3f 263e
00000070: e465 923e bffe 643e 897d 713e 3af5 403e
00000080: 9bda 9b3e 53b4 9d3e 958f 1b3e b4b2 543e
00000090: e7e5 743e 754d 443e f8a5 7b3e db93 6c3e
000000a0: 0f0b ad3e b12f 813e 5b9f 603e 2330 883e
000000b0: 82d4 103e e7f4 ae3e 780b 8b3e 0e3d 673e
000000c0: c89e 443e aea7 743e 3fa6 8e3e 7801 933e
000000d0: fdca 4b3e 3dc1 423e 79f1 573e 359d c93e
000000e0: efac ba3e 8c8d 7c3e 2681 733e bda3 5a3e
000000f0: 1fb2 723e dbf1 0d3e 42ea 963e 8151 d63e

net.8.weight f4 [2, 64]
-0.08743528 -0.022330541 -0.094505705 0.09925314 0.04003948 -0.05303184 -0.06268366 -0.14049427
0.0014677426 0.10174617 0.112959504 0.09521651 0.10726141 0.062387414 0.009343332 -0.09113543
0.07285522 -0.08711889 -0.0922266 0.088579066 0.11191366 -0.102120966 0.05999491 -0.1356667
-0.008097615 0.03995216 0.01315702 -0.064800814 -0.105518155 0.1143597 0.06486483 -0.030710617
0.13293004 -0.05810105 -0.019577434 0.06772583 0.077737235 -0.04606117 -0.025288923 -0.04733288
-0.0136441365 0.019908767 -0.032469604 0.085818484 -0.06522738 0.04738875 0.09125204 0.013077048
-0.019163337 0.046706103 -0.12883526 0.08738314 -0.04485763 -0.009153552 0.04733212 0.08458735
-0.074858956 -0.101392284 -0.14668149 -0.111364 -0.004369281 -0.08981978 0.013248796 -0.096616454
0.10960172 0.07869823 0.13627622 -0.08938399 -0.11656512 0.064734384 -0.02186238 0.124003276
-0.10716933 0.12404175 -0.11747051 -0.09638248 -0.035114694 -0.06516304 -0.091738634 0.070027865
0.1155828 0.06875378 0.032319736 -0.05640939 -0.111466125 0.15621084 -0.048969537 -0.090904996
0.14393273 0.005148351 0.09404703 -0.04702211 0.11845847 -0.10260112 0.037892293 0.07429712
-0.014283334 0.11490296 0.00089889223 -0.14999573 0.08108715 -0.10675157 0.029847246 -0.121219434
-0.10248374 -0.07419098 -0.016234515 -0.14192344 -0.09021967 -0.090670794 -0.0980948 -0.15203135
-0.064038925 -0.043891095 0.12700477 -0.0833451 -0.07205905 -0.08757327 0.1288648 -0.048525177
-0.016232848 0.07811521 -0.047755275 -0.026044715 0.09266038 0.059357278 -0.1228326 -0.003774309
00000000: 4511 b3bd 8aee b6bc 358c c1bd 3b45 cb3d
00000010: 7000 243d ea37 59bd 4a60 80bd bbdd 0fbe
00000020: 4561 c03a 4c60 d03d 5057 e73d e000 c33d
00000030: dfab db3d f289 7f3d c614 193c 36a5 babd
00000040: 1e35 953d 636b b2bd 4de1 bcbd f168 b53d
00000050: fd32 e53d cc24 d1bd 39bd 753d 36ec 0abe
00000060: dcab 04bc e0a4 233d 8b90 573c 4ab6 84bd
00000070: e719 d8bd 6b35 ea3d dad7 843d d594 fbbc
00000080: d01e 083e 5efb 6dbd db60 a0bc d7b3 8a3d
00000090: b334 9f3d a3aa 3cbd b72a cfbc 1fe0 41bd
000000a0: a88b 5fbc b617 a33c d9fe 04bd 9ac1 af3d
000000b0: ef95 85bd b51a 423d 59e2 ba3d 1d41 563c
000000c0: 6efc 9cbc e64e 3f3d 64ed 03be eff5 b23d
000000d0: a2bc 37bd c8f8 15bc 53df 413d 223c ad3d
000000e0: a74f 99bd c2a6 cfbd ac33 16be cf12 e4bd
000000f0: 302c 8fbb 6ff3 b7bd 7a11 593c d9de c5bd
00000100: de76 e03d 8a2c a13d fe8b 0b3e f40e b7bd
00000110: b2b9 eebd 7693 843d bc18 b3bc 6ef5 fd3d
00000120: 987b dbbd 9a09 fe3d 6194 f0bd 2d64 c5bd
00000130: 6dd4 0fbd 3374 85bd 77e1 bbbd c56a 8f3d
00000140: adb6 ec3d c8ce 8c3d b361 043d 880d 67bd
00000150: 5a48 e4bd bcf5 1f3e 4894 48bd 662c babd
00000160: 1a63 133e 80b3 a83b bb9b c03d 429a 40bd
00000170: 5b9a f23d 8920 d2bd f334 1b3d 1729 983d
00000180: a504 6abc 3e52 eb3d a3a3 6b3a 7b98 19be
00000190: 0511 a63d 91a0 dabd 3682 f43c e541 f8bd
000001a0: ffe2 d1bd 71f1 97bd 3ffe 84bc 6154 11be
000001b0: 17c5 b8bd 9cb1 b9bd ede5 c8bd 1bae 1bbe
000001c0: d726 83bd 26c7 33bd 8a0d 023e d6b0 aabd
000001d0: b293 93bd 9d59 b3bd 22f5 033e 56c2 46bd
000001e0: c0fa 84bc defa 9f3d 099b 43bd ba5b d5bc
000001f0: bac4 bd3d 9e20 733d a88f fbbd 665a 77bb

net.8.bias f4 [2]
0.0020982213 0.055337757
00000000: 5082 093b d8a9 623d
