data/weights/feature_mlp_pipeline.pth (torch, 38481 bytes, 14 tensors)

net.0.weight f4 [64, 50]
000000 df f5 67 3d 27 6f 7d 3d 21 cc 79 3d 8d 59 12 be
       0.056630965 0.06187358 0.060985688 -0.14291973
000010 58 1c 1e 3d 69 99 77 bd b9 0d 18 be 47 51 3f bc
       0.03860125 -0.060449038 -0.14848985 -0.011677093
000020 ac 8b 9c bd 52 1d c7 3d ba a1 c4 bd 40 d4 83 3d
       -0.07643828 0.09722389 -0.096011594 0.06436968
000030 ce 97 e5 3d 15 12 64 3d ce cb 47 3c f1 74 00 bd
       0.11210595 0.055681307 0.012194587 -0.031361524
000040 91 cc cf 3c 6b 03 49 3c db db 04 3d 50 d2 78 bd
       0.0253661 0.012268881 0.032436233 -0.060747445
000050 d8 6a d7 3c 95 3a 1e bd 19 99 dc bc 9b b0 35 bd
       0.026296064 -0.038630087 -0.026928471 -0.044357877
000060 1d 30 bc 3d 55 fa cc 3d fc 9a 42 bd ff 5c ce 3d
       0.091888644 0.100086845 -0.047511086 0.10076331
000070 2b 55 69 bd cc a7 b9 3d 60 0d ad bd be f2 8a 3c
       -0.056965988 0.09065208 -0.08449817 0.016961452
000080 79 c6 6a bd db c6 9b 3c 38 8f aa 3d 32 67 99 bd
       -0.057318185 0.01901572 0.08328098 -0.07490386
000090 ad 34 12 be ad 13 9d 3d 9f f3 86 3d 08 b4 83 3d
       -0.14277907 0.076697685 0.06589436 0.064308226
0000a0 3e 44 b2 3c c4 c4 01 bd 52 8f d0 3d 20 5d 07 bd
       0.021761056 -0.03168179 0.10183586 -0.033047795
0000b0 f2 28 b6 3d 88 d3 7d bd d3 12 b9 3d cf 6b b1 bd
       0.088945284 -0.06196931 0.090367936 -0.08663141
0000c0 bd 03 f0 bd 8e 39 f7 bc de 2c 77 3d 54 c7 85 3d
       -0.11719463 -0.030178811 0.060345523 0.065321594
0000d0 8b 71 71 bd 07 df ba 3d 5b 18 6e 3d 27 94 76 3d
       -0.058946174 0.0912457 0.058128696 0.060199883
0000e0 7c 78 e4 bd f1 23 87 3d 1f 8e ad bd f8 e1 6b 3c
       -0.11155793 0.06598652 -0.08474373 0.014397137
0000f0 1b 5e 5a bd b6 09 e6 bd a4 a2 f0 3c 10 bc c9 bd
       -0.053312402 -0.11232321 0.029374428 -0.09850323
000100 b2 e8 f3 3d 2e a2 1d bd 2c 2b ed 3d 54 f4 cb bd
       0.119096175 -0.038484745 0.115805 -0.09958711
000110 35 01 19 3d 39 2a ee bd 20 50 88 bd 50 a7 ab bd
       0.037354667 -0.11629147 -0.06655908 -0.08381522
000120 16 ba a7 bd 64 48 06 be e2 3a e1 bd c5 8a 99 bc
       -0.0818979 -0.13113552 -0.10997559 -0.018742928
000130 29 58 b9 3d 87 11 0c 3e 79 cf c0 bd 27 14 de bd
       0.09050018 0.13678561 -0.09414572 -0.108436875
000140 6e c2 d9 bc 32 46 25 3b ff 60 e4 3d a3 1f 3d 3d
       -0.02658197 0.0025218842 0.11151313 0.04617275
000150 eb 33 f3 bc 2c 26 89 bd 71 40 8c 3c 48 49 b0 bd
       -0.029687842 -0.06696734 0.017120572 -0.08607727
000160 65 4a 9a bd 68 e9 51 bd c7 f3 83 3d fe 3e e6 3d
       -0.07533721 -0.051247984 0.06442981 0.112424836
000170 28 45 9d 3c a4 ca 06 be cf c5 74 bd d6 9f 1b bd
       0.019198015 -0.13163239 -0.059758957 -0.03799423
000180 a6 69 67 3c fa 03 5e bc 9e fe f1 bd 16 98 ab b9
       0.01412431 -0.013550753 -0.118161425 -0.00032728974
000190 49 12 1b be 97 7d f3 bd f0 e1 f9 bd e6 3e 98 3d
       -0.15143694 -0.11889189 -0.12201297 0.07433872
0001a0 a5 ca 01 be a9 64 81 3d 12 b1 04 bd 4d 30 45 bc
       -0.12674959 0.063180275 -0.03239543 -0.012035442
0001b0 59 0c 84 3d 1f 04 c9 3c 6f 7f d5 bd 75 36 04 be
       0.06447668 0.024538098 -0.10424697 -0.12911399
0001c0 34 7d a3 3d 9a d0 fd 3d 51 50 05 3e 5d 12 d0 3c
       0.07982865 0.12393303 0.1301892 0.025399381
0001d0 25 e4 70 3d 44 50 08 bd 8b cd 21 bd 3f f0 c8 3c
       0.058811326 -0.033279672 -0.03950266 0.02452862
0001e0 b1 ff 71 bd 1d b4 81 bd 22 4a cc bd de 0c 24 3e
       -0.059081737 -0.06333182 -0.09975077 0.16020533
0001f0 18 ec 55 3d 65 8d 8f bd 98 e1 d8 bb 69 92 ee bd
       0.05222711 -0.07009391 -0.0066186897 -0.11649019
000200 26 41 1b 3d 90 08 98 3d 0f 8f e7 3d dc da 1e be
       0.037903927 0.07423508 0.11306583 -0.15513176
000210 cd 9e b5 3d ca d1 ae bd 6f 1c b6 3b c1 27 a9 3c
       0.088681795 -0.08536108 0.005557589 0.020648839
000220 1c 31 cc 3d 0e ba ae 3d 2e 9f e8 3d d5 74 a9 bd
       0.09970304 0.08531581 0.11358486 -0.08274237
000230 19 7c ab 3c ec 9e a8 bc 7f 70 e8 3c 31 76 79 3d
       0.020933198 -0.020583592 0.028373955 0.06090373
000240 1f 20 1d bd 0a 8a 92 bc e4 7c 12 bd b7 a2 ae 3d
       -0.03836071 -0.017888088 -0.035763636 0.08527129
000250 23 26 17 3d a1 27 19 3d cd c2 cf 3c 19 65 ee bd
       0.036901604 0.03739131 0.025361443 -0.116403766
000260 3d 44 23 bd 4f f3 ff bc 02 d2 3f 3b 4a 8d d7 bd
       -0.03986 -0.031243948 0.0029269462 -0.105249956
000270 18 59 dc 3c 4a dd 16 3e ae 94 a5 3d b7 16 ea 3d
       0.026897952 0.14732853 0.08084999 0.11430114
000280 7b b4 a4 bd 55 7e bd 3c 92 51 d5 bd 3f 35 0d 3d
       -0.080422364 0.023131529 -0.10415949 0.034474608
000290 c7 45 0d 3e f3 5d 17 bd bd 76 a6 3d b1 71 95 bd
       0.13796149 -0.03695483 0.08128116 -0.072970755
0002a0 cd f4 99 3d 2c 4d 8b 3d 00 cd 3c 3d 6e 6e b7 bd
       0.07517395 0.06801829 0.04609394 -0.0895661
0002b0 57 ee ac 3c 33 8c c3 3d 9f 93 0a be 68 9b 22 3d
       0.021109743 0.09548225 -0.13532875 0.03969899
0002c0 46 1a bd bb 43 a3 05 3b c9 c4 3d bd ee 05 94 bd
       -0.0057709543 0.00203915 -0.046330247 -0.072276935
0002d0 ac 71 04 be 36 a1 a0 3d 5a 13 fa 3d 31 c9 92 bc
       -0.12933987 0.078432485 0.12210722 -0.017918201
0002e0 33 c4 7a 3c 0b 0c d9 bd 95 75 67 3d b2 99 ad bd
       0.015305567 -0.10598 0.05650862 -0.08476581
0002f0 b0 e8 32 bd 05 92 0b 3d 33 c7 b4 3d 51 3d e4 3c
       -0.04367894 0.034074802 0.08827057 0.02786127
000300 a6 e9 3d 3d 29 cd 82 3d af 0d da bd df 7e c0 bd
       0.046365403 0.063867874 -0.10647141 -0.09399199
000310 94 e7 b3 bd 24 3e c8 3d 9f 3d 68 bd 93 b2 de 3d
       -0.087844044 0.097774774 -0.05669939 0.10873904
000320 d6 ce 73 3d 71 33 c8 3b f0 77 42 3d ce 73 f0 bb
       0.059523426 0.006109648 0.047477663 -0.0073380237
000330 99 b7 9e bd 5a b1 fc 3c 64 08 d4 3d 36 9d 8c 3d
       -0.07749862 0.030846287 0.10353163 0.06865923
000340 9e 5c 64 bd 38 e5 0e 3e 84 3f a4 3d 4c 33 a2 3d
       -0.05575239 0.13954628 0.08019927 0.0791994
000350 13 7b 60 3b 03 56 01 3e 4f e7 74 3b 85 4f 5e bd
       0.0034253045 0.12630467 0.0037369316 -0.054275054
000360 6f 07 c7 bd e4 7b 1f 3d 74 d0 ae bd 4a 5a e0 3d
       -0.09718215 0.03893651 -0.08535853 0.10954721
000370 68 e8 39 bd 7a e2 ad bd 7b a0 03 be 3f bf f5 bd
       -0.045387655 -0.084904626 -0.12854187 -0.11999368
000380 0b 53 c8 3d c2 c0 f6 3d 4e d1 1e 3d a2 54 15 3e
       0.09781464 0.120484844 0.038773827 0.14583066
000390 d7 b4 c6 bd c8 d3 cb 3d fe 94 ef 3c 98 55 b7 bc
       -0.09702461 0.099525034 0.02924585 -0.022379681
0003a0 c8 08 dd bd 87 0c 06 3b 65 9f 99 3d 25 0b ed 3c
       -0.107926905 0.0020454244 0.07501105 0.028935978
0003b0 6b e0 ab 3d de 1b a2 3d cb a0 8c 3c 0d ed 01 3e
       0.08392414 0.079154715 0.017166516 0.12688084
0003c0 97 59 4e bd 2c c6 67 bc c5 f3 cd bd 26 b4 03 3e
       -0.05037841 -0.014146369 -0.10056261 0.1286169
0003d0 64 39 8a 3d 4d 8c 50 bd 06 f8 09 bd 7c ad 98 bc
       0.06749228 -0.05091505 -0.0336838 -0.018637411
0003e0 e2 09 1a be e7 31 34 3d 37 61 7c 3d 4f 0b d7 bc
       -0.15042832 0.043992903 0.06161615 -0.02625051
0003f0 31 b8 62 3d ce e7 35 3d 19 99 b1 3c 6d 8f 38 3c
       0.05535144 0.04441052 0.021679448 0.011264664

net.0.bias f4 [64]
000000 ae 74 9a 3d a8 73 02 be f0 ba 95 bd 9b 19 bf 3d
       0.07541786 -0.12739432 -0.07311046 0.09331056
000010 05 eb 7f bb f1 b7 dd bc cd bd 0e be b2 d2 10 3e
       -0.0039049995 -0.02706525 -0.13939591 0.14142874
000020 2c 43 9d bc 48 cb 61 bd e9 d1 05 be 94 19 a1 3d
       -0.01919707 -0.055125505 -0.13068356 0.07866207
000030 a5 0e a1 3d 28 de 87 bd 58 6e e8 3d ae 9f ed bd
       0.07864121 -0.0663417 0.113491714 -0.11602722
000040 22 1f 9d bd d8 2c 45 bd e7 e1 05 be 02 28 06 be
       -0.07671954 -0.04813847 -0.13074456 -0.131012
000050 a2 79 61 3d bc 0a 77 3c ec 66 10 be 99 b2 76 3a
       0.05504764 0.015078243 -0.14101762 0.00094107684
000060 b8 3d f1 bd 3a 9b ca 3c 24 cf b9 3d 2f 8a 92 bd
       -0.1177935 0.02473222 0.09072712 -0.07155263
000070 91 a2 46 bc e8 4e bb bd 4e df 8a bd e1 8e e3 3d
       -0.01212372 -0.091459095 -0.06780873 0.11111236
000080 ca 1b 10 3e 95 e2 e4 bc c6 a6 e8 bd 44 7a ae 3d
       0.140731 -0.027940074 -0.113599345 0.08519414
000090 06 7a e3 3d af 47 07 be 06 5a 59 3d ee e0 0b be
       0.111072585 -0.13210939 0.05306437 -0.13660023
0000a0 65 1d f5 3d c4 0a 64 bd 66 58 ae bc b4 af c9 3d
       0.11968497 -0.05567433 -0.021282386 0.09847966
0000b0 b4 e3 9e 3b 61 62 13 bd 87 22 05 3d a4 db 4e bd
       0.0048489217 -0.035982493 0.03250363 -0.050502434
0000c0 04 cc 04 3d 3d ea fc bc fe 10 56 bd 4b a8 93 bc
       0.032421127 -0.030873412 -0.0522623 -0.018024584
0000d0 2c 1c 88 bd 99 6f 22 3c ed 1f 48 3c f0 51 81 bb
       -0.06645998 0.009914302 0.012214643 -0.0039465353
0000e0 4f 5c f8 3d 9a b9 b5 bd cb 72 97 3d 13 c0 87 3b
       0.121269815 -0.08873291 0.07394942 0.00414277
0000f0 10 1d 09 3c 42 2c 69 3d af 08 8f bd 93 c4 37 bd
       0.008368745 0.056926973 -0.06984078 -0.044865202

net.1.weight f4 [64]
000000 62 e4 81 3f bb 59 7b 3f d4 12 7f 3f 76 0f 7b 3f
       1.0147822 0.9818379 0.99638104 0.98070467
000010 d9 09 80 3f f0 d3 7d 3f 01 31 7c 3f d8 4f 7f 3f
       1.0003005 0.99151516 0.98512274 0.99731207
000020 5b b9 81 3f 83 ba 7c 3f 88 c9 7e 3f 90 06 80 3f
       1.0134691 0.98722094 0.9952626 1.0002003
000030 85 57 80 3f 3c 14 83 3f ad 91 80 3f 0d 42 7d 3f
       1.0026709 1.024055 1.0044457 0.9892891
000040 9f c2 7e 3f 5a 32 7e 3f e7 6d 81 3f c0 60 83 3f
       0.9951572 0.9929558 1.0111665 1.0263901
000050 1b e6 7d 3f 81 3f 7c 3f 9a 44 82 3f a4 bf 7a 3f
       0.9917924 0.985344 1.0177186 0.9794867
000060 4a 11 80 3f 9a 6b 81 3f 40 b0 7d 3f b7 08 7f 3f
       1.0005276 1.0110962 0.9909706 0.9962267
000070 fc 8e 7f 3f ae a2 83 3f 57 b1 80 3f f0 46 7b 3f
       0.9982755 1.0284021 1.005412 0.9815512
000080 d3 30 83 3f d0 20 80 3f 35 39 80 3f 3d bb 7f 3f
       1.0249275 1.0010014 1.0017458 0.9989508
000090 32 06 80 3f db 87 7f 3f 63 3d 81 3f d5 0d 7b 3f
       1.0001891 0.99816674 1.0096859 0.9806798
0000a0 db 07 7f 3f cb 2b 7f 3f ff dd 7d 3f eb 83 7c 3f
       0.9962136 0.996762 0.99166864 0.9863879
0000b0 c5 f6 7d 3f 1d f6 84 3f f9 f0 7e 3f e3 47 7b 3f
       0.99204665 1.0387608 0.99586445 0.98156565
0000c0 68 fd 7d 3f 80 ca 7d 3f f6 cd 81 3f e9 9d 7e 3f
       0.9921479 0.99137115 1.0140979 0.994597
0000d0 1b db 7d 3f 5d 2f 80 3f 70 ad 7a 3f c8 c5 81 3f
       0.99162453 1.0014454 0.97920895 1.0138483
0000e0 52 07 80 3f d1 e9 80 3f 3a 78 7f 3f 60 3d 80 3f
       1.0002234 1.0071355 0.99792826 1.001873
0000f0 99 f4 7f 3f 98 01 7f 3f 4f 07 82 3f 17 65 7e 3f
       0.999826 0.99611807 1.015848 0.99373

net.1.bias f4 [64]
000000 c4 a6 99 3c bd 74 15 bb dc 5b 40 bc 53 c4 8e bc
       0.018756278 -0.0022805177 -0.011740651 -0.017427599
000010 ba a6 18 3c c4 26 46 bc 82 f5 cb bb f5 47 1a 3b
       0.009317094 -0.012094203 -0.006224335 0.0023541425
000020 7e d4 0b 3c 5b b2 7e bc 24 41 cc 3c 62 a9 75 3a
       0.008534549 -0.015545453 0.024933405 0.00093712483
000030 f0 97 59 bc 66 1d e8 3c 13 dd e2 3b 49 8a c6 3b
       -0.013280854 0.02833433 0.0069233268 0.0060589653
000040 d2 87 0a bc ed 55 09 bb ce c3 15 3c e9 fe b1 3b
       -0.008455234 -0.0020955757 0.009140922 0.005431999
000050 84 c7 9e 39 b8 f7 5d 3a ec 47 97 3b 61 43 a1 bc
       0.0003028476 0.0008467394 0.004616728 -0.01968545
000060 40 d1 4b 3c 02 5c 70 3c 9f 2f 58 bc 02 7d c6 3b
       0.012440026 0.014670374 -0.0131949475 0.0060573826
000070 e7 3d c0 3b 15 91 b7 3c 57 d0 f2 3b 2e d7 6d bc
       0.0058667543 0.022408048 0.00741009 -0.014516635
000080 17 ca 30 3c 87 96 60 3c 39 78 97 3b 47 c1 1d 3c
       0.0107903695 0.0137077635 0.004622486 0.0096286
000090 69 58 ee 3b cf c1 5f bc b9 1c 5c 3c 5b 0c 2c bc
       0.007273723 -0.013657047 0.013434582 -0.010500993
0000a0 d4 7e c3 bb 69 96 07 bc 76 e2 1e 3b e8 4d 84 bc
       -0.005966047 -0.008275607 0.0024243868 -0.01615043
0000b0 ec 9a 52 bc 2e 13 ee 3c 14 60 89 3a 4b 07 78 bc
       -0.012854319 0.02906188 0.0010480904 -0.0151384575
0000c0 3c 87 b3 bc f9 a1 f1 bb 87 4d 98 3c 79 26 8d 3c
       -0.02191507 -0.007374045 0.018591655 0.01723026
0000d0 3e 31 b4 bc 4b cc 08 3c 92 de 71 bb ad 0e 3b 3c
       -0.021996137 0.0083494885 -0.0036906344 0.011417073
0000e0 4a 2a 66 3c 5f 5f a1 3c 09 17 01 bc ca 56 3a 3b
       0.014048168 0.019698797 -0.007879027 0.0028433078
0000f0 4c c4 07 3c 94 ce 0b bc 89 7f 1c 3c e1 02 f4 ba
       0.008286547 -0.008533139 0.009551891 -0.0018616581

net.1.running_mean f4 [64]
000000 c8 fa 8a 3d 09 5c 02 be 5c 15 95 bd f4 4b c7 3d
       0.06786114 -0.12730421 -0.072794646 0.09731284
000010 40 e0 e4 bb 93 5a df bc cd 1c 05 be b3 b7 0f 3e
       -0.0069847405 -0.027264869 -0.12999268 0.1403492
000020 a0 99 cd bc 61 a3 4d bd b3 c6 01 be 43 6b a7 3d
       -0.025097668 -0.05020464 -0.12673454 0.081747554
000030 22 b3 a2 3d 05 fb 85 bd 55 e5 dd 3d 38 ad e7 bd
       0.07944323 -0.06542019 0.10834757 -0.11312336
000040 05 8b ad bd a2 96 32 bd 75 65 00 be c2 34 06 be
       -0.084737815 -0.043600686 -0.12538703 -0.13106063
000050 4c 76 65 3d 59 9f 8c 3c 05 1a 0d be 52 da f2 b9
       0.05602102 0.017165827 -0.13779457 -0.00046320498
000060 12 9b e7 bd 3c 8f 02 3d 9e 36 a4 3d 62 a6 98 bd
       -0.11308874 0.03187488 0.0801823 -0.0745361
000070 0f 13 8f bc 2b 18 ac bd 7d 3a 8a bd 97 de e3 3d
       -0.017465143 -0.08403047 -0.06749437 0.1112644
000080 76 8d 10 3e f5 4b d9 bc 39 b0 ea bd a3 b7 95 3d
       0.14116463 -0.026525477 -0.11459393 0.073104165
000090 37 10 f3 3d 99 3d 01 be 41 9d 66 3d b4 a9 f6 bd
       0.11868327 -0.12621154 0.056302313 -0.12044087
0000a0 a1 5b ef 3d ac 99 53 bd d7 05 85 bc 54 8e b4 3d
       0.11687399 -0.051660225 -0.016238136 0.088162094
0000b0 2f 2c a6 ba 90 93 1a bd 98 7e 18 3d cf 2a 62 bd
       -0.0012677963 -0.037738383 0.037230104 -0.055216607
0000c0 49 da 28 3d 0a 76 f0 bc 74 83 4e bd b7 62 bc bc
       0.041223798 -0.02935316 -0.050418332 -0.02299629
0000d0 a2 dc 98 bd 1e 3c e9 3b b6 82 b2 3c 82 85 63 3a
       -0.07463957 0.007117762 0.021790843 0.0008679257
0000e0 cc f4 fe 3d 3b 8a c0 bd e2 c9 9a 3d 15 e5 f5 3a
       0.12449035 -0.09401365 0.07558037 0.0018760288
0000f0 b5 a0 9a 3b f5 72 5e 3d fa 0d 84 bd ae ed 3b bd
       0.004718865 0.05430885 -0.06447978 -0.045880966

net.1.running_var f4 [64]
000000 76 4b ff 3d 4a 50 c6 3e 08 31 99 3e f0 d8 59 3e
       0.12465565 0.3873313 0.2992022 0.21274161
000010 5a 23 ba 3e 69 e3 ac 3e 40 11 aa 3f d8 64 6d 3e
       0.36355096 0.3376725 1.3286514 0.23183
000020 d1 86 4d 3e 34 05 0f 3f 64 86 bc 3e 9e 64 4c 3e
       0.2007096 0.55867314 0.36821282 0.19960257
000030 dc 40 75 3e c6 10 07 3e 4c c2 23 3f b6 c0 84 3e
       0.23950523 0.13189992 0.6396835 0.25928277
000040 22 bc 16 3f 68 20 9f 3e 79 26 61 3e 6f 0d 01 3e
       0.5888082 0.31079412 0.21987332 0.12602781
000050 8b 8a c0 3e f6 8f 5a 3e b4 21 40 3e 60 30 c5 3e
       0.376057 0.21343979 0.18762857 0.3851347
000060 b9 91 21 3e e2 96 ad 3e 9b e4 32 3f bf d8 14 3e
       0.15778245 0.33904177 0.69880074 0.14535807
000070 c8 de 1e 3f 15 19 fa 3d 93 dc 82 3e 86 0c 04 3f
       0.6205869 0.12211815 0.2555891 0.5158161
000080 23 3f 07 3e 3b f6 3e 3e 16 59 01 3e c1 f9 01 3f
       0.13207678 0.18648617 0.1263164 0.5077172
000090 a8 48 b5 3e a3 a0 1f 3f 27 42 8c 3e 36 dd 83 3f
       0.35406995 0.6235449 0.2739422 1.0301883
0000a0 27 35 c6 3d bb bd 12 3e 1d 69 e6 3e 6e 5d a6 3e
       0.09678107 0.14330189 0.4500207 0.32493156
0000b0 26 60 22 3f 32 fd ec 3d 8f ee 5e 3e 96 b1 21 3f
       0.6342796 0.11571731 0.2177069 0.631616
0000c0 90 59 16 3f b7 a8 14 3e 15 84 76 3e 70 3b 32 3f
       0.5873041 0.14517485 0.24073823 0.69621944
0000d0 2e 81 14 3f 2a f9 32 3f b2 ca 2f 3f 98 29 e0 3e
       0.5800961 0.69911444 0.68668664 0.43781734
0000e0 a1 e2 8b 3e ff b5 df 3e 55 af ba 3e 83 bb ee 3d
       0.27321342 0.4369354 0.36461893 0.11656859
0000f0 73 ec b3 3e 8f 22 c6 3e 14 21 2f 3e 32 71 23 3e
       0.35141334 0.3869824 0.17102462 0.1596115

net.4.weight f4 [64, 64]
000000 54 2b 93 bd 7b f3 4f bd f5 0a 9e bd f4 19 e7 3d
       -0.071859986 -0.05076931 -0.07716934 0.11284247
000010 39 8f b8 bd 97 49 cb 3d eb 00 da 3c 48 3a 4e bd
       -0.090116926 0.099261455 0.026611766 -0.05034855
000020 c6 16 da bc 29 55 8f bd a5 52 16 bd 48 cd 68 bd
       -0.026622187 -0.06998665 -0.03669991 -0.056836396
000030 1b cb 10 bd fb 77 06 3e d5 13 0e 3e 4b 3d 05 3e
       -0.035349946 0.13131706 0.13874753 0.13011663
000040 14 b8 23 3d 51 b6 c3 3b e4 61 a0 bd 56 aa c0 bd
       0.039970472 0.0059726615 -0.07831171 -0.09407489
000050 4e d3 e9 bd a1 23 74 bd 55 cd 7f 3d d6 62 de 3d
       -0.11417256 -0.05960429 0.06245168 0.10858695
000060 f5 b0 ec 3d c3 ea 41 bb 59 16 61 bd 0d 46 8b 3d
       0.115571894 -0.0029589392 -0.054952953 0.068004705
000070 09 f0 cf 3d 1c 4f 3c bc e8 f4 7c 3d 9d 77 7d bd
       0.10153205 -0.0114934705 0.061757 -0.06188165
000080 13 02 f2 3b 36 b8 b2 3d 51 05 b2 3c 15 bb 46 3c
       0.007385501 0.08726542 0.02173105 0.012129565
000090 be 98 30 3d ff af 83 bd 34 03 7f bd 69 14 94 3c
       0.043114416 -0.06430053 -0.062258914 0.018076139
0000a0 e8 dd cf bb 32 34 69 3b 12 01 5c 3c a1 88 03 bd
       -0.006343592 0.003558409 0.01342799 -0.03211272
0000b0 91 e4 c5 bc d6 7e f1 3d 0c 49 ae 3d e2 36 6c bd
       -0.02415684 0.1179177 0.08510026 -0.057669528
0000c0 ba 0d 38 3d 24 24 f3 bb cc ec 70 bd 03 fa 34 3d
       0.044934966 -0.00742008 -0.058819577 0.044183742
0000d0 61 57 88 3d 5b 90 5a 3d f0 71 82 3d 85 f7 2d bd
       0.06657291 0.053360324 0.06369388 -0.04247238
0000e0 c7 6f af 3d e7 c5 84 3d cb b6 9f bc 53 00 20 bd
       0.08566242 0.064830594 -0.019496342 -0.03906281
0000f0 39 8a 6f 3b e7 79 da bd 74 68 37 3d ae 31 4b bd
       0.0036550893 -0.10667782 0.04477735 -0.049607925
000100 6d d9 d8 bd 5b 3f 02 bc 2c 2e 8b bd e5 41 03 3e
       -0.10588346 -0.007949675 -0.06795916 0.12818106
000110 24 63 c2 3d 95 c9 8c 3d 49 cc ac 3c 15 b7 ef 3d
       0.09491566 0.06874386 0.021093505 0.11704842
000120 73 5f f8 bc 12 d0 81 3d 3c d9 38 bd c4 6d 01 3d
       -0.030318951 0.063385144 -0.045129046 0.03159882
000130 89 0c 00 3e c8 d3 85 bc 92 f3 9c 3d d8 bb 71 3d
       0.12504782 -0.016336337 0.07663645 0.059017032
000140 47 24 3d bd a1 3f 76 3d cc d9 e6 bd 66 1f 8b 3d
       -0.046177175 0.060119275 -0.1127201 0.06793098
000150 6a 3f d6 3d 71 03 f3 bc a0 d7 8b 3c 54 18 ca 3d
       0.10461314 -0.029664727 0.017070591 0.098679215
000160 3f 1e 1e bc 49 6f 94 bd 00 be ea 3c 99 34 b9 3d
       -0.009650766 -0.072477885 0.028655052 0.09043235
000170 74 6a ee bc 6f 38 19 bd 77 d7 cd bd 67 4e 97 3c
       -0.029103495 -0.037407335 -0.10050862 0.018470002
000180 12 df 67 bd 51 2f 3d 3c dd c7 af 3c f1 f4 d9 3d
       -0.05660922 0.011546926 0.021457607 0.10642422
000190 44 6c 10 be 00 9f bc bd 60 22 fb bd c6 e7 b7 bd
       -0.141038 -0.09210014 -0.12262416 -0.08979754
0001a0 d3 d5 10 be 41 6d da 3b 10 1e 3c 3d ef 79 f2 bd
       -0.14144067 0.006665856 0.045927107 -0.11839663
0001b0 e7 79 e7 3d cb 16 de 3d 9e 32 d3 bd 60 7f b5 bd
       0.11302548 0.10844191 -0.10312389 -0.088621855
0001c0 da eb 2e bd 6b ac 9f bd 32 51 29 3d c5 70 44 3d
       -0.042705394 -0.07796558 0.0413372 0.047959108
0001d0 27 93 6d 3d fb 9c ab 3d 21 a9 bd 3c 4d df e1 3b
       0.058001664 0.08379551 0.023151936 0.0068930746
0001e0 07 0c 04 3e ed b8 d2 bc 68 cb 8f bd 1e 80 24 bd
       0.12895213 -0.025722945 -0.070212185 -0.040161245
0001f0 e0 b1 3d bd 22 65 9d 3d d5 fd 90 bd 65 3b 9b 3d
       -0.046312213 0.07685305 -0.070796646 0.07579688
000200 1d 3f 9e 3c 21 24 84 3d 72 7a 25 bd f1 53 b0 bd
       0.019317204 0.064522035 -0.040399976 -0.086097606
000210 3b e1 c9 bd 36 dc d0 bd c5 a2 dd bc 5d 22 e1 3d
       -0.098574124 -0.10198252 -0.027055154 0.109928824
000220 80 45 9b bd 64 c2 89 bd 82 81 36 3d 61 4a 8f bd
       -0.075816154 -0.0672653 0.044557102 -0.069966085
000230 c6 47 a2 3d d9 4d c7 bd 75 cf 2a 3c e0 40 ef bd
       0.07923846 -0.09731645 0.010425438 -0.11682296
000240 e0 27 5f 3d 32 85 db bd fc 6e 72 3d 58 ef 21 3e
       0.054481387 -0.10718764 0.059187874 0.15813959
000250 7f 1b 9a bd 52 c0 34 3d a0 c7 a7 bd 3b ec 96 3d
       -0.07524776 0.044128723 -0.08192372 0.07369276
000260 ed d9 ba ba a5 96 d8 bd c7 38 2a bc bd 87 d9 bd
       -0.0014255621 -0.10575608 -0.010389513 -0.10621593
000270 6d 20 5f bd 0c ec 40 bc cb 97 f5 3d 33 66 cc bd
       -0.054474283 -0.011775028 0.11991843 -0.099804305
000280 8c 36 a0 bd 4b c5 17 be 50 3a 41 bc 45 a2 05 bd
       -0.07822904 -0.14821355 -0.011793688 -0.032625455
000290 9d 11 10 3d 48 44 e8 bc eb 55 84 3d 40 e3 62 3c
       0.035173047 -0.028352872 0.064617 0.013848126
0002a0 f5 2b 8a 3c 61 0e 29 bd 4b 5d 0b 3d 30 15 7c bc
       0.016866663 -0.04127348 0.034024518 -0.015385911
0002b0 2d eb b8 3d 9d 7b a2 bd fd 21 ed 3a 74 ee 4c bd
       0.09029231 -0.079337336 0.0018091794 -0.050032094
0002c0 86 ba 55 bd 32 0e c8 3d 57 ae 4d bd ab a7 f4 bd
       -0.052179836 0.097683325 -0.05021509 -0.119460426
0002d0 d3 bc e4 bc fd a4 09 be db 3e 78 bc 4d 45 e9 bd
       -0.02792207 -0.13441844 -0.015151705 -0.11390171
0002e0 f0 03 7e 3d f6 65 90 bd 39 d1 8c 3d cd 2c eb 3d
       0.062015474 -0.070506975 0.068758436 0.114831544
0002f0 c6 e8 90 3d 55 6a e6 3c 2b 98 45 bd d6 fe cb 3b
       0.07075648 0.028126875 -0.04824082 0.006225447
000300 49 7c 6c bd a2 d0 d6 bd ab bd 45 bd e5 af 22 bd
       -0.057735715 -0.10489012 -0.048276585 -0.039718527
000310 dd 85 2a 3d 45 e5 82 3d 89 1e a7 3d 60 12 f4 bd
       0.04163157 0.06391386 0.08160121 -0.11917567
000320 10 9e e6 3d 46 fd d0 3d fa 7d 8d bd f9 4f a6 bd
       0.11260617 0.10204558 -0.06908794 -0.08120722
000330 1a 3f 54 bd c5 d9 6e bd 89 f4 b0 bd 8b 33 a2 3c
       -0.05181799 -0.05831315 -0.086403914 0.019799968
000340 90 c4 48 3d e1 f1 93 3d 8b 00 05 be 38 a7 a3 bd
       0.04901558 0.07223869 -0.12988488 -0.07990879
000350 aa e8 8f bc 6b 84 f7 3d 07 02 a4 bd af b8 b9 bc
       -0.017566998 0.120858036 -0.08008199 -0.022671072
000360 5e 48 ae bb 62 f4 9c bd 98 bd 5d bd f2 8d f9 bd
       -0.0053186854 -0.076638 -0.05413589 -0.12185277
000370 9a 9d b5 bc 15 af 2e 3d 4e 64 e0 bd 23 f3 c6 3d
       -0.022169877 0.04264744 -0.109566316 0.097143434
000380 75 d9 97 3d cd 13 8f 3b d4 80 10 3d fc 5d 0a 3d
       0.074145235 0.004366374 0.03527911 0.033781037
000390 c3 40 82 bd 5c 5c c6 bd 5f c9 4f bd 88 fe 58 3c
       -0.063600086 -0.09685585 -0.05072915 0.013244279
0003a0 15 77 02 3d 99 73 84 bc 76 68 88 3d 45 8a 54 3d
       0.031851847 -0.016168403 0.06660549 0.051889677
0003b0 18 e5 d0 bd 92 0a 99 3d a3 f2 9e bd 09 32 06 3e
       -0.10199946 0.07472719 -0.07761123 0.13105024
0003c0 3c 8e e3 bc 9c fe c7 3c 0b fd 91 3d 10 8a c4 bd
       -0.027777784 0.0244134 0.07128342 -0.09596646
0003d0 81 14 da bd 0f 94 9a 3c 83 e8 f9 3d a9 55 26 3c
       -0.10648442 0.018869428 0.12202551 0.010152259
0003e0 09 cf 10 3e 54 f0 0f 3e fc d8 d7 bd 78 a9 94 bd
       0.14141478 0.14056522 -0.10539433 -0.07258886
0003f0 0e 78 d5 bc 40 c7 bc bd 13 4b f0 bc 63 8f 3e 3d
       -0.026058223 -0.092176914 -0.029332673 0.046523463

net.4.bias f4 [64]
000000 d3 7b 2b bd cd d9 ec 3c ea c8 c7 bd 39 4b c8 bd
       -0.041866135 0.02891245 -0.09755118 -0.097799726
000010 01 55 ab bd 6d 31 f9 bd e2 9b 40 3d d2 ad 8c 3c
       -0.083658226 -0.1216763 0.04702366 0.017172728
000020 e9 38 f9 3d 5f 96 bb bd c4 08 e0 bd 7c 25 1e 3d
       0.12169058 -0.091595404 -0.10939172 0.038609967
000030 5b 6d 7a bd 03 e3 8a bc d7 01 d9 bd 5f 68 f2 3d
       -0.061139446 -0.01695395 -0.10596054 0.118363135
000040 73 6b bf 3d 2d 4b e3 bd 6e 4c 47 bd d3 dc cd 3d
       0.09346666 -0.11098323 -0.048656873 0.100518845
000050 d2 c2 f2 3d bf 34 af 3d b4 81 6a bd ec fe c1 3d
       0.11853565 0.085549824 -0.0572526 0.094724506
000060 be 76 3a 3b 41 2b 7d 3d 2a 9d 42 3d ae 52 7b 3d
       0.0028452124 0.06180883 0.047513165 0.061358146
000070 dd b6 dd bd 7a 72 8a bc 26 99 1e bd bc 94 4f 3d
       -0.10825894 -0.01690029 -0.038720272 0.050678954
000080 bd e7 aa bd b6 53 a7 3d 02 3c 61 bd 71 ed 72 3d
       -0.08344982 0.081702635 -0.05498887 0.059308473
000090 8e ea 45 bd 56 28 c6 3d c8 94 5c bc fb 7a 3b 3d
       -0.048319392 0.09675662 -0.013463207 0.04577158
0000a0 80 a0 e2 bd a6 f9 1b 3d e8 2c f7 bd d3 d6 c0 bd
       -0.11065769 0.03807988 -0.12069112 -0.094159745
0000b0 8b 4d 0b 3d 9b 5b 7f bc 23 35 9b 3d 11 71 f0 bd
       0.034009498 -0.015585805 0.075784944 -0.11740316
0000c0 65 32 c6 3d 10 8a 87 bd f5 58 e1 bd 8f fa c5 3d
       0.09677581 -0.0661813 -0.11003295 0.09666931
0000d0 5f e3 f2 3d 3f c7 bc bd 67 a4 12 bd 1b 3b c2 3c
       0.11859774 -0.09217691 -0.035801318 0.023709824
0000e0 55 11 97 bd d5 d7 67 3c 9b 04 57 bd 69 fa c7 3d
       -0.07376353 0.014150579 -0.052494626 0.09764559
0000f0 52 b3 f2 3d 38 c7 d3 3d 49 56 fb 3d 21 a3 e5 3d
       0.11850609 0.10340732 0.12272317 0.11212755

net.5.weight f4 [64]
000000 77 a2 83 3f 3f e1 7c 3f 82 64 82 3f 2a cd 7e 3f
       1.0283955 0.987812 1.0186923 0.99531806
000010 e7 ad 7e 3f d7 ff 7f 3f 09 d5 80 3f c5 07 81 3f
       0.99484104 0.99999756 1.0065013 1.0080496
000020 5c d8 83 3f 2c ff 81 3f 7e 23 81 3f ff 53 7f 3f
       1.0300403 1.0155997 1.0088956 0.9973754
000030 25 4f 81 3f 73 80 80 3f 47 13 81 3f 97 05 82 3f
       1.0102278 1.00392 1.0084008 1.0157956
000040 b7 97 7f 3f ce 21 83 3f 08 60 81 3f bc c6 81 3f
       0.99840873 1.0244691 1.0107431 1.0138774
000050 db 53 81 3f b9 9b 7f 3f 45 f3 80 3f bf 92 7c 3f
       1.0103716 0.9984699 1.007424 0.98661417
000060 82 bc 7e 3f 57 6a 7e 3f 2a 18 83 3f b0 07 81 3f
       0.9950639 0.9938101 1.0241749 1.0080471
000070 96 1e 7c 3f c6 67 84 3f 4c b0 80 3f 6c 95 80 3f
       0.9848417 1.0344169 1.0053802 1.00456
000080 bb b4 82 3f cd 7b 7f 3f ea 31 80 3f 11 b1 81 3f
       1.0211405 0.9979828 1.0015233 1.0132161
000090 b3 58 7b 3f aa 0e 80 3f 74 be 82 3f c1 15 82 3f
       0.9818222 1.0004475 1.0214372 1.0162889
0000a0 c7 54 80 3f ec 90 7e 3f 36 4a 81 3f 32 1c 80 3f
       1.0025872 0.99439883 1.0100772 1.0008605
0000b0 ba bf 7f 3f d3 7b 7d 3f 30 45 83 3f 01 41 84 3f
       0.99901927 0.99017066 1.0255489 1.0332338
0000c0 1a 2c 80 3f 82 ad 7b 3f b7 06 83 3f e1 7a 83 3f
       1.0013459 0.98311627 1.0236424 1.0271875
0000d0 af 23 81 3f 96 3e 80 3f 57 e7 7e 3f 82 38 80 3f
       1.0089015 1.00191 0.99571747 1.0017245
0000e0 81 2d 7d 3f e7 9f 7f 3f 39 17 81 3f 81 15 83 3f
       0.9889756 0.99853367 1.0085212 1.0240937
0000f0 47 4c 80 3f dc 26 82 3f a1 1b 7e 3f 54 81 81 3f
       1.0023278 1.0168109 0.9926091 1.0117593

net.5.bias f4 [64]
000000 77 44 a0 3c 53 a3 89 3b 93 90 a6 3c 94 c7 b7 3b
       0.019563897 0.004200378 0.02033261 0.0056085084
000010 14 b9 02 bc 3d d0 8f 39 14 44 f9 ba b6 7f 1c 3a
       -0.007978696 0.00027430235 -0.0019017481 0.0005969958
000020 e9 0c d5 3c 10 f2 55 3c e9 73 af 3b b3 02 78 3c
       0.026007133 0.0130582005 0.0053543937 0.015137362
000030 cd b0 d5 3b f2 bc 12 3b 81 37 ab 3c fb f5 11 3c
       0.0065213204 0.0022390452 0.02090049 0.008908744
000040 7b a6 dd bb b6 32 e5 3c 0c 14 d0 3c 2f 53 cb b9
       -0.006764231 0.027978282 0.025400184 -0.00038781154
000050 e3 90 81 3c e0 b9 90 3b be a0 da b8 4b 7d 26 bc
       0.015816158 0.0044166893 -0.000104249906 -0.010161708
000060 c8 df db bb f5 e2 8f bb de 84 d9 3c 6d 20 2e 3c
       -0.0067100264 -0.004391069 0.026552614 0.010627848
000070 bb d6 7a bc 98 00 e9 3c 39 60 0d 3c d9 ca 01 3c
       -0.015309985 0.028442666 0.008628898 0.007921898
000080 7b 55 87 3c 02 c3 9d bb ba 69 36 3a ba 04 4b 3c
       0.016520252 -0.0048145065 0.00069585035 0.012391264
000090 52 91 ac bc b2 41 90 bb 87 6d 5c 3c 57 5d 82 3c
       -0.021065388 -0.0044023627 0.013453848 0.015913649
0000a0 10 c9 b6 3b d9 eb e6 bb 7d 1b d2 3c 3e 12 eb 3b
       0.0055781677 -0.007047158 0.025647873 0.0071738055
0000b0 92 42 a4 ba b0 5f 0a 3c 92 0f 88 3c 00 80 dd 3c
       -0.0012532047 0.008445665 0.016608987 0.027038574
0000c0 e4 c6 46 3c ae 94 50 bc c8 9f 90 3c 4a de 91 3c
       0.01213238 -0.0127307605 0.017654315 0.017806191
0000d0 ee a0 81 3b 1d 20 77 bb 4f 71 92 bc e0 f0 c9 ba
       0.003955952 -0.003770835 -0.017876295 -0.0015406869
0000e0 80 32 90 bc 3a 44 a2 bc 7d d2 05 ba db 07 a4 3c
       -0.017602205 -0.019807924 -0.00051049126 0.020023277
0000f0 cd c5 8e 3b f8 d3 53 3c f5 ab e2 bb 7f 20 2e 3c
       0.004357076 0.012928955 -0.0069174715 0.010627865

net.5.running_mean f4 [64]
000000 3b 41 26 3e 7a 0e fa 3d fe a2 ed be c8 99 95 be
       0.16235821 0.122097924 -0.46413416 -0.29218888
000010 c7 cf cf 3d 90 52 8e be ae 09 af 3e 36 53 ad be
       0.10147052 -0.27797365 0.34187073 -0.33852547
000020 83 07 dd bb 5e f9 33 bc c2 9a 61 be 23 e8 73 bd
       -0.00674528 -0.010984747 -0.22031692 -0.059547555
000030 a7 c5 e0 3b 10 d7 ec bd dd 74 c1 bd 6e 74 d9 bd
       0.0068594995 -0.115644574 -0.09446118 -0.1061791
000040 fe 96 82 3d 10 c7 8c 3c 2c 3f d1 be 96 bc 06 3d
       0.06376456 0.017184764 -0.4086851 0.032894693
000050 d4 ab 99 3e 5f 67 04 bf 1d 7d 5b 3e a7 5c 28 be
       0.30013907 -0.5172023 0.21434446 -0.16441594
000060 54 c3 54 be 24 9e 86 bd 1f 30 ee 3d 73 d7 a2 3e
       -0.20777637 -0.06573132 0.11630272 0.31805
000070 9e 92 c9 3d 0a d9 20 be 0f 13 ca 3d e0 fd 15 be
       0.09842418 -0.15707794 0.098669164 -0.14647627
000080 3c 43 0b bf 28 6f f1 be 2b 1a da bd 87 aa 3c 3e
       -0.54399467 -0.47155118 -0.106495224 0.18424426
000090 a2 3c 69 3e 85 d7 24 3e 7b 4e 33 bc 54 79 db 3d
       0.22777036 0.16097839 -0.010944004 0.10716501
0000a0 3b 62 35 be 7f 4d cf 3e 3c cf b7 bb 96 6b 6a be
       -0.17713253 0.40488812 -0.005609421 -0.22892603
0000b0 6a b3 95 3d 2a 4d b5 bd 10 88 2c 3e 9f ed 1a bf
       0.07309611 -0.088526085 0.16848779 -0.6051883
0000c0 36 c3 0d 3e 65 00 12 bf 82 e5 03 be 11 ee 59 3d
       0.13843998 -0.5703185 -0.12880519 0.053205553
0000d0 d5 b8 72 3e fe 33 85 3d 89 fb 9b 3e d6 16 4f 3e
       0.2370332 0.06504057 0.30465344 0.20223555
0000e0 54 92 2d 3e da 0f 4d 3f c5 1d 2a 3e d5 a3 ac 3e
       0.16950351 0.8010231 0.16612919 0.33718744
0000f0 7b 18 13 3c 82 2b 69 3c 81 52 5b bd 37 6d ec 3d
       0.008978005 0.0142315645 -0.05354548 0.115442686

net.5.running_var f4 [64]
000000 b3 e6 14 3e bc 1e 19 3e ba c6 16 3e 79 c4 3a 3e
       0.1454113 0.1495313 0.14724246 0.18239011
000010 75 14 1d 3e 5a ad 1b 3e 06 5e 29 3e 25 da 43 3e
       0.15339835 0.15202847 0.16539773 0.19126184
000020 fb 58 31 3e 50 35 15 3e ab 3b 23 3e 2a 8f 1c 3e
       0.173191 0.14571118 0.1594073 0.15288988
000030 1f cf 22 3e dc 83 e6 3d 9e 04 7c 3e b5 22 4c 3e
       0.15899323 0.11255619 0.24611136 0.19935115
000040 7d 92 63 3e 69 3d 59 3e 77 44 ba 3e cc 68 6b 3e
       0.2222385 0.21214832 0.3638036 0.22989196
000050 73 a3 db 3d 3a 58 2f 3e af dd 9d 3e 19 04 2d 3e
       0.10724535 0.171235 0.30833194 0.16896094
000060 00 67 11 3e 6f 24 2d 3e aa 63 6e 3e d7 dc 2c 3e
       0.14199448 0.1690843 0.23280206 0.16881119
000070 2a 97 b8 3e af 6d 80 3e de ac 0d 3e 6e 5c 41 3e
       0.3605283 0.25083682 0.13835475 0.18882915
000080 35 be 1d 3e 4d 3a 03 3e 15 af ea 3d 2e ff 15 3e
       0.1540459 0.12815209 0.114591755 0.14648125
000090 4d b6 a6 3e 8b 60 f2 3d cd 7d df 3d d9 ad ee 3d
       0.3256096 0.1183482 0.109126665 0.116542526
0000a0 be 05 14 3e 0d 04 9b 3e 36 f7 33 3e ef 4f 6a 3e
       0.14455315 0.30276528 0.17574772 0.22882055
0000b0 9f da 5d 3e fc 66 1d 3e b2 46 16 3e 19 bd 96 3e
       0.21665429 0.15371317 0.14675406 0.29441145
0000c0 2e bc 00 3e fb 82 89 3e 5f 79 37 3e ec 80 ee 3d
       0.12571785 0.26857743 0.17917393 0.11645684
0000d0 bf 9f f4 3d 49 41 23 3e ba a6 f7 3d 33 fb 33 3e
       0.11944532 0.15942873 0.120923474 0.17576294
0000e0 8e 00 a0 3e 22 a8 b5 3e 71 e0 14 3e e5 17 83 3e
       0.31250423 0.35479838 0.14538743 0.25604168
0000f0 3b 46 03 3e 88 ca 0c 3e e2 ab fd 3d 2d ff 2e 3e
       0.1281976 0.13749135 0.123863 0.1708953

net.8.weight f4 [2, 64]
000000 20 72 49 3b 87 d5 b6 bd b9 ae d0 3d 07 1b bb bd
       0.003073819 -0.08927446 0.10189576 -0.091360144
000010 af 59 c2 3c a1 b6 c9 3d e4 4d 47 bd fc c4 b7 bd
       0.023724405 0.09849287 -0.048658267 -0.08973119
000020 57 6a 0e be 9c 97 4e 3d b4 88 06 be a1 c6 d1 bc
       -0.13907753 0.050437555 -0.13138086 -0.025607409
000030 67 2d e8 bc 21 aa 28 3d 72 a2 72 bc eb f1 11 be
       -0.028341962 0.041177873 -0.014809238 -0.1425244
000040 01 47 82 3d b0 0c 3d 3d e0 3a 32 bc a4 40 d8 3c
       0.06361199 0.046154678 -0.010878295 0.02639801
000050 c9 26 09 be 39 d8 bb 3d 46 cc e7 bd 42 0b c1 bc
       -0.13393702 0.091721006 -0.11318259 -0.023564938
000060 5b b1 90 3d 5b 80 1e 3d 65 46 a8 3d 1f f8 c9 bd
       0.07065078 0.038696628 0.08216552 -0.098617785
000070 a6 9e a1 3d 68 85 03 3e 02 96 f6 bd f0 26 d5 bd
       0.07891588 0.12843859 -0.120403305 -0.10407817
000080 07 ac 86 bc bc f2 28 3d 7d 95 3e 3d dc 5f a1 3d
       -0.01643945 0.041247115 0.046529282 0.07879612
000090 1b 0b 51 bd c7 f0 c5 bd ff 8b 7b 3c 80 06 30 bd
       -0.05103598 -0.09665065 0.015353202 -0.04297495
0000a0 19 87 c4 bd f6 f5 e7 3d 18 b4 a0 3d fe d0 b0 3c
       -0.0959608 0.1132621 0.0784685 0.02158403
0000b0 0e 4c df 3d 01 92 e8 3d 29 16 3e 3d e1 8b 10 3e
       0.10903178 0.11355973 0.046407852 0.1411586
0000c0 65 de c2 3d ec 4e be 3d 5d a8 84 bd e4 91 f0 3b
       0.09515075 0.09292397 -0.06477425 0.0073416103
0000d0 e8 d5 b3 bd c7 f9 fd 3d f3 60 14 3c 86 cc 7b 3d
       -0.08781034 0.12401157 0.009056318 0.061474346
0000e0 60 2f f7 3a 35 8d 14 3d e8 bd 99 3d 4a 73 08 be
       0.0018858723 0.036267478 0.07506925 -0.1332523
0000f0 a7 a0 ca bd 76 99 e6 3d 7b e8 86 3d 91 c4 ff 3d
       -0.09893923 0.11259739 0.06587311 0.12488664
000100 57 e0 f6 3d ec a0 af 3d 6d 82 ee 3c ef 23 c8 3d
       0.12054508 0.08575615 0.029114926 0.09772479
000110 66 0c 85 3d 3d 4b 9d bd 6d 6e 66 3d 17 fb fe bd
       0.064965054 -0.07680366 0.056257654 -0.12450235
000120 b4 3d 04 3e 9b 50 b6 bb 23 73 b0 3d 88 1e a2 bd
       0.12914163 -0.005563808 0.086157106 -0.079159796
000130 85 cf 8b 3d 0e bd c5 3d 0d bd fe bd 81 2f ba bd
       0.068266906 0.096552 -0.12438402 -0.09091092
000140 ba 5c fd 3c d1 61 34 bd 8f 1e e6 bd 8a e6 a7 bd
       0.030928005 -0.044038597 -0.11236297 -0.08198269
000150 87 cc b5 bd ca 65 5c bd 65 34 e3 bc be 70 28 bd
       -0.08876901 -0.05380801 -0.027734945 -0.041123144
000160 0e 64 a1 3d 95 49 89 3d ec fd c6 bd 4a d1 93 bc
       0.07880412 0.06703488 -0.097164005 -0.018044133
000170 fc 44 b7 3d 06 78 81 3a 77 9c 00 3e 1a 25 8c 3d
       0.089487046 0.0009877689 0.12559687 0.06843014
000180 cd 85 a1 bd b8 e5 87 bd c6 7c 01 3e bf ae 37 bd
       -0.078868486 -0.06635612 0.12645254 -0.044844385
000190 d2 2b 50 3d e4 6e 82 3d 4a d7 c2 bd 39 73 c0 bd
       0.05082304 0.06368807 -0.095137194 -0.09396977
0001a0 b5 6c 8a bb b4 8e 17 bc 24 4a 03 3c 7c d3 f8 3d
       -0.0042243847 -0.009250332 0.008013282 0.121497124
0001b0 1c 4d 8a 3d d5 ef 3f 3b aa d1 a4 bd 0a 25 96 3c
       0.06752989 0.0029287238 -0.08047803 0.018328208
0001c0 e9 ab a3 3d a6 5e 8e 3d fd 9b c3 3b ea e4 08 3e
       0.07991774 0.069516465 0.005969523 0.13368574
0001d0 c8 6b e9 3d 68 6d 4d 3d 3c 7e c9 bd 63 73 e8 3d
       0.11397511 0.050153166 -0.098385304 0.11350133
0001e0 69 41 97 bd 51 83 b4 bb ec 24 ce 3d a9 16 f2 3c
       -0.07385523 -0.005508818 0.10065636 0.02955182
0001f0 3c c7 ab bd 9b 10 d9 bb 56 a3 c8 bd e5 f2 0b bc
       -0.0838761 -0.006624294 -0.09796779 -0.008541797

net.8.bias f4 [2]
000000 e4 19 eb bc 02 60 31 bd
       -0.028698869 -0.04330445
